src/modelDevelopment/training/model_files/deep_mlp_model_diff.pt (torch, 59158 bytes, 14 tensors)

model.0.weight f4 [128, 32]
-0.106540516 0.18657856 -0.06274575 -0.08454409 -0.039889853 -0.11104982 0.06926938 0.030876337
0.14474297 0.15657718 -0.14689237 0.04431921 0.15367125 -0.09491268 0.13969092 0.2624337
0.0390436 -0.13719004 -0.036880255 -0.14284045 -0.22116064 0.040232126 -0.15797321 -0.10886744
-0.0068184 0.012199251 -0.18361251 -0.10546289 0.06978436 0.055452697 -0.051298603 0.084859416
0.19129495 0.120123655 -0.13077089 0.03764394 0.17539166 0.119736426 0.14451632 0.19031997
-0.0036736343 -0.12038774 -0.048369016 -0.094181165 -0.14657234 -0.2548389 -0.025432985 -0.1619232
0.007634935 0.098410174 0.1305784 0.07916247 0.1412958 -0.1912389 0.03667484 0.13565025
-0.07542894 0.05525901 -0.058624763 0.10849133 -0.03443758 -0.17105937 0.13575694 -0.08090758
0.0032975608 0.040289607 -0.12971579 0.050298735 -0.027999764 0.11705522 0.024769869 -0.013560337
-0.07896401 -0.08711489 0.04110022 0.15081204 -0.12599707 0.09921898 -0.09397742 0.16945852
0.07351891 -0.08862062 -0.09388608 0.04466639 -0.2377978 0.33391857 -0.19294164 0.18477732
0.16639002 -0.14134292 0.024425859 0.05293861 -0.028774643 -0.20467079 0.11012339 0.039027788
-0.15310052 -0.017570805 -0.26223817 -0.081422284 0.17488632 -0.30491713 0.0763585 0.016786208
0.016150715 0.037875507 0.051879887 -0.089989774 -0.033291023 0.15295486 0.15607485 0.056186352
0.07142363 0.12282961 -0.03745756 -0.006730228 -0.23998208 0.06226142 -0.042954903 -0.16579646
-0.04560581 -0.06150272 -0.054046694 0.017932719 0.053552873 0.20502757 -0.017646655 0.11868172
0.118851095 0.1759609 -0.10255648 -0.1556916 -0.24811102 -0.15820614 -0.11679216 0.14339155
0.09482509 -0.06993289 -0.18457337 0.021995723 -0.0025935885 -0.2159802 -0.24974023 -0.028474795
0.051865317 0.10683596 0.008815644 0.12812094 0.13807082 0.025535181 -0.08361718 0.14540733
0.09959318 0.098807424 0.14581351 0.05274122 -0.0148697095 0.1330131 0.06512514 -0.024439078
0.0072671394 -0.04382963 -0.14444219 0.18813622 -0.110807344 -0.0709039 -0.22896379 0.062874205
0.06405918 0.08862602 -0.10836573 0.020176321 -0.16301064 -0.0090368735 -0.14939053 -0.1275617
0.20913446 -0.011941104 -0.024172377 0.079379566 -0.18381162 -0.1637742 -0.13208464 0.16893631
0.07802935 -0.18809691 0.071858786 0.079428405 -0.11391544 -0.06320895 -0.043844294 -0.10346671
0.0033193352 -0.20275266 -0.09189655 -0.1281519 -0.13401003 0.12791853 0.1254218 0.17866665
-0.030522006 0.008624694 0.25237897 0.16011655 0.033179544 0.117154114 0.0889392 -0.27522674
0.1245255 0.049948886 -0.20351328 0.07865603 0.022189835 0.08903418 0.057703447 -0.18549073
-0.061794594 0.011487926 0.055406023 -0.16086048 -0.04925304 0.14789183 -0.10990919 0.09479683
-0.035443846 -0.01970182 0.04887472 -0.110512055 -0.013043893 -0.0149835115 0.2186358 0.14309649
0.15706998 0.09770415 0.13110809 0.034533806 0.18660757 -0.046324905 -0.2245473 -0.12654492
0.08652072 0.08466729 -0.05146852 0.028192034 -0.0750565 0.17011243 0.100575276 0.16488265
0.19761047 0.038421683 -0.05477236 0.08418362 -0.110631466 -0.08367197 -0.034264043 -0.17591761
00000000: ea31 dabd 730e 3f3e d880 80bd 7425 adbd
00000010: 8b63 23bd 176e e3bd 1bdd 8d3d 5ff0 fc3c
00000020: 8037 143e c555 203e f46a 16be 0f88 353d
00000030: ff5b 1d3e 9461 c2bd 230b 0f3e b65d 863e
00000040: 2fec 1f3d 8c7b 0cbe c00f 17bd c444 12be
00000050: ef77 62be 71ca 243d bbc3 21be e4f5 debd
00000060: e36c dfbb 5edf 473c eb04 3cbe edfc d7bd
00000070: 1aeb 8e3d 5e22 633d 7c1e 52bd c6ca ad3d
00000080: d3e2 433e 6403 f63d cee8 05be 8830 1a3d
00000090: df99 333e 5f38 f53d 16fc 133e 3de3 423e
000000a0: 5bc1 70bb d98d f6bd 971e 46bd 0ee2 c0bd
000000b0: 0f17 16be 3f7a 82be d658 d0bc 32cf 25be
000000c0: 7a2e fa3b 468b c93d 58b6 053e ef1f a23d
000000d0: d9af 103e 21d4 43be 5b38 163d e6e7 0a3e
000000e0: 7d7a 9abd 4657 623d 8520 70bd b430 de3d
000000f0: 6b0e 0dbd 302a 2fbe de03 0b3e e0b2 a5bd
00000100: e41b 583b b706 253d 37d4 04be 0c06 4e3d
00000110: c35f e5bc a6ba ef3d 2eea ca3c 2d2c 5ebc
00000120: e2b7 a1bd 4b69 b2bd b458 283d 796e 1a3e
00000130: 6005 01be 5233 cb3d 3c77 c0bd 8986 2d3e
00000140: 1591 963d ba7e b5bd 5847 c0bd 1bf4 363d
00000150: 4481 73be 60f7 aa3e 7e92 45be 4436 3d3e
00000160: 2562 2a3e 33bc 10be bd18 c83c 28d6 583d
00000170: cdb8 ebbc 3895 51be 5f88 e13d 9adb 1f3d
00000180: 62c6 1cbe a6f0 8fbc 1544 86be bac0 a6bd
00000190: 6615 333e 191e 9cbe d861 9c3d 3b83 893c
000001a0: 814e 843c 5923 1b3d 0180 543d 8f4c b8bd
000001b0: 2b5c 08bd 33a0 1c3e 16d2 1f3e a923 663d
000001c0: 8d46 923d 178e fb3d 196d 19bd 3f89 dcbb
000001d0: ddbd 75be d505 7f3d 7bf1 2fbd 8cc6 29be
000001e0: 28cd 3abd 47ea 7bbd 1160 5dbd a3e7 923c
000001f0: 425a 5b3d bff2 513e b88f 90bc 670f f33d
00000200: 3468 f33d 182f 343e 2209 d2bd 9e6d 1fbe
00000210: d110 7ebe ca00 22be ba30 efbd 3cd5 123e
00000220: a833 c23d fa38 8fbd cd00 3dbe 6030 b43c
00000230: 32f9 29bb ea29 5dbe e7bb 7fbe f943 e9bc
00000240: ba70 543d d0cc da3d 7e6f 103c 2332 033e
00000250: 7062 0d3e 282f d13c 7c3f abbd a9e5 143e
00000260: 82f7 cb3d 8c5b ca3d 2350 153e 2d07 583d
00000270: 15a0 73bc 9634 083e 5460 853d 7634 c8bc
00000280: 2f21 ee3b b386 33bd a7e8 13be c8a6 403e
00000290: f6ee e2bd 1036 91bd 7c75 6abe 31c4 803d
000002a0: 7631 833d 8f81 b53d daee ddbd d048 a53c
000002b0: 43ec 26be 650f 14bc d5f9 18be 899f 02be
000002c0: 5827 563e 9fa4 43bc 2605 c6bc c191 a23d
000002d0: 1d39 3cbe 6db4 27be 3241 07be a4fd 2c3e
000002e0: dacd 9f3d 7a9c 40be b32a 933d 5cab a23d
000002f0: 804c e9bd b273 81bd 1396 33bd 5be6 d3bd
00000300: 3489 593b 659e 4fbe 4234 bcbd 403a 03be
00000310: ed39 09be 13fd 023e 936e 003e 64f4 363e
00000320: 4909 fabc 974e 0d3c d137 813e 98f5 233e
00000330: 46e7 073d 7fee ef3d c125 b63d 85ea 8cbe
00000340: 3a07 ff3d 3497 4c3d c965 50be 6a16 a13d
00000350: 75c7 b53c 8d57 b63d 735a 6c3d 48f1 3dbe
00000360: 541c 7dbd db37 3c3c 6df1 623d 9cb8 24be
00000370: 8ebd 49bd f570 173e 1218 e1bd d724 c23d
00000380: 912d 11bd b665 a1bc dc30 483d 2554 e2bd
00000390: 0db6 55bc 677d 75bc 10e2 5f3e e387 123e
000003a0: f4d6 203e 1d19 c83d 3341 063e 5273 0d3d
000003b0: 0e16 3f3e 2fbf 3dbd baef 65be fe94 01be
000003c0: c631 b13d 0b66 ad3d a8d0 52bd fbf2 e63c
000003d0: 39b7 99bd f431 2e3e 69fa cd3d ffd6 283e
000003e0: 665a 4a3e 0e60 1d3d fb58 60bd 7668 ac3d
000003f0: c092 e2bd 365c abbd 7458 0cbd bf23 34be

model.0.bias f4 [128]
-0.0695792 0.0011904412 -0.067213975 0.09006545 0.1353881 0.06904913 0.15841712 0.14761688
-0.110027 0.056031164 -0.11335262 0.01994557 0.093596265 -0.025492601 -0.09623377 0.10881243
-0.099548735 -0.0052930326 0.107313 -0.081567876 -0.01461326 -0.04288512 0.12897761 -0.004331599
-0.1570127 -0.07296838 -0.0028962325 -0.15864024 -0.122124456 0.14418304 -0.012914233 -0.15633364
-0.11269737 0.057881977 0.09574317 0.11015716 0.15989383 -0.08641408 -0.041122966 -0.1119697
0.07972206 0.04350413 0.03812193 -0.032284018 0.100760534 -0.027075442 0.14074436 0.054511145
-0.14113508 -0.16886303 -0.09399644 0.10079596 0.00020250503 0.1676633 -0.14590152 -0.038450215
0.10054207 -0.1555603 -0.15502933 -0.059932236 -0.092937306 -0.15392354 0.03152261 -0.12146485
0.12085856 0.12533091 -0.010568869 0.051268313 -0.00076734653 -0.114364915 0.116332464 -0.054911964
-0.17109635 -0.13943525 0.039837815 0.0013176537 -0.09761727 0.051448252 0.056331843 0.08022996
0.043650027 0.011794669 -0.0091531845 0.042631015 -0.090666786 -0.10413965 0.0115316445 0.074154764
0.12643164 0.13730977 -0.03309258 0.07381476 -0.08920117 0.04762832 -0.1463707 0.039659355
0.13405007 -0.009853296 0.02108847 0.15512101 0.0679907 -0.0421762 -0.05598546 0.07512458
-0.032621756 -0.12288173 0.16721344 -0.0437518 0.02280326 0.050669357 -0.09636979 -0.03809894
-0.0448689 0.09607748 -0.12810975 0.13028832 0.026055098 0.0066251177 0.05903623 -0.020383505
0.06670283 -0.0043400046 0.008766016 0.0025664095 0.17112139 0.02848213 -0.13893078 0.14425175
00000000: 8a7f 8ebd 9408 9c3a 7ba7 89bd 3c74 b83d
00000010: 2ea3 0a3e a169 8d3d 1938 223e e128 173e
00000020: d655 e1bd ef80 653d 6b25 e8bd e464 a33c
00000030: 66af bf3d dcd5 d0bc 3616 c5bd 0dd9 de3d
00000040: 35e0 cbbd 2d71 adbb ebc6 db3d 0f0d a7bd
00000050: 746c 6fbc 4fa8 2fbd b512 043e 16f0 8dbb
00000060: f0c7 20be 7270 95bd b8ce 3dbb 9672 22be
00000070: 631c fabd b8a4 133e 3896 53bc ed15 20be
00000080: e1cd e6bd a715 6d3d ff14 c43d 149a e13d
00000090: 35bb 233e ddf9 b0bd 8e70 28bd 5f50 e5bd
000000a0: 5245 a33d 6331 323d be25 1c3d 3f3c 04bd
000000b0: 8a5b ce3d 51cd ddbc 4a1f 103e 1447 5f3d
000000c0: b785 10be 6eea 2cbe 3581 c0bd 1d6e ce3d
000000d0: 8857 5439 eeaf 2b3e 3567 15be f97d 1dbd
000000e0: 00e9 cd3d 334b 1fbe 02c0 1ebe 817b 75bd
000000f0: ea55 bebd 229e 1dbe da1d 013d 90c2 f8bd
00000100: b184 f73d bf56 003e 0d29 2dbc b9fe 513d
00000110: c127 49ba 2738 eabd b73f ee3d 5eeb 60bd
00000120: e233 2fbe 1dc8 0ebe fa2c 233d 1fb5 ac3a
00000130: 90eb c7bd 67bb 523d 38bc 663d 9b4f a43d
00000140: 5fca 323d 6d3e 413c 3df7 15bc dc9d 2e3d
00000150: 82af b9bd 2b47 d5bd 39ef 3c3c 74de 973d
00000160: 4c77 013e ef9a 0c3e 168c 07bd 312c 973d
00000170: 1aaf b6bd ea15 433d 33e2 15be d971 223d
00000180: 6c44 093e b86f 21bc bac1 ac3c 0bd8 1e3e
00000190: b53e 8b3d f3c0 2cbd 0251 65bd eada 993d
000001a0: 649e 05bd 6ba9 fbbd 003a 2b3e 1635 33bd
000001b0: e7cd ba3c ac8a 4f3d 865d c5bd a20d 1cbd
000001c0: 74c8 37bd 45c4 c43d 342f 03be 4d6a 053e
000001d0: 8071 d53c 8417 d93b f9cf 713d 4ffb a6bc
000001e0: 7e9b 883d 9936 8ebb 569f 0f3c 3531 283b
000001f0: 723a 2f3e 5b53 e93c df43 0ebe bbb6 133e

model.1.weight f4 [128]
1.0525026 1.1542633 1.0711983 1.0563409 0.93818206 1.0291697 0.9708246 1.0126516
0.98463416 1.0207443 1.0549542 1.0122119 1.0845071 1.0497944 0.88945603 1.0022964
0.8392634 1.0752448 0.90713096 1.0173362 0.9995162 0.9094063 0.9901506 0.97553957
0.92064077 0.96885306 1.020865 1.0178379 0.9938404 1.0051324 1.0135978 1.1213478
0.97014433 1.0079188 1.0669543 1.0958831 0.9540947 0.9162544 1.0205952 0.9658786
0.9399799 1.0763851 0.99981457 0.9175821 1.1492814 1.0898739 0.9517555 0.96217763
1.0488057 1.0434896 0.92529136 1.0478278 0.9591864 0.937763 1.0222268 1.0502641
0.9661157 1.0028576 0.8426653 0.9559779 1.112868 0.93583447 1.0664328 1.0108805
1.0396627 0.99675965 0.95890796 1.0591208 1.0399313 0.9581232 0.9712917 1.1167908
0.96394813 0.9875063 0.9644116 1.0442562 0.98121357 1.0418459 0.98730063 0.9884275
0.977137 1.0397838 1.0428989 1.0685159 0.96241885 0.8557329 0.9489336 0.9962401
1.0988232 1.0004214 1.0369697 0.9814093 0.8941107 0.9890381 0.9363072 1.0170342
0.93161845 1.0370464 1.0450575 0.9608903 1.0034202 0.99597144 1.0277753 1.0392479
1.0855323 0.86148673 0.97028154 0.9956748 0.96842575 1.0258464 0.9480173 0.9452072
1.0293201 1.0538203 1.0222355 0.9508263 1.0240158 1.0927451 0.96791714 1.01459
0.9586159 1.0322384 0.9820341 0.9812731 1.0558459 0.9556185 0.90595937 1.0439371
00000000: 68b8 863f e6be 933f 071d 893f 2e36 873f
00000010: b32c 703f d5bb 833f f687 783f 919e 813f
00000020: fc10 7c3f c0a7 823f bd08 873f 2990 813f
00000030: 21d1 8a3f aa5f 863f 64b3 633f 404b 803f
00000040: f7d9 563f 9fa1 893f bc39 683f 1338 823f
00000050: 4be0 7f3f dace 683f 827a 7d3f f6bc 793f
00000060: 1daf 6b3f c106 783f b4ab 823f 8348 823f
00000070: 536c 7e3f 2ea8 803f 93bd 813f 5388 8f3f
00000080: 615b 783f 7c03 813f f591 883f e645 8c3f
00000090: 8d3f 743f a68f 6a3f dda2 823f d243 773f
000000a0: 86a2 703f fdc6 893f d9f3 7f3f a9e6 6a3f
000000b0: a71b 933f fd80 8b3f 40a6 733f 4651 763f
000000c0: 443f 863f 1191 853f e5df 6c3f 391f 863f
000000d0: 3d8d 753f 3c11 703f 54d8 823f 0e6f 863f
000000e0: 5c53 773f a35d 803f eab8 573f f8ba 743f
000000f0: 7572 8e3f d992 6f3f df80 883f 8864 813f
00000100: ab13 853f a42b 7f3f fe7a 753f 4591 873f
00000110: 781c 853f 9047 753f 93a6 783f 00f3 8e3f
00000120: 4ec5 763f 36cd 7c3f aee3 763f 30aa 853f
00000130: d030 7b3f 355b 853f bcbf 7c3f 9609 7d3f
00000140: a725 7a3f a317 853f b67d 853f 21c5 883f
00000150: 1561 763f 5011 5b3f 50ed 723f 9709 7f3f
00000160: 3da6 8c3f cf0d 803f 6cbb 843f a43d 7b3f
00000170: 70e4 643f 9a31 7d3f d4b1 6f3f 2d2e 823f
00000180: 8c7e 6e3f f0bd 843f 72c4 853f e8fc 753f
00000190: 1370 803f fcf7 7e3f 248e 833f 1306 853f
000001a0: b9f2 8a3f 658a 5c3f 5f64 783f 8be4 7e3f
000001b0: c0ea 773f ef4e 833f 43b1 723f 19f9 713f
000001c0: c3c0 833f 95e3 863f 9dd8 823f 5a69 733f
000001d0: f312 833f 12df 8b3f 6bc9 773f 16de 813f
000001e0: da67 753f 6320 843f 9666 7b3f b734 7b3f
000001f0: f525 873f 6aa3 743f f4ec 673f bb9f 853f

model.1.bias f4 [128]
-0.013888412 -0.0964934 -0.07859367 0.036875412 -0.04477522 0.014329499 -0.16361335 -0.062468216
-0.026565867 -0.087224536 0.017104242 -0.052514486 -0.06805512 -0.147863 -0.028937766 -0.09847787
-0.091030784 -0.04074727 -0.112303905 0.04028063 -0.01679102 -0.10378689 -0.039998617 0.04855604
-0.15884049 0.013887927 -0.016065229 -0.10876758 -0.11253624 -0.10438924 -0.08465515 -0.012034347
-0.0043341224 -0.1226083 -0.116380855 -0.045124665 -0.046045683 -0.16570276 -0.10046409 -0.15483733
-0.08602121 -0.08863907 -0.01926262 -0.07432246 -0.06838349 0.07568911 -0.16211712 -0.013856891
-0.12402806 -0.028489176 -0.21078148 -0.094688706 -0.106813215 -0.0426441 -0.08150799 -0.042783644
-0.1312068 -0.12977591 -0.11786356 0.032660294 -0.060948614 -0.08296583 -0.070115946 -0.057655226
-0.16388814 -0.14321926 -0.029144444 -0.17883037 -0.047227595 -0.103041366 -0.1169279 0.022630092
-0.11735807 -0.10489877 -0.027776655 0.027427157 -0.030742463 -0.102296345 -0.1944054 -0.12876216
0.03929494 -0.042963147 -0.08537021 -0.10817616 -0.14283806 -0.167632 -0.17380057 -0.27903375
-0.10839372 -0.08232104 -0.020111509 -0.018297447 -0.061346516 -0.082634315 -0.2607456 -0.056822266
-0.0436403 -0.041651946 -0.0032002444 -0.1112731 -0.06450343 -0.12857834 -0.009318334 -0.13437521
-0.044771317 -0.18026869 -0.030936275 -0.035271183 -0.21912916 0.03439992 -0.0722248 -0.12460894
-0.03137468 -0.037749145 -0.23912014 -0.078580044 0.00083984 0.013329845 -0.17074278 -0.13900936
-0.15866397 -0.20847484 -0.034454286 -0.011280388 0.010098229 -0.0969122 -0.118800156 -0.06099167
00000000: 398c 63bc 559e c5bd b8f5 a0bd ac0a 173d
00000010: 3966 37bd 46c6 6a3c 428a 27be acde 7fbd
00000020: a9a0 d9bc c7a2 b2bd 321e 8c3c 6e19 57bd
00000030: 7c60 8bbd 6669 17be e50e edbc c4ae c9bd
00000040: 596e babd 9ce6 26bd 97ff e5bd 4dfd 243d
00000050: 528d 89bc 398e d4bd 97d5 23bd b3e2 463d
00000060: 15a7 22be 308a 633c 3a9b 83bc 89c1 debd
00000070: 6679 e6bd 07ca d5bd ae5f adbd b62b 45bc
00000080: 4105 8ebb 0f1a fbbd 1659 eebd a4d4 38bd
00000090: 669a 3cbd fcad 29be 1ec0 cdbd ad8d 1ebe
000000a0: e32b b0bd 6788 b5bd a4cc 9dbc 6036 98bd
000000b0: a50c 8cbd e402 9b3d 0802 26be 0308 63bc
000000c0: 6c02 febd 2262 e9bc 1ad7 57be 27ec c1bd
000000d0: e3c0 dabd 94ab 2ebd a9ed a6bd e73d 2fbd
000000e0: 135b 06be fae3 04be 7362 f1bd cdc6 053d
000000f0: 41a5 79bd fde9 a9bd f398 8fbd e327 6cbd
00000100: 4bd2 27be 12a8 12be 54c0 eebc 4f1f 37be
00000110: b971 41bd 5a07 d3bd e577 efbd be62 b93c
00000120: 6e59 f0bd 2bd5 d6bd de8b e3bc ebae e03c
00000130: 9ed7 fbbc bf80 d1bd 3612 47be 3ada 03be
00000140: bbf3 203d 20fa 2fbd 94d6 aebd 768b ddbd
00000150: 2444 12be b9a7 2bbe c7f8 31be 83dd 8ebe
00000160: 87fd ddbd ef97 a8bd e4c0 a4bc 87e4 95bc
00000170: 7c46 7bbd 2e3c a9bd 7380 85be 77be 68bd
00000180: 2cc0 32bd 3b9b 2abd 31bb 51bb 27e3 e3bd
00000190: 601a 84bd 0aaa 03be edab 18bc a899 09be
000001a0: 2162 37bd 5b98 38be 126e fdbc 8478 10bd
000001b0: 6563 60be eee6 0c3d 99ea 93bd f932 ffbd
000001c0: bd82 00bd d99e 1abd e9db 74be 93ee a0bd
000001d0: b528 5c3a 6c65 5a3c 32d7 2ebe 7858 0ebe
000001e0: cf78 22be 6e7a 55be f01f 0dbd 60d1 38bc
000001f0: 0b73 253c e779 c6bd 7f4d f3bd 67d2 79bd

model.1.running_mean f4 [128]
-0.07426151 -0.008784561 -0.052578434 0.07188715 0.114385985 0.057328574 0.15087482 0.117729425
-0.117092855 0.06798629 -0.1050843 0.037488252 0.08338393 -0.06284384 -0.07825151 0.10030032
-0.10706168 -0.0071738437 0.13645653 -0.05650442 -0.018274669 -0.06443474 0.1386769 -0.028966222
-0.18074071 -0.044104867 -0.012140143 -0.18747163 -0.10445349 0.14048441 -0.015676497 -0.17286627
-0.1294219 0.06294751 0.1201603 0.13087139 0.16371451 -0.07798945 -0.056588963 -0.13940774
0.08193979 0.047420375 0.04509838 -0.034327403 0.1059439 -0.015931726 0.15768081 0.030946657
-0.13848038 -0.19533211 -0.09502476 0.082355954 0.019149639 0.16690496 -0.15772179 -0.03390814
0.12655574 -0.17556328 -0.1425043 -0.050055042 -0.09433372 -0.14960927 0.03853392 -0.118418396
0.11652516 0.08283273 -0.036509145 0.04718868 0.032669254 -0.12696014 0.11327212 -0.08566129
-0.15844065 -0.1321871 0.0347123 -0.0008398164 -0.0840616 0.027855018 0.06886363 0.054280557
0.04222754 0.031733856 -0.017126376 0.023757104 -0.095747225 -0.106569834 0.05243 0.10193993
0.118904546 0.14045042 -0.024490606 0.039095897 -0.07906045 0.04627203 -0.14387453 0.035792205
0.13838702 0.0036839582 0.03998739 0.15033703 0.09211278 -0.07835054 -0.034851626 0.10178606
-0.046235975 -0.11366355 0.13822216 -0.046358168 0.03130896 0.058160383 -0.10376831 -0.017692061
-0.07122702 0.10772833 -0.11612931 0.12693372 0.07753467 0.032610804 0.06704531 -0.043406703
0.070935726 -0.028145745 0.010743496 -0.02005951 0.1663213 0.03346324 -0.11924452 0.18552318
00000000: 6b16 98bd 1fed 0fbc 7c5c 57bd 9239 933d
00000010: 3343 ea3d 5ed1 6a3d ee7e 1a3e 201c f13d
00000020: 61ce efbd 653c 8b3d 7036 d7bd 488d 193d
00000030: 32c5 aa3d 45b4 80bd 5442 a0bd 416a cd3d
00000040: 2743 dbbd 9012 ebbb 43bb 0b3e 2e71 67bd
00000050: c2b4 95bc 5cf6 83bd 5101 0e3e 924a edbc
00000060: 1814 39be 4ea7 34bd 73e7 46bc 90f8 3fbe
00000070: b6eb d5bd 25db 0f3e ff6b 80bc db03 31be
00000080: 2d87 04be a0ea 803d 9a16 f63d 2603 063e
00000090: c7a4 273e efb8 9fbd d4c9 67bd e7c0 0ebe
000000a0: 0cd0 a73d de3b 423d 14b9 383d e49a 0cbd
000000b0: 1ef9 d83d 4083 82bc 1477 213e d883 fd3c
000000c0: cdcd 0dbe 2405 48be 579c c2bd 3daa a83d
000000d0: b4df 9c3c 22e9 2a3e d281 21be 43e3 0abd
000000e0: d497 013e dcc6 33be a6ec 11be 8406 4dbd
000000f0: 0a32 c1bd 2c33 19be bed5 1d3d 5885 f2bd
00000100: bea4 ee3d 35a4 a93d 9d8a 15bd eb48 413d
00000110: 32d0 053d d701 02be 37fb e73d 306f afbd
00000120: 443e 22be 0e5c 07be 7c2e 0e3d 2027 5cba
00000130: 7d28 acbd 3530 e43c 6008 8d3d 4a55 5e3d
00000140: c9f6 2c3d 5cfb 013d 9d4c 8cbc 429e c23c
00000150: 1f17 c4bd 4941 dabd d7c0 563d e2c5 d03d
00000160: 3a84 f33d 3cd2 0f3e 86a0 c8bc 0523 203d
00000170: 72ea a1bd bd87 3d3d d853 13be d99a 123d
00000180: 54b5 0d3e 906e 713b d1c9 233d f3f1 193e
00000190: a0a5 bc3d 3f76 a0bd 94c0 0ebd 3675 d03d
000001a0: ef61 3dbd 6fc8 e8bd 1c8a 0d3e 10e2 3dbd
000001b0: d33d 003d 9539 6e3d 7b84 d4bd f1ee 90bc
000001c0: 79df 91bd aca0 dc3d 34d5 edbd eafa 013e
000001d0: 7fca 9e3d e892 053d 0d4f 893d 3acb 31bd
000001e0: c046 913d e891 e6bc 7d05 303c d753 a4bc
000001f0: 2250 2a3e c010 093d 7936 f4bd caf9 3d3e

model.1.running_var f4 [128]
0.5162723 0.5126269 0.50778955 0.5771366 0.4162897 0.35490534 0.23729792 0.48212767
0.8845943 0.327294 1.1877277 0.2496781 0.44446117 0.5963712 0.501366 0.6304474
0.3809668 0.9456292 0.9051092 0.52365375 0.5612533 0.38691145 0.4800002 0.25448737
0.30838042 0.9153689 0.4861405 1.8054063 0.59829116 0.45401767 0.45388588 0.43709728
0.3619246 0.32277223 0.20285714 0.4903865 0.8059918 1.3605814 0.46483597 0.4061127
0.40012932 0.32704586 0.59658164 1.2983891 0.4921359 0.39980906 0.4414592 0.438059
0.37055144 0.48677164 0.432745 0.32756662 0.39506873 0.6485783 1.1761398 0.43579522
0.7204738 0.35251167 0.71643054 0.5674011 0.48924878 0.6810763 0.24958494 0.37273523
0.26634926 0.5432261 0.25070435 0.29317003 0.50147945 0.6054663 0.73233724 0.83953816
0.43622085 0.22479285 0.27746522 0.35370895 0.24158967 0.8433395 0.33964792 0.60733277
0.55589586 0.36008298 0.95634496 0.40295568 1.0901041 0.5656442 1.3769898 0.3056485
0.45026577 0.1677118 0.22531068 0.81870204 0.36779842 0.5960871 0.3209913 0.85225236
0.6877458 0.57131886 0.4833753 0.7439153 0.41646415 0.45792332 0.7667607 0.55217415
0.49546322 0.5155449 0.7770787 1.1162629 0.3756134 0.47367987 0.36755592 0.8603709
0.44282672 0.36443812 0.43154085 0.46416622 0.43437856 0.56543803 0.37295055 0.5744533
0.4852363 0.32389265 0.60664195 0.35997304 0.28772783 0.32585505 0.3269254 0.524308
00000000: 6c2a 043f 843b 033f 7ffe 013f 39bf 133f
00000010: ec23 d53e 27b6 b53e 3afe 723e 70d9 f63e
00000020: c674 623f 1493 a73e 7607 983f 9eab 7f3e
00000030: 6a90 e33e c8ab 183f 8659 003f 0065 213f
00000040: 150e c33e c114 723f 3db5 673f 2c0e 063f
00000050: 4cae 0f3f 4219 c63e 96c2 f53e 2b4c 823e
00000060: 0ae4 9d3e 9e55 6a3f 68e7 f83e 8e17 e73f
00000070: 9c29 193f 0175 e83e bb63 e83e 37cb df3e
00000080: 2e4e b93e 6742 a53e c8b9 4f3e f013 fb3e
00000090: 7b55 4e3f 8827 ae3f fbfe ed3e 01ee cf3e
000000a0: c0dd cc3e 8e72 a73e 93b9 183f 9d31 a63f
000000b0: 3df9 fb3e c6b3 cc3e f106 e23e 4549 e03e
000000c0: ebb8 bd3e 223a f93e c190 dd3e d0b6 a73e
000000d0: 7346 ca3e 3a09 263f c08b 963f 8d20 df3e
000000e0: f970 383f 697c b43e fe67 373f 3341 113f
000000f0: d17e fa3e 045b 2e3f 3293 7f3e 27d7 be3e
00000100: ee5e 883e de10 0b3f 525c 803e 621a 963e
00000110: f560 003f d7ff 1a3f 747a 3b3f f9eb 563f
00000120: 5758 df3e 1930 663e ec0f 8e3e 5719 b53e
00000130: 4863 773e 19e5 573f 55e6 ad3e 297a 1b3f
00000140: 314f 0e3f cc5c b83e 06d3 743f 3550 ce3e
00000150: 8888 8b3f 0fce 103f 3441 b03f f67d 9c3e
00000160: 3c89 e63e a4bc 2b3e d8b7 663e 7596 513f
00000170: 1350 bc3e 2a99 183f f958 a43e 362d 5a3f
00000180: 1c10 303f f441 123f f87c f73e 3c71 3e3f
00000190: ca3a d53e ed74 ea3e 6e4a 443f 495b 0d3f
000001a0: 5bad fd3e c0fa 033f a1ee 463f b4e1 8e3f
000001b0: 6650 c03e 2b86 f23e 4a30 bc3e 4441 5c3f
000001c0: 2fba e23e a297 ba3e ecf2 dc3e 32a7 ed3e
000001d0: de66 de3e 8cc0 103f 60f3 be3e 5f0f 133f
000001e0: e470 f83e 42d5 a53e e34c 1b3f 634e b83e
000001f0: 1051 933e 79d6 a63e c462 a73e 0d39 063f

model.4.weight f4 [64, 128]
0.0860523 0.02890815 0.05143337 -0.068795174 0.022303974 0.053669907 0.007751194 0.03646032
-0.084281474 0.08718415 0.08493166 0.054974623 -0.11396756 0.08778324 0.014654802 0.008269549
0.027569668 0.015291171 0.037291646 0.0017629352 -0.08681174 -0.0047659497 -0.036934026 0.040756308
0.040546507 0.04003706 -0.09713294 -0.1004632 -0.049519382 -0.012905655 -0.08229991 0.07929421
-0.035827033 -0.1423303 -0.04891862 0.013752039 0.056747057 -0.07099027 -0.014151524 -0.068101905
0.12731746 -0.084726825 0.003489769 0.10955615 -0.07549607 -0.007775514 -0.0338457 -0.088690974
-0.11334655 -0.09559337 0.06611294 0.082391016 -0.061473716 0.03125761 -0.08451179 0.0147996815
0.028224247 0.118881054 -0.07691567 0.11398886 -0.19928508 0.1621094 0.07110951 0.083724916
-0.12366179 0.026346259 0.08003095 0.060178384 -0.01454652 -0.07246533 0.027051328 -0.032834698
0.01852042 0.016196199 0.06703314 0.021516649 0.05332088 -0.019280339 0.07626096 -0.12380936
-0.11800449 0.035915945 -0.009233876 -0.16943827 0.003479249 -0.04108503 -0.06858887 -0.1249707
-0.048871625 0.13391425 0.0881247 0.031766303 0.036296003 -0.005687143 0.011089149 0.0902693
0.011087181 0.14421017 -0.061564013 0.12132656 -0.03437425 -0.067089215 0.07520105 0.11742518
0.09581142 0.109531604 -0.16649102 0.02257554 -0.15181297 0.013741063 -0.15598193 0.007428457
-0.081970826 -0.12195607 -0.047284704 -0.08333413 -0.032119468 0.045474626 -0.07224353 0.011301503
0.032608896 0.07257763 -0.0024968712 0.07881594 -0.15393582 0.09604172 -0.050542977 0.06110965
-0.071059555 -0.023308475 -0.038636163 -0.15015161 0.09768185 0.17913522 0.11961779 0.01869149
0.01260897 -0.04127851 0.07594092 0.063636504 -0.087407574 -0.034494568 0.04541228 0.029026138
0.07944724 -0.0037941136 0.035309456 -0.013370237 -0.09489619 -0.025952514 -0.045591798 -0.010891661
-0.036332708 0.002439291 -0.029870458 0.014644459 0.016018083 -0.10561072 -0.10951061 0.03336362
-0.1200915 0.06111924 0.054915752 0.110957526 -0.051447976 -0.070264645 -0.0018620284 0.06062002
-0.0067320666 0.0015583547 -0.0009341386 -0.032735057 0.04281509 0.013465905 -0.015142723 -0.01204515
0.14341962 0.024432274 0.04290984 0.04588002 -0.10462895 -0.057496324 -0.003858251 -0.22643596
-0.10044387 0.010519616 -0.1277076 -0.017184302 -0.1277316 0.047288276 0.01244839 0.13952777
-0.043891564 0.018724775 0.050836973 -0.11930827 0.038904496 0.0053240936 -0.07349623 -0.1346142
0.008159216 0.025621796 -0.19531935 0.100085996 -0.048074894 -0.1295089 -0.039594248 0.091678284
0.023110613 0.07935262 0.001226264 0.03518348 -0.052704677 -0.052149083 0.056160327 -0.111035116
-0.065547295 0.03967848 -0.053734567 -0.06632782 0.08307208 -0.023351217 0.0143311275 0.0678922
0.0018202282 0.044828698 -0.056637842 -0.016071368 0.07529317 0.08100927 -0.15046324 -0.003618993
0.0812914 -0.030249052 -0.061292328 -0.018595207 -0.005468495 -0.0004016081 0.05706613 0.05384999
-0.049292102 -0.18052973 -0.046729777 -0.11782358 -0.015606386 -0.031801816 -0.08262864 -0.1715367
0.04845953 0.057516903 -0.10630558 -0.25636262 -0.16128908 0.07200565 0.054809965 0.052863616
00000000: 303c b03d c9d0 ec3c ccab 523d 7ce4 8cbd
00000010: d3b6 b63c fad4 5b3d bafd fd3b 6b57 153d
00000020: c49b acbd 9b8d b23d a6f0 ad3d 122d 613d
00000030: d367 e9bd b3c7 b33d b21a 703c 017d 073c
00000040: c9d9 e13c d287 7a3c 20bf 183d 4a12 e73a
00000050: 5bca b1bd af2b 9cbb 2248 17bd 16f0 263d
00000060: 1814 263d e6fd 233d a3ed c6bd a6bf cdbd
00000070: d6d4 4abd 3e72 53bc db8c a8bd 0165 a23d
00000080: 5ebf 12bd 09bf 11be e45e 48bd 3b50 613c
00000090: 9a6f 683d 5963 91bd cbdb 67bc 0379 8bbd
000000a0: 825f 023e 4285 adbd 9cb4 643b fa5e e03d
000000b0: af9d 9abd bdc9 febb caa1 0abd 9da3 b5bd
000000c0: 3c22 e8bd 75c6 c3bd 3966 873d 9fbc a83d
000000d0: ddcb 7bbd fb07 003d 8414 adbd 5d7a 723c
000000e0: 8936 e73c e977 f33d f685 9dbd fe72 e93d
000000f0: 6311 4cbe 0200 263e dda1 913d f877 ab3d
00000100: 6442 fdbd 1cd4 d73c 44e7 a33d 9c7d 763d
00000110: 8754 6ebc b468 94bd bf9a dd3c ad7d 06bd
00000120: 23b8 973c e4ad 843c ac48 893d af43 b03c
00000130: ff66 5a3d cdf1 9dbc b52e 9c3d c38f fdbd
00000140: 57ac f1bd 991c 133d af49 17bc 3a81 2dbe
00000150: 1d04 643b c748 28bd 5278 8cbd a3f0 ffbd
00000160: 9d2d 48bd d120 093e b97a b43d 621d 023d
00000170: 1eab 143d 375b babb 43af 353c 1cdf b83d
00000180: 02a7 353c d5ab 133e 8c2a 7cbd 0f7a f83d
00000190: 03cc 0cbd 1266 89bd 0203 9a3d 9d7c f03d
000001a0: c738 c43d 1b52 e03d 9f7c 2abe 57f0 b83c
000001b0: dc74 1bbe 3222 613c bab9 1fbe 6a6a f33b
000001c0: 52e0 a7bd 1bc4 f9bd 9bad 41bd 16ab aabd
000001d0: b48f 03bd 9a43 3a3d 6af4 93bd f029 393c
000001e0: e890 053d 95a3 943d 8ca2 23bb 406a a13d
000001f0: 5aa1 1dbe 85b1 c43d 2706 4fbd 1d4e 7a3d
00000200: ac87 91bd 6af1 bebc f440 1ebd 58c1 19be
00000210: 6c0d c83d 396f 373e 2cfa f43d e51e 993c
00000220: da95 4e3c a813 29bd ea86 9b3d db53 823d
00000230: be02 b3bd 2d4a 0dbd 3a02 3a3d 39c8 ed3c
00000240: 3cb5 a23d aaa6 78bb a6a0 103d d70e 5bbc
00000250: ef58 c2bd 5e9a d4bc 77be 3abd f072 32bc
00000260: 9bd1 14bd 83dc 1f3b e4b2 f4bc 50ef 6f3c
00000270: 5b38 833c 6f4a d8bd 1947 e0bd 4ba8 083d
00000280: 88f2 f5bd 2b58 7a3d 57ef 603d b33d e33d
00000290: 1dbb 52bd e9e6 8fbd 4e0f f4ba b34c 783d
000002a0: ab98 dcbb b541 cc3a fbe0 74ba 3215 06bd
000002b0: e05e 2f3d 19a0 5c3c 2f19 78bc 0559 45bc
000002c0: 98dc 123e 3126 c83c 3ac2 2f3d b0ec 3b3d
000002d0: b447 d6bd 4481 6bbd b6da 7cbb d4de 67be
000002e0: 84b5 cdbd 785a 2c3c c8c5 02be 18c6 8cbc
000002f0: 13cc 02be 5ab1 413d 55f4 4b3c 5ee0 0e3e
00000300: a4c7 33bd b364 993c 6e3a 503d e557 f4bd
00000310: 525a 1f3d bc75 ae3b 3185 96bd 4ed8 09be
00000320: 3bae 053c cde4 d13c cc01 48be e3f9 cc3d
00000330: 2eea 44bd fb9d 04be 942d 22bd d3c1 bb3d
00000340: 7852 bd3c a083 a23d 98ba a03a 8d1c 103d
00000350: dce0 57bd 479a 55bd 5f08 663d 6166 e3bd
00000360: a93d 86bd e785 223d c718 5cbd e1d6 87bd
00000370: b221 aa3d 0d4b bfbc 1bcd 6a3c 110b 8b3d
00000380: b994 ee3a 4c9e 373d 15fd 67bd 1aa8 83bc
00000390: 4e33 9a3d 30e8 a53d 0913 1abe a12c 6dbb
000003a0: 1b7c a63d dccc f7bc aa0d 7bbd fa54 98bc
000003b0: 1031 b3bb ed8e d2b9 2dbe 693d cf91 5c3d
000003c0: 84e6 49bd c9dc 38be b967 3fbd 7d4d f1bd
000003d0: edb1 7fbc 9f42 02bd 3439 a9bd 51a7 2fbe
000003e0: 807d 463d d896 6b3d bdb6 d9bd f641 83be
000003f0: f728 25be b377 933d 6a80 603d 8587 583d

model.4.bias f4 [64]
-0.007900202 -0.027867384 0.038513657 0.080780104 0.026631104 0.057491116 -0.00037473743 -0.07237782
0.088850155 0.08844845 0.054906305 -0.01847991 -0.021460412 0.055492338 -0.045725152 0.001079724
-0.069567636 -0.0638806 -0.01459618 0.026110375 0.00018880716 -0.021871777 -0.04793226 0.04432749
-0.0710376 -0.059876963 -0.056652647 0.05287386 0.083361015 0.0692589 -0.0337127 -0.084297866
-0.036236223 0.039900817 -0.0015845886 0.07515574 -0.020276085 -0.07802875 -0.05436308 0.016252935
-0.019933807 -0.055148154 0.0014698971 0.011928178 -0.042632695 0.013619839 -0.08398144 -0.083768696
0.042891107 -0.055123303 -0.046083618 -0.05998917 0.028750885 0.057583258 -0.078926764 0.030717226
0.0017874582 0.07244288 -0.03488563 -0.0071067116 -0.03933238 -0.017109366 0.05016862 0.07030338
00000000: d96f 01bc 244a e4bc 7fc0 1d3d 0a70 a53d
00000010: 7929 da3c ce7b 6b3d 6878 c4b9 d33a 94bd
00000020: 12f7 b53d 7624 b53d 6fe5 603d 2e63 97bc
00000030: bfcd afbc ef4b 633d 4c4a 3bbd 8785 8d3a
00000040: 7a79 8ebd d5d3 82bd d124 6fbc 6de5 d53c
00000050: 89fa 4539 712c b3bc 9e54 44bd be90 353d
00000060: 297c 91bd 8c41 75bd 9b0c 68bd 4392 583d
00000070: 2eb9 aa3d 9cd7 8d3d 5416 0abd 5ca4 acbd
00000080: 6f6c 14bd 0a6f 233d f8b1 cfba 41eb 993d
00000090: 081a a6bc 8acd 9fbd d2ab 5ebd e024 853c
000000a0: 394c a3bc 08e3 61bd 90a9 c03a 686e 433c
000000b0: 9f9f 2ebd bf25 5f3c 76fe abbd ec8e abbd
000000c0: 96ae 2f3d f9c8 61bd 2dc2 3cbd 34b7 75bd
000000d0: fa86 eb3c 6cdc 6b3d 5ba4 a1bd b1a2 fb3c
000000e0: 2549 ea3a ef5c 943d 3ce4 0ebd 6bdf e8bb
000000f0: fd1a 21bd f128 8cbc 9c7d 4d3d 38fb 8f3d

model.5.weight f4 [64]
0.8631669 0.811938 0.7415944 0.8505632 0.73857963 0.8317855 0.87931746 0.8855566
0.7491607 0.8131815 0.67324287 0.8697955 0.84188926 0.66445094 0.899523 0.8326727
0.89209527 0.853658 0.81076056 0.84319466 0.69132847 0.7094222 0.7889346 0.7562914
0.80018795 0.9269221 0.863311 0.85259104 0.7444982 0.75767934 0.88948005 0.87591475
0.7183341 0.8450904 0.75794697 0.6893302 0.7334426 0.88367844 0.70837855 0.83539355
0.7967348 0.8812388 0.7076746 0.7603688 0.87218994 0.79381466 0.7640723 0.8875128
0.8441986 0.88335085 0.8504437 0.84961504 0.8661861 0.85035324 0.8812477 0.764108
0.8722078 0.7669021 0.8057158 0.8868016 0.8885653 0.818615 0.88280636 0.6580486
00000000: 82f8 5c3f 2bdb 4f3f 21d9 3d3f 83be 593f
00000010: 8e13 3d3f e5ef 543f f31a 613f d6b3 623f
00000020: ffc8 3f3f aa2c 503f a559 2c3f ebaa 5e3f
00000030: 0e86 573f 7519 2a3f 2447 663f 0a2a 553f
00000040: 5b60 643f 5589 5a3f 018e 4f3f 9bdb 573f
00000050: e7fa 303f b19c 353f 9ef7 493f 509c 413f
00000060: 1ed9 4c3f c44a 6d3f f301 5d3f 6843 5a3f
00000070: 6f97 3e3f 46f7 413f f7b4 633f f33b 603f
00000080: bee4 373f d857 583f d008 423f f277 303f
00000090: e5c2 3b3f c038 623f 4c58 353f 5adc 553f
000000a0: d0f6 4b3f de98 613f 2a2a 353f 88a7 423f
000000b0: d747 5f3f 7037 4b3f 3e9a 433f 0a34 633f
000000c0: 661d 583f 4823 623f aeb6 593f 5f80 593f
000000d0: 5fbe 5d3f c0b0 593f 7399 613f 959c 433f
000000e0: 0349 5f3f b253 443f 6443 4e3f 6e05 633f
000000f0: 0479 633f c190 513f 99ff 613f e075 283f

model.5.bias f4 [64]
-0.16582064 -0.12582174 -0.21743977 -0.18475382 -0.24720787 -0.10693874 -0.12495488 -0.11026169
-0.21941313 -0.15714248 -0.2012854 -0.15501189 -0.25751647 -0.26321954 -0.16090123 -0.2402322
-0.108402036 -0.07480901 -0.17081523 -0.12334992 -0.2789468 -0.20540416 -0.15765767 -0.22493169
-0.1877331 -0.116352364 -0.12834491 -0.17417373 -0.18284237 -0.20266365 -0.12319488 -0.11792654
-0.24149938 -0.16561462 -0.22650294 -0.17651713 -0.20965585 -0.17747402 -0.25673833 -0.16450498
-0.17094031 -0.112812236 -0.2312137 -0.1892924 -0.22666216 -0.2368292 -0.21251437 -0.1482976
-0.1274955 -0.17397137 -0.10135521 -0.1317189 -0.122207984 -0.20609505 -0.11469916 -0.19471715
-0.22644259 -0.18860148 -0.16255254 -0.095918305 -0.14040707 -0.19915996 -0.09244217 -0.26134384
00000000: e3cc 29be 6ad7 00be 88a8 5ebe 1b30 3dbe
00000010: 0f24 7dbe b302 dbbd 58e8 ffbd e2d0 e1bd
00000020: d6ad 60be f5e9 20be c31d 4ebe 70bb 1ebe
00000030: 33d9 83be b6c4 86be 4bc3 24be 6eff 75be
00000040: e301 debd 7735 99bd 30ea 2ebe e29e fcbd
00000050: 1dd2 8ebe 7855 52be 0371 21be 7e54 66be
00000060: 1b3d 40be 264a eebd d96c 03be 995a 32be
00000070: 083b 3bbe 0f87 4fbe 994d fcbd 7883 f1bd
00000080: 9d4b 77be e196 29be 63f0 67be e8c0 34be
00000090: 06b0 56be c0bb 35be 3573 83be fe73 28be
000000a0: fa0a 2fbe 1a0a e7bd 49c3 6cbe ded5 41be
000000b0: 201a 68be 5b83 72be 5e9d 59be 53db 17be
000000c0: 2e8e 02be 8d25 32be 5293 cfbd 52e1 06be
000000d0: 2e48 fabd 950a 53be 65e7 eabd ef63 47be
000000e0: 91e0 67be bf20 41be 2c74 26be d170 c4bd
000000f0: dfc6 0fbe 97f0 4bbe 5252 bdbd dcce 85be

model.5.running_mean f4 [64]
-0.13994063 -0.6991159 -1.2497206 0.07251003 -0.64135593 -1.0219841 -1.2422348 -0.14195468
-1.1511327 -1.0904121 -0.7234997 -0.7248505 -1.1825424 0.26096088 -0.58601624 0.34743702
-0.90633607 -1.1971495 -1.0366775 -0.91811603 0.77144665 -0.020608084 -1.0158085 -0.7142089
-0.7313864 -1.2580986 -0.9380479 -0.111771554 -0.44504905 -0.8529483 -1.2115417 -0.8561785
-0.30571896 -0.7047703 -0.8262941 -0.6741897 -0.66183513 -1.0285048 -0.5977837 -0.28733334
-1.3326831 -0.17691119 -0.1858982 -0.6520468 -0.37225214 -0.75100964 -1.2252271 -0.3779106
-0.35938126 -1.2443435 -1.1066021 -0.92109835 -0.88150275 -0.8669096 -0.8079407 0.7357527
0.070371464 -0.5773988 -0.8822407 -0.73894566 -1.0488698 -0.4889176 -1.1893392 -0.7268351
00000000: 994c 0fbe 42f9 32bf d8f6 9fbf 2380 943d
00000010: e72f 24bf 60d0 82bf 8d01 9fbf 915c 11be
00000020: 5158 93bf a092 8bbf 4737 39bf cd8f 39bf
00000030: 8d5d 97bf aa9c 853e 2905 16bf 44e3 b13e
00000040: a405 68bf 323c 99bf d9b1 84bf a709 6bbf
00000050: 877d 453f 49d2 a8bc 0306 82bf 65d6 36bf
00000060: 243c 3bbf 6009 a1bf e823 70bf 7ce8 e4bd
00000070: 78dd e3be d25a 5abf cc13 9bbf 842e 5bbf
00000080: 3287 9cbe d46b 34bf 0388 53bf b297 2cbf
00000090: 076e 29bf 0ca6 83bf 5a08 19bf 5b1d 93be
000000a0: 5c95 aabf 3528 35be 195c 3ebe 8aec 26bf
000000b0: d597 bebe 2b42 40bf 3ed4 9cbf 807d c1be
000000c0: d200 b8be a646 9fbf 23a5 8dbf 1acd 6bbf
000000d0: 2aaa 61bf caed 5dbf 34d5 4ebf 4a5a 3c3f
000000e0: ea1e 903d 68d0 13bf 87da 61bf 8b2b 3dbf
000000f0: 5e41 86bf 6853 fabe 443c 98bf dd11 3abf

model.5.running_var f4 [64]
0.73229706 0.9695285 0.7571444 1.0121518 0.77511144 1.0556868 1.331883 1.0353185
1.8327451 1.4522648 1.6864761 0.8853178 1.094862 0.7395127 1.0013599 0.5826648
1.2139297 0.8109081 1.5666862 0.9703693 1.1451684 0.7126814 0.7735177 0.7887549
0.48510253 1.295395 1.0859485 1.0129051 1.3585638 0.7407728 1.5069382 1.1657742
0.38540646 1.0547152 1.5012803 0.9217511 0.6054831 2.047562 0.6111445 0.793545
1.312709 0.904025 0.38038075 1.1762048 0.9986813 1.2456307 1.3170354 0.8348255
0.712867 1.2289875 1.0352721 0.95784694 0.9662027 1.6208074 1.5842477 0.77204
0.6660462 0.9319428 0.8940615 1.1805294 0.9512033 0.86780024 1.8489441 1.1496664
00000000: d277 3b3f 0533 783f 37d4 413f 318e 813f
00000010: b46d 463f bf20 873f 247b aa3f 5185 843f
00000020: 6497 ea3f d0e3 b93f 73de d73f 30a4 623f
00000030: 7024 8c3f b450 3d3f 902c 803f 8529 153f
00000040: 0c62 9b3f ac97 4f3f 2c89 c83f 1f6a 783f
00000050: e194 923f 4a72 363f 4205 463f d7eb 493f
00000060: 5c5f f83e 81cf a53f 5c00 8b3f e0a6 813f
00000070: 6be5 ad3f 49a3 3d3f 5ae3 c03f 1738 953f
00000080: ff53 c53e e800 873f f429 c03f e1f7 6b3f
00000090: f100 1b3f 410b 0340 f773 1c3f c425 4b3f
000000a0: d906 a83f 2f6e 673f 44c1 c23e e18d 963f
000000b0: 94a9 7f3f d470 9f3f 9e94 a83f 20b7 553f
000000c0: 747e 363f 764f 9d3f cc83 843f 7535 753f
000000d0: 0f59 773f 9e76 cf3f a1c8 ca3f 6aa4 453f
000000e0: 0182 2a3f ce93 6e3f 37e1 643f 961b 973f
000000f0: 0f82 733f 2828 5e3f 33aa ec3f 4528 933f

model.8.weight f4 [2, 64]
-0.06492434 -0.055329423 0.0418475 0.06858588 -0.083875984 0.009412841 0.0027641633 0.006762368
0.05322555 0.04625639 0.0058272486 0.009986286 -0.116751306 0.057709794 -0.07539106 0.03161923
0.053115245 -0.03848472 -0.0036783358 0.0020090644 -0.08618569 0.048451122 0.06594675 -0.05838255
0.06849468 -0.046498645 -0.031123402 0.04618298 0.085158244 0.011576637 0.011060834 -0.007618411
0.03951837 -0.034124706 -0.11353347 0.0070970687 0.058962364 0.07407154 -0.045717698 -0.012374966
0.064257085 0.051578436 0.0034892797 -0.0026424539 -0.120307766 -0.0929253 0.03704897 -0.020410325
0.042289253 0.058429744 -0.036226947 -0.016120572 -0.07477846 -0.059025742 0.021505168 0.023435518
0.07170964 -0.06732306 -0.054612424 -0.06588383 -0.055177048 0.06097427 0.0398261 -0.011904662
-0.004460348 -0.03372733 0.020177152 0.034204617 -0.080298364 0.044345755 0.048863456 0.069434874
0.05680651 0.06800613 0.023144968 0.03186326 -0.10293976 0.07491563 -0.01971884 -0.002275325
-0.022410387 -0.00053617393 0.024907678 -0.02384606 -0.11367212 0.077025756 0.08637003 -0.04256203
0.05373339 -0.11321505 0.020184878 -0.029406033 0.04719334 0.033510193 0.06438832 0.05429925
0.027162105 -0.101174764 -0.08400715 0.014014528 0.05127056 0.021421134 -0.040693063 0.002768658
0.07048473 0.11257448 0.0076539046 0.008063828 -0.05305145 -0.061561022 0.027677186 0.056339417
0.022887247 0.09820788 -0.0021205908 -0.02690859 -0.043147683 -0.050364185 0.06324057 0.01229084
-0.012501904 -0.10342836 -0.10925408 0.00244 0.016643293 0.06889072 0.0915579 -0.032122944
00000000: 0df7 84bd 1ba1 62bd 4968 2b3d c176 8c3d
00000010: 2cc7 abbd 5138 1a3c f726 353b db96 dd3b
00000020: 0903 5a3d 5777 3d3d 81f2 be3b 859d 233c
00000030: 4f1b efbd 1b61 6c3d a166 9abd 2a83 013d
00000040: 5f8f 593d 27a2 1dbd 3c10 71bb 82aa 033b
00000050: 1f82 b0bd af74 463d 170f 873d 8a22 6fbd
00000060: f046 8c3d 5d75 3ebd 81f6 febc 5d2a 3d3d
00000070: 7267 ae3d efab 3d3c 8038 353c dda3 f9bb
00000080: 04de 213d 59c6 0bbd 3c84 e8bd 878e e83b
00000090: 8582 713d d2b2 973d 7b42 3bbd 5fc0 4abc
000000a0: 3899 833d e943 533d 66ac 643b 052d 2dbb
000000b0: eb63 f6bd 9f4f bebd a9c0 173d 8e33 a7bc
000000c0: 7f37 2d3d 0754 6f3d b562 14bd 4a0f 84bc
000000d0: 7325 99bd fac4 71bd 9b2b b03c d8fb bf3c
000000e0: 81dc 923d ace0 89bd 47b1 5fbd 1aee 86bd
000000f0: 5401 62bd 28c0 793d b120 233d c50b 43bc
00000100: 1c28 92bb ab25 0abd 8e4a a53c 241a 0c3d
00000110: 7873 a4bd e5a3 353d 0c25 483d df33 8e3d
00000120: f1ad 683d cc46 8b3d 849a bd3c 0d83 023d
00000130: 15d2 d2bd 5e6d 993d 6889 a1bc 9e1d 15bb
00000140: fd95 b7bc 068e 0cba 300b cc3c d058 c3bc
00000150: eecc e8bd aebf 9d3d c5e2 b03d 8655 2ebd
00000160: 8b17 5c3d 4bdd e7bd c25a a53c ece4 f0bc
00000170: ce4d 413d fc41 093d 06de 833d e468 5e3d
00000180: 1083 de3c b734 cfbd f10b acbd 319d 653c
00000190: 1401 523d 607b af3c c5ad 26bd 6072 353b
000001a0: 4c5a 903d 738d e63d 9bcd fa3b 251e 043c
000001b0: 7a4c 59bd 6927 7cbd 44bb e23c 29c4 663d
000001c0: 097e bb3c 3721 c93d 9cf9 0abb 676f dcbc
000001d0: a0bb 30bd ad4a 4ebd 4684 813d 855f 493c
000001e0: c9d4 4cbc 3fd2 d3bd 9ac0 dfbd 68e8 1f3b
000001f0: 8457 883c 9416 8d3d b582 bb3d 5993 03bd

model.8.bias f4 [2]
0.07930978 0.059994634
00000000: 2a6d a23d efbc 753d
