src/modelDevelopment/training/model_files/deep_mlp_model_diff.pt (torch, 24635 bytes, 14 tensors)

model.0.weight f4 [64, 32]
-0.042619184 -0.15368861 -0.13123721 0.07951767 -0.2607296 -0.05098688 -0.010253143 -0.051516145
-0.097769774 -0.09403512 0.2669862 0.13899118 -0.07686596 -0.17854416 0.15974547 -0.05003439
0.09825687 0.092152044 0.028313385 0.07192518 0.13043566 -0.07556339 -0.18916827 -0.04341901
-0.09102514 -0.012818172 0.008037843 -0.019573512 0.24660914 0.0687356 -0.12085626 -0.08408252
-0.10499753 0.121866904 0.18826196 -0.038195312 0.12570728 0.15723231 0.1387075 -0.08914659
-0.06154894 0.13116825 0.059484392 0.11647239 0.05745442 0.1951137 0.15030812 0.047421914
0.18524252 -0.035975896 -0.05398593 0.003791275 -0.087001376 -0.08168755 0.14139938 0.059354722
-0.02285943 0.19044621 0.1810837 0.13048634 0.13812414 -0.13718967 0.1323402 0.14186709
0.04637682 -0.09327407 -0.18954743 0.11339467 -0.061332613 -0.21443267 0.23808149 0.13580918
0.0037229396 0.07775566 0.13160987 -0.09357318 0.15942843 0.17396949 0.1766239 0.08003267
-0.14156055 0.041516155 -0.10068793 -0.066747606 -0.16211931 0.022984039 0.051328175 0.11927677
-0.13995118 0.086850464 -0.1913996 0.0021891599 0.016822658 0.01434356 0.18273664 -0.023940742
-0.020393811 0.09366697 -0.072420225 -0.06535574 -0.035249222 -0.07756689 -0.0936474 -0.025772825
0.1086359 -0.09367597 -0.053280987 0.15686993 -0.2975285 0.027383205 -0.020599872 0.21454595
-0.20419979 -0.078912616 -0.17031015 0.03358056 0.041740153 0.22825128 -0.23126754 0.10602774
0.058398858 0.13348822 -0.03521178 -0.08885652 0.017905474 -0.14892809 -0.085998796 0.03732974
-0.16070858 0.08361031 0.0030332003 -0.0323588 -0.15526609 0.054369096 -0.14698812 -0.03842688
-0.09196525 -0.08711586 0.13234803 -0.06630222 -0.10691314 -0.12601617 0.03133237 0.003100315
0.10147644 -0.07597368 -0.14082195 0.27526367 0.04002949 0.0070094652 -0.13256828 -0.14366654
0.032271244 0.1727657 0.0040151607 -0.045411054 0.11686747 0.015160644 -0.0017297172 -0.37579048
0.053196996 0.06654317 -0.028436627 -0.016529307 -0.17861173 -0.05503404 0.25647056 0.21435443
-0.04219578 0.28163794 -0.013783818 -0.05207878 -0.06093085 0.03810736 0.111919604 0.13488556
-0.0633702 0.081838004 -0.18890351 -0.16242483 0.2515497 -0.09365998 -0.0044589564 0.12382323
0.13581467 0.062636234 -0.017502122 -0.17740178 0.08544427 0.10282074 -0.03590434 -0.041066572
0.11906007 -0.008620281 -0.10558876 -0.06439357 -0.11424102 0.04920039 0.09394184 0.13911451
-0.062292203 0.19970988 -0.06254168 -0.023242503 0.104714125 0.14419375 0.08757371 -0.14159831
-0.06962083 -0.047211874 0.0027715217 -0.2257354 0.2699492 -0.095699295 0.023837667 -0.04110846
0.13232024 0.116085336 0.15140212 0.09039089 -0.0099614505 -0.07604678 -0.080477774 -0.050684594
0.09817103 -0.0009866758 0.0046398197 -0.039656505 -0.010128371 0.07263716 0.3692857 0.022845127
-0.06298252 -0.1385048 -0.08619476 0.20870622 -0.19184154 -0.2253958 -0.012262645 -0.16451433
-0.015122931 0.023061296 0.03670037 -0.12449132 0.19000566 -0.20381136 0.057120245 0.0038975298
0.019888956 0.04603357 0.010091239 -0.12100243 -0.14518167 -0.03615142 -0.030893037 -0.039801896
00000000: 7491 2ebd 8c60 1dbe 0c63 06be 29da a23d
00000010: 5a7e 85be 9ed7 50bd ccfc 27bc 9802 53bd
00000020: 853b c8bd 7c95 c0bd 6ab2 883e b453 0e3e
00000030: e76b 9dbd 48d4 36be 5194 233e dcf0 4cbd
00000040: e63a c93d 36ba bc3d 79f1 e73c 824d 933d
00000050: ed90 053e fbc0 9abd 54b5 41be 22d8 31bd
00000060: 636b babd 4f03 52bc 28b1 033c a158 a0bc
00000070: 1b87 7c3e 40c5 8c3d 7d83 f7bd 7533 acbd
00000080: f208 d7bd 5b95 f93d bec7 403e b072 1cbd
00000090: 69b9 003e 8201 213e 5709 0e3e 7d92 b6bd
000000a0: be1a 7cbd f850 063e e8a5 733d 1489 ee3d
000000b0: 5355 6b3d e3cb 473e 5fea 193e 7b3d 423d
000000c0: 37b0 3d3e 765b 13bd 5a20 5dbd 0a77 783b
000000d0: c72d b2bd cd4b a7bd 00cb 103e f01d 733d
000000e0: b343 bbbc 5504 433e 016e 393e 369e 053e
000000f0: 6a70 0d3e 737b 0cbe 3084 073e 9b45 113e
00000100: 9ff5 3d3d 7a06 bfbd b918 42be 773b e83d
00000110: e837 7bbd 3d94 5bbe a2cb 733e 9011 0b3e
00000120: 90fc 733b 5c3e 9f3d bdc4 063e 4ca3 bfbd
00000130: 3541 233e 0f25 323e e5dc 343e 2be8 a33d
00000140: 40f5 10be d80c 2a3d 7935 cebd f8b2 88bd
00000150: 9b02 26be 0649 bc3c 7e3d 523d 6147 f43d
00000160: 5d4f 0fbe a8de b13d 42fe 43be 0278 0f3b
00000170: accf 893c 4001 6b3c 501f 3b3e 601f c4bc
00000180: ec10 a7bc 78d4 bf3d 0e51 94bd 3bd9 85bd
00000190: 7d61 10bd 64db 9ebd 35ca bfbd 8821 d3bc
000001a0: 807c de3d 30d9 bfbd 2a3d 5abd 83a2 203e
000001b0: a855 98be be52 e03c 10c1 a8bc efb1 5b3e
000001c0: c019 51be f09c a1bd c965 2ebe c58b 093d
000001d0: b9f7 2a3d b4ba 693e 66d1 6cbe 1225 d93d
000001e0: a433 6f3d 23b1 083e 3a3a 10bd 68fa b5bd
000001f0: 80ae 923c 9b80 18be 2320 b0bd 12e7 183d
00000200: ca90 24be e23b ab3d a8c8 463b a98a 04bd
00000210: 13fe 1ebe 21b2 5e3d 0e84 16be 8165 1dbd
00000220: 4758 bcbd cd69 b2bd 3e86 073e 75c9 87bd
00000230: 47f5 dabd 620a 01be 5f56 003d a82e 4b3b
00000240: e1d2 cf3d 1798 9bbd a133 10be 5cef 8c3e
00000250: f6f5 233d a8af e53b fbbf 07be 521d 13be
00000260: da2e 043d 7ee9 303e 9c91 833b f100 3abd
00000270: 3658 ef3d 5a64 783c aeb7 e2ba 9c67 c0be
00000280: 18e5 593d c947 883d eef3 e8bc 7868 87bc
00000290: fee5 36be 606b 61bd 1c50 833e ba7f 5b3e
000002a0: 7bd5 2cbd d932 903e 86d5 61bc 8f50 55bd
000002b0: a192 79bd 7716 1c3d 1b36 e53d 711f 0a3e
000002c0: 3cc8 81bd af9a a73d ec6f 41be b252 26be
000002d0: 1fcb 803e ced0 bfbd 701c 92bb 0997 fd3d
000002e0: 0013 0b3e 6d47 803d 9c60 8fbc d0a8 35be
000002f0: 68fd ae3d ae93 d23d 6e10 13bd 6c35 28bd
00000300: c4d5 f33d 143c 0dbc eb3e d8bd c7e0 83bd
00000310: 32f7 e9bd 5986 493d 9464 c03d 0974 0e3e
00000320: 1c26 7fbd bf80 4c3e da15 80bd 1067 bebc
00000330: 5c74 d63d 87a7 133e d859 b33d 26ff 10be
00000340: 5e95 8ebd 3d61 41bd 6ba2 353b 2e27 67be
00000350: c836 8a3e fefd c3bd 3647 c33c 5861 28bd
00000360: f57e 073e 26be ed3d 2809 1b3e dc1e b93d
00000370: 5a35 23bc 6abe 9bbd 88d1 a4bd a69a 4fbd
00000380: e50d c93d 5953 81ba a109 983b dc6e 22bd
00000390: 78f1 25bc cbc2 943d 0413 bd3e b425 bb3c
000003a0: fbfc 80bd 34d4 0dbe e186 b0bd 15b7 553e
000003b0: 1c72 44be 28ce 66be 43e9 48bc 7276 28be
000003c0: 2cc6 77bc 0beb bc3c 2153 163d 4ef5 febd
000003d0: d890 423e edb3 50be ebf6 693d b36d 7f3b
000003e0: 2aee a23c b28d 3c3d b955 253c 1fd0 f7bd
000003f0: 81aa 14be 8313 14bd 6513 fdbc 5007 23bd

model.0.bias f4 [64]
0.15915386 -0.14713153 0.13481012 -0.05956277 -0.14801763 0.074542396 0.07089257 0.044953834
0.10682319 -0.15750627 0.02774336 0.01925776 0.06559344 0.10194497 0.047866493 0.14959277
0.17207615 -0.1767636 0.02739954 0.086831674 0.057431445 0.10402054 -0.0701447 -0.07305556
-0.12185429 -0.10727496 0.10657263 0.058617767 0.09620064 -0.1487533 0.034767672 -0.0074727396
-0.13211551 0.07113855 0.009670208 -0.13852517 -0.11252486 0.12487894 0.16206571 -0.16321601
0.04884385 -0.14710858 0.15682873 0.14639522 -0.03664093 -0.088364586 0.12830517 -0.17529769
0.053978715 -0.12247268 -0.01316781 0.062130015 0.11904438 -0.006716522 0.11331784 0.086272806
-0.15365916 0.16608864 0.018949268 -0.14375846 -0.1538508 -0.03149995 -0.09582574 0.17110148
00000000: 3bf9 223e a6a9 16be aa0b 0a3e 17f8 73bd
00000010: ef91 17be afa9 983d 2030 913d 8321 383d
00000020: 1ec6 da3d 5349 21be 0b46 e33c 73c2 9d3c
00000030: da55 863d 86c8 d03d a80f 443d d92e 193e
00000040: bb34 303e 8401 35be 0075 e03c ced4 b13d
00000050: 3c3d 6b3d b908 d53d 06a8 8fbd 279e 95bd
00000060: be8e f9bd f9b2 dbbd c042 da3d 2f19 703d
00000070: d704 c53d c952 18be 8c68 0e3d e2dd f4bb
00000080: 4a49 07be 17b1 913d cb6f 1e3c 8bd9 0dbe
00000090: 6f73 e6bd 88c0 ff3d 8ef4 253e 1922 27be
000000a0: 7d10 483d a2a3 16be b697 203e a1e8 153e
000000b0: cd14 16bd 7ef8 b4bd 6e62 033e 3d81 33be
000000c0: c918 5d3d f5d2 fabd ccbd 57bc 0b7c 7e3d
000000d0: 8acd f33d 4516 dcbb 2f13 e83d ccaf b03d
000000e0: d458 1dbe 2413 2a3e 7f3b 9b3c 6b35 13be
000000f0: 108b 1dbe 1706 01bd 4940 c4bd 3a35 2f3e

model.1.weight f4 [64]
0.9380422 0.88927114 1.0453147 0.9918438 0.972768 1.0575615 1.0099695 1.0766226
0.9653496 1.0188428 0.9440942 1.099257 1.09408 0.9330939 0.9867663 0.9386269
1.0386866 0.89645284 1.0394968 0.9979899 0.9621595 1.0698329 0.9663846 1.0937479
0.97284317 1.0219648 0.8952961 0.9559963 1.121452 1.0338635 0.93764865 1.097989
0.97998625 1.0823563 0.880048 1.0245184 0.98765576 1.0455978 0.96734476 1.0159034
1.0340247 1.027012 1.0982925 0.89641577 1.0079054 0.98937696 1.0472782 0.9848824
1.0283412 0.91415536 0.98685485 0.97018224 0.98556936 0.9879093 1.0143247 1.0250416
0.9832075 1.0085334 1.0960232 0.94813526 1.0207801 0.93195546 1.0470237 0.9756757
00000000: 8923 703f 46a7 633f dfcc 853f 7ae9 7d3f
00000010: 5307 793f 2d5e 873f ae46 813f c5ce 893f
00000020: 2721 773f 7169 823f 28b0 713f 74b4 8c3f
00000030: d00a 8c3f 3edf 6e3f b79c 7c3f da49 703f
00000040: aff3 843f ef7d 653f 3b0e 853f 447c 7f3f
00000050: 1650 763f 49f0 883f fb64 773f eeff 8b3f
00000060: 400c 793f becf 823f 2032 653f 2cbc 743f
00000070: bd8b 8f3f a455 843f be09 703f e78a 8c3f
00000080: 61e0 7a3f a78a 8a3f d34a 613f 6b23 833f
00000090: 02d7 7c3f 26d6 853f e8a3 773f 1f09 823f
000000a0: ec5a 843f 2175 833f d994 8c3f 817b 653f
000000b0: 0b03 813f cf47 7d3f 360d 863f 4121 7c3f
000000c0: afa0 833f 1606 6a3f 85a2 7c3f dd5d 783f
000000d0: 464e 7c3f a0e7 7c3f 64d5 813f 9034 833f
000000e0: 7db3 7b3f 9f17 813f 7d4a 8c3f feb8 723f
000000f0: eca8 823f a294 6e3f df04 863f e2c5 793f

model.1.bias f4 [64]
-0.115614116 -0.08476667 -0.06427044 -0.058692362 -0.026166864 0.022343157 -0.006549908 0.082482494
-0.031095928 0.03720605 0.0058123483 0.10243892 -0.03283657 -0.030937528 -0.07376662 -0.03838962
-0.082230404 -0.10146886 0.036854293 0.012715985 -0.0674122 0.0012501185 -0.09448239 -0.1538446
-0.0645977 0.06688585 -0.071998104 -0.1196029 -0.12790604 -0.026171448 -0.15329644 0.08649568
-0.12517376 0.22822052 -0.09579517 -0.11420258 0.014380438 -0.02307966 -0.03875955 -0.01922007
-0.12558539 0.074344546 -0.06413585 -0.11070594 -0.0033464252 -0.0032880988 -0.08319052 -0.17099458
-0.053602874 -0.14449742 -0.06858348 -0.13203223 -0.14579281 -0.13045783 -0.17469376 0.032797318
-0.06843362 -0.03235812 -0.051371966 -0.027133195 0.031394992 -0.11005731 0.0016953358 -0.034546845
00000000: 18c7 ecbd 269a adbd 38a0 83bd 6767 70bd
00000010: e45b d6bc ff08 b73c 9ca0 d6bb 95ec a83d
00000020: e3bc febc 5f65 183d 8375 be3b 7fcb d13d
00000030: a47f 06bd b370 fdbc f412 97bd 6f3e 1dbd
00000040: 6a68 a8bd e8ce cfbd 87f4 163d b556 503c
00000050: 680f 8abd 04db a33a fc7f c1bd 7089 1dbe
00000060: cd4b 84bd 73fb 883d be73 93bd 5ef2 f4bd
00000070: cdf9 02be 8165 d6bc bef9 1cbe a624 b13d
00000080: 8d2d 00be a4b2 693e 4230 c4bd 0be3 e9bd
00000090: ee9b 6b3c 8e11 bdbc 55c2 1ebd 6973 9dbc
000000a0: 7599 00be f441 983d a859 83bd ccb9 e2bd
000000b0: b34f 5bbb 257d 57bb cb5f aabd 3419 2fbe
000000c0: b08e 5bbd 22f7 13be 7f75 8cbd 7533 07be
000000d0: b64a 15be bd96 05be ece2 32be 7b56 063d
000000e0: ed26 8cbd f389 04bd 696b 52bd 6f46 debc
000000f0: 0998 003d ba65 e1bd 0836 de3a fe80 0dbd

model.1.running_mean f4 [64]
0.15109305 -0.11699159 0.1304549 -0.07001783 -0.14074185 0.092743 0.0795192 0.10096468
0.102342404 -0.1742319 0.011548933 -0.008501191 0.071508914 0.10387731 0.036707256 0.13013671
0.17575961 -0.1870461 0.022974448 0.12182279 0.075407155 0.112044334 -0.08161859 -0.04864201
-0.117801555 -0.15159695 0.08911865 0.041584432 0.071369626 -0.17064168 0.04778675 -0.0039716978
-0.14701512 0.12615159 0.011608291 -0.11422598 -0.097485594 0.12786767 0.15450932 -0.14523922
0.04272899 -0.13913798 0.1662753 0.15404433 -0.028108425 -0.1058227 0.15241528 -0.178335
0.060496606 -0.14387704 -0.0068928013 0.024407867 0.11442483 -0.0054098824 0.08507467 0.10296285
-0.16600966 0.13298434 0.013031871 -0.17564969 -0.16621326 -0.051049046 -0.093950376 0.1646759
00000000: 23b8 1a3e 4999 efbd f895 053e 8265 8fbd
00000010: a21e 10be 0bf0 bd3d f6da a23d 92c6 ce3d
00000020: e598 d13d d969 32be bc37 3d3c 9448 0bbc
00000030: 4473 923d a1bd d43d 595a 163d 8f42 053e
00000040: 54fa 333e 0389 3fbe e934 bc3c 3a7e f93d
00000050: 116f 9a3d 8077 e53d a627 a7bd d83c 47bd
00000060: f141 f1bd 3b3c 1bbe d783 b63d 7054 2a3d
00000070: 3d2a 923d b1bc 2ebe 0abc 433d 0425 82bb
00000080: 228b 16be e22d 013e b430 3e3c 50ef e9bd
00000090: 87a6 c7bd beef 023e b137 1e3e 97b9 14be
000000a0: 9804 2f3d 307a 0ebe 1244 2a3e ccbd 1d3e
000000b0: a443 e6bc 92b9 d8bd c012 1c3e 739d 36be
000000c0: 4acb 773d 8154 13be 02dd e1bb 02f3 c73c
000000d0: 9157 ea3d 6245 b1bb a13b ae3d 30de d23d
000000e0: 70fe 29be 0c2d 083e a183 553c 83dd 33be
000000f0: cf33 2abe ce18 51bd 0e69 c0bd cda0 283e

model.1.running_var f4 [64]
0.29084945 0.7403223 0.4370128 0.9758372 0.37339437 0.8006226 0.54770535 0.5077427
0.3221896 0.4823381 0.8691866 0.49626824 0.64015853 0.37676305 0.5159062 0.5644031
0.29797754 0.6920957 0.65579784 0.41023 1.1047047 0.24203487 0.4478732 1.2495972
0.60309094 0.4645192 0.3561024 0.29695117 0.35477784 0.33073267 0.70961404 0.46826166
0.34458447 0.8769818 0.31940615 0.79481053 0.6196946 0.7308992 0.4258949 0.5184778
0.38129976 0.3152818 0.39538574 0.50296354 0.46398744 0.4535935 0.38362968 0.3097657
0.35051146 0.7698853 0.3817677 0.7686409 0.3657824 0.48930845 0.3353442 0.98516333
0.37141553 0.7635179 0.46966508 0.45317942 1.1760966 0.5384088 0.4202699 0.43447372
00000000: 38ea 943e c385 3d3f 24c0 df3e 77d0 793f
00000010: 8c2d bf3e 9af5 4c3f 6b36 0c3f 6dfb 013f
00000020: 09f6 a43e 05f5 f63e 0383 5e3f df16 fe3e
00000030: 6ee1 233f 16e7 c03e 6e12 043f b97c 103f
00000040: 8390 983e 2f2d 313f 5ee2 273f ab09 d23e
00000050: f766 8d3f fdd7 773e a34f e53e cdf2 9f3f
00000060: 2b64 1a3f 76d5 ed3e 0e53 b63e fc09 983e
00000070: 71a5 b53e cb55 a93e 44a9 353f febf ef3e
00000080: 606d b03e e181 603f 3489 a33e b478 4b3f
00000090: 4ea4 1e3f 361c 3b3f e50e da3e f6ba 043f
000000a0: b939 c33e 9e6c a13e 0070 ca3e 38c2 003f
000000b0: c38f ed3e 683d e83e 1c6b c43e 9c99 9e3e
000000c0: 3d76 b33e 3417 453f 0e77 c33e a6c5 443f
000000d0: d547 bb3e a386 fa3e 3cb2 ab3e aa33 7c3f
000000e0: 2d2a be3e e975 433f f177 f03e 2207 e83e
000000f0: 558a 963f 29d5 093f 9e2d d73e 5773 de3e

model.4.weight f4 [32, 64]
-0.054941278 -0.01765031 -0.04032312 -0.1311115 -0.0013706308 -0.027384285 -0.020187445 -0.1334333
0.088567406 -0.1746022 0.06399765 -0.030378092 -0.12930027 0.025895819 0.10013174 0.0045528915
-0.020360356 0.04778799 -0.017771525 -0.048858214 -0.15321772 -0.18449552 -0.07750475 -0.19447346
-0.040889706 0.008512102 -0.03332978 0.09000479 -0.085407704 0.031478196 -0.049609073 -0.11969818
-0.0042602825 0.070084184 0.09555193 -0.06746745 0.09535501 -0.25387114 -0.11674258 -0.015236138
-0.1698574 0.05235441 -0.171797 0.04767579 -0.037726555 -0.071337014 -0.083418086 -0.024792148
0.19104563 0.048364915 -0.087844715 -0.018024296 0.15931897 -0.11421071 0.016509026 -0.021371821
0.005054783 0.16730134 -0.12898622 0.028549489 -0.13221483 0.092696756 -0.007480556 0.13167006
0.059930198 0.041107588 -0.2798143 0.029749118 -0.054196335 -0.06327619 0.037660595 -0.044125907
0.044916127 0.036405396 0.009690892 -0.02995889 0.017024495 -0.029390778 0.0070828106 -0.048576746
-0.066257864 0.10868981 -0.087112784 -0.07262747 -0.087153986 -0.09346738 0.04674027 -0.10367122
-0.011198163 0.029276548 -0.029763687 0.19121134 -0.23340134 0.09446634 0.012816138 -0.21851304
0.17610326 -0.15202872 0.046126146 -0.04090142 0.03817566 -0.040483482 0.07889269 -0.122858636
-0.24172193 -0.014998102 -0.17584321 -0.07768488 -0.034148946 0.1275407 -0.10437843 -0.025698304
-0.016810818 -0.060639054 0.018486366 0.035813306 0.09991892 -0.101134926 -0.082360886 -0.1603248
0.092270814 0.120682195 0.020716801 0.04538718 -0.12361164 -0.043554813 -0.23430935 0.07793779
-0.028405879 -0.043014623 0.052921645 0.025840264 -0.13384433 0.07605258 0.101872966 -0.013788167
-0.078597635 -0.062330984 -0.026582444 0.08266364 -0.04012077 0.08797954 -0.05310831 0.035172425
0.1168612 0.077330194 0.07442181 -0.06167726 0.051281355 -0.030585598 -0.13741064 0.19304891
0.03262099 -0.20320053 -0.09732033 -0.019986177 0.11423317 -0.19669649 -0.18838942 0.11209788
-0.010558291 -0.102170564 0.030513018 0.14041846 0.03583092 0.10833044 -0.09515402 -0.06661069
-0.07527356 0.086900875 -0.0063227275 0.014249471 -0.0008572721 -0.10517597 0.06633704 0.029996827
-0.004863367 -0.087643 0.06384201 -0.21377875 -0.1353893 -0.11523308 -0.04351998 0.07808363
-0.12457277 -0.1694496 -0.2808956 -0.05563478 -0.113384426 0.06341707 0.020868732 -0.08698662
0.071059465 0.0877602 0.015535033 -0.09175312 0.0365326 -0.19520271 -0.1490625 -0.26772967
-0.070008144 -0.14133964 0.012091065 -0.26249015 0.043466292 0.061956756 0.017760199 0.05614747
-0.13065095 -0.040137466 -0.116332 -0.031817313 -0.048534863 -0.060002364 0.010258218 -0.015658895
-0.013718702 -0.09202011 -0.036248002 0.13211927 -0.21314481 0.027832126 0.033975855 -0.036952868
-0.09710696 -0.23131628 -0.074204266 0.03299999 0.06653136 -0.07188268 -0.0056511806 -0.058437277
-0.12295166 0.068321325 -0.0115446905 -0.06494763 -0.08104809 0.011763743 -0.08967405 -0.007816996
0.10631657 0.19988838 -0.10336735 -0.070779115 -0.047675367 0.101178005 0.12436336 -0.105473086
0.08165951 0.03779436 0.08218821 0.121969104 -0.03164626 0.05575998 -0.053578064 0.009314705
00000000: 1b0a 61bd 6297 90bc db29 25bd 1842 06be
00000010: bda6 b3ba 0255 e0bc 2460 a5bc bda2 08be
00000020: d462 b53d ebca 32be 3311 833d 7adb f8bc
00000030: 4a67 04be 7823 d43c df11 cd3d 6c30 953b
00000040: c3ca a6bc 57bd 433d 9795 91bc 8d1f 48bd
00000050: 1be5 1cbe 65ec 3cbe cfba 9ebd 0d24 47be
00000060: f77b 27bd 5876 0b3c cf84 08bd 6e54 b83d
00000070: 3cea aebd 48ef 003d e232 4bbd 5224 f5bd
00000080: d799 8bbb 4c88 8f3d bbb0 c33d 602c 8abd
00000090: 7d49 c33d 66fb 81be bc16 efbd ffa0 79bc
000000a0: 19ef 2dbe 9471 563d 8eeb 2fbe b047 433d
000000b0: 2987 1abd 2419 92bd 1ad7 aabd e718 cbbc
000000c0: 77a1 433e 4a1a 463d eee7 b3bd b0a7 93bc
000000d0: 8324 233e 4ee7 e9bd f03d 873c f513 afbc
000000e0: 98a2 a53b 0b51 2b3e f714 04be 9ee0 e93c
000000f0: 5363 07be ccd7 bd3d 741f f5bb 84d4 063e
00000100: 5e79 753d 6e60 283d d243 8fbe 6cb4 f33c
00000110: fafc 5dbd f296 81bd ff41 1a3d 5ebd 34bd
00000120: f9f9 373d d31d 153d 8cc6 1e3c 596c f5bc
00000130: f476 8b3c eec4 f0bc ec16 e83b 69f8 46bd
00000140: 34b2 87bd c398 de3d 3068 b2bd b6bd 94bd
00000150: ca7d b2bd d36b bfbd ba72 3f3d 9451 d4bd
00000160: 8078 37bc 5fd5 ef3c fad2 f3bc e8cc 433e
00000170: c300 6fbe 9277 c13d c7fa 513c e2c1 5fbe
00000180: 6a54 343e 6bad 1bbe c5ee 3c3d 3f88 27bd
00000190: 155e 1c3d 02d2 25bd 7e92 a13d 4f9d fbbd
000001a0: f485 77be 99ba 75bc 3e10 34be 4019 9fbd
000001b0: c4df 0bbd 079a 023e 5cc4 d5bd 4085 d2bc
000001c0: d7b6 89bc a860 78bd b870 973c f9b0 123d
000001d0: 4aa2 cc3d d41f cfbd d3ac a8bd 2f2c 24be
000001e0: 7bf8 bc3d 3a28 f73d 48b6 a93c e8e7 393d
000001f0: 1928 fdbd 8866 32bd caee 6fbe d99d 9f3d
00000200: 72b3 e8bc 1a30 30bd 5ec4 583d f6ae d33c
00000210: 7d0e 09be 74c1 9b3d c6a2 d03d c4e7 61bc
00000220: ccf7 a0bd c64e 7fbd 6dc3 d9bc 8e4b a93d
00000230: ad55 24bd 9e2e b43d 1988 59bd f610 103d
00000240: ed54 ef3d 4b5f 9e3d 766a 983d 4ba1 7cbd
00000250: 660c 523d a68e fabc 60b5 0cbe 9dae 453e
00000260: 969d 053d cd13 50be e24f c7bd 0dba a3bc
00000270: 15f3 e93d ce6a 49be 28e9 40be 9393 e53d
00000280: affc 2cbc cd3e d1bd 70f6 f93c dbc9 0f3e
00000290: 71c3 123d 5adc dd3d 1ce0 c2bd 2f6b 88bd
000002a0: 0629 9abd 16f9 b13d e22e cfbb 9d76 693c
000002b0: 8fba 60ba 8066 d7bd b7db 873d e8bb f53c
000002c0: e15c 9fbb 2c7e b3bd 9abf 823d d1e8 5abe
000002d0: 7ea3 0abe 52ff ebbd 0242 32bd 4fea 9f3d
000002e0: 0220 ffbd 3284 2dbe 8cd1 8fbe 4ce1 63bd
000002f0: 1836 e8bd cfe0 813d e7f4 aa3c 0b26 b2bd
00000300: a087 913d 9fbb b33d a786 7e3c 0fe9 bbbd
00000310: 35a3 153d 38e3 47be d7a3 18be dd13 89be
00000320: 6e60 8fbd 57bb 10be 9a19 463c 1c65 86be
00000330: b609 323d 5ec6 7d3d d67d 913c e4fa 653d
00000340: 5dc9 05be 2f67 24bd 793f eebd df52 02bd
00000350: 7ecc 46bd 0ac5 75bd 1612 283c 1547 80bc
00000360: 68c4 60bc 0a75 bcbd c978 14bd 464a 073e
00000370: a242 5abe 3300 e43c 442a 0b3d e45b 17bd
00000380: 04e0 c6bd 2dde 6cbe 68f8 97bd ff2a 073d
00000390: 9841 883d 3a37 93bd 8a2d b9bb ed5b 6fbd
000003a0: 14ce fbbd 0dec 8b3d f125 3dbc 4303 85bd
000003b0: 8afc a5bd b7bc 403c 07a7 b7bd dc12 00bc
000003c0: 80bc d93d 8aaf 4c3e 43b2 d3bd a4f4 90bd
000003d0: 3f47 43bd 6a36 cf3d 38b2 fe3d 4602 d8bd
000003e0: 1a3d a73d 42ce 1a3d 4b52 a83d f0ca f93d
000003f0: 829f 01bd 9464 643d ac74 5bbd b49c 183c

model.4.bias f4 [32]
-0.019375501 0.053438827 -0.07969225 -0.029380212 0.10662364 -0.11451348 -0.07413031 -0.09370642
0.12528868 0.0129014505 -0.07602385 -0.106277876 -0.010355466 -0.08017823 -0.08514343 0.061088383
0.028455291 -0.105550945 0.021782387 -0.10633055 0.103006795 0.03339249 0.03920734 0.12790117
0.083507806 -0.104836054 -0.05097272 -0.04750994 0.051956914 -0.02051426 -0.04463704 -0.020285368
00000000: 5fb9 9ebc ace2 5a3d b135 a3bd c5ae f0bc
00000010: 7f5d da3d 0b86 eabd a2d1 97bd 27e9 bfbd
00000020: ad4b 003e 9b60 533c 64b2 9bbd 37a8 d9bd
00000030: f9a9 29bc 7c34 a4bd ae5f aebd d037 7a3d
00000040: 121b e93c 182b d8bd fa70 b23c d5c3 d9bd
00000050: 3af5 d23d 90c6 083d e097 203d 86f8 023e
00000060: 2406 ab3d 49b4 d6bd c5c8 50bd c899 42bd
00000070: c6d0 543d 850d a8bc 54d5 36bd 802d a6bc

model.5.weight f4 [32]
0.90228516 0.9105564 0.8829174 0.86747146 0.88018703 0.8453029 0.8549029 0.8642287
0.72368705 0.83979255 0.8980194 0.9016891 0.8567718 0.8323446 0.8973375 0.8680631
0.8662905 0.85172087 0.88936996 0.85265 0.82498777 0.91864574 0.8406198 0.8425504
0.8808004 0.8328825 0.76564133 0.91814226 0.88192284 0.88230187 0.9043365 0.8560494
00000000: 29fc 663f 391a 693f e006 623f 9c12 5e3f
00000010: f053 613f c565 583f ebda 5a3f 183e 5d3f
00000020: 8e43 393f a5fc 563f 99e4 653f 19d5 663f
00000030: 6655 5b3f 8914 553f e9b7 653f 6239 5e3f
00000040: 37c5 5d3f 610a 5a3f c0ad 633f 4547 5a3f
00000050: 6632 533f 5e2c 6b3f dc32 573f 62b1 573f
00000060: 237c 613f ca37 553f 1201 443f 5f0b 6b3f
00000070: b2c5 613f 89de 613f 9982 673f 0e26 5b3f

model.5.bias f4 [32]
-0.09346677 -0.030657072 -0.08284162 -0.121516444 -0.0553857 -0.10943188 -0.12693557 -0.09399532
-0.12597176 -0.16682228 -0.060820114 -0.21520136 -0.11100051 -0.094542146 -0.027372535 -0.12942024
-0.074665815 -0.13636947 -0.13604496 -0.18904643 -0.10732718 -0.12881291 -0.14641654 -0.1291897
-0.07695384 -0.10380845 -0.16026792 -0.107465655 -0.06794006 -0.12512533 -0.0887304 -0.13162994
00000000: 826b bfbd 8a24 fbbc dea8 a9bd 9ddd f8bd
00000010: 1edc 62bd d21d e0bd 66fb 01be 9e80 c0bd
00000020: befe 00be 76d3 2abe 831e 79bd bf5d 5cbe
00000030: 3c54 e3bd 509f c1bd 5e3c e0bc bd86 04be
00000040: 64ea 98bd 70a4 0bbe 5f4f 0bbe 6395 41be
00000050: 5ace dbbd 88e7 03be 38ee 15be 4e4a 04be
00000060: fa99 9dbd 8699 d4bd 461d 24be f416 dcbd
00000070: 2824 8bbd db20 00be 49b8 b5bd 00ca 06be

model.5.running_mean f4 [32]
-0.71148586 -0.71368283 -0.5465962 -0.82151955 -0.22336473 0.53463626 -0.6437725 -0.44322947
-0.15639442 -0.036034714 -1.2076538 -0.616919 -0.556835 -0.1717352 -0.9789318 -0.7977237
-0.58111113 -0.20279425 -0.86124593 -0.67056733 0.11197289 -0.3920431 0.52076954 -0.10789627
-0.56222886 -0.7426208 0.113649115 -0.9650294 -0.4664104 -0.48531222 -0.90011543 -0.7804918
00000000: f023 36bf ebb3 36bf bbed 0bbf 1b4f 52bf
00000010: b9b9 64be ecdd 083f 46ce 24bf f9ee e2be
00000020: dc25 20be 2399 13bd 6694 9abf 67ee 1dbf
00000030: bd8c 0ebf 5adb 2fbe 469b 7abf 9f37 4cbf
00000040: b3c3 14bf 4ca9 4fbe 9d7a 5cbf 4daa 2bbf
00000050: 0b52 e53d e0b9 c8be 2751 053f b8f8 dcbd
00000060: 3bee 0fbf 661c 3ebf dec0 e83d 2b0c 77bf
00000070: 58cd eebe d87a f8be f76d 66bf 50ce 47bf

model.5.running_var f4 [32]
0.9949676 1.4222966 0.7122672 1.0159699 1.0197834 0.52227724 0.8465386 0.47014955
0.95418483 0.44512415 0.78726566 0.84118295 0.8937524 0.58954203 1.1646291 0.47933486
0.7435505 0.5356833 1.0255636 0.61387646 0.6158615 0.55612946 0.46678412 0.44746175
0.89369065 0.6271892 0.30395335 1.0185963 0.6947126 0.61778224 1.6830536 0.7800625
00000000: 32b6 7e3f d10d b63f 2557 363f 4d0b 823f
00000010: 4388 823f f6b3 053f c1b6 583f 71b7 f03e
00000020: 7545 743f 50e7 e33e 3e8a 493f c457 573f
00000030: f5cc 643f 3aec 163f 9112 953f 616b f53e
00000040: 5359 3e3f 8a22 093f ab45 833f 0227 1d3f
00000050: 19a9 1d3f 805e 0e3f 54fe ee3e b519 e53e
00000060: e9c8 643f 798f 203f c69f 9b3e 5d61 823f
00000070: afd8 313f fa26 1e3f 4d6e d73f 2db2 473f

model.8.weight f4 [2, 32]
-0.13926405 -0.07499802 0.10416921 -0.03457042 -0.06941692 -0.027944999 0.09498529 0.049882554
-0.1008684 0.072308384 0.05548091 -0.08852486 0.028478282 0.05948933 -0.067515016 -0.004592894
-0.08549074 -0.04480479 -0.06594235 -0.11846517 0.049044583 -0.07766443 -0.019123223 0.039971925
0.068780676 -0.019882506 0.09157338 0.022288358 0.19581592 0.05373476 0.13341963 0.11443102
-0.07623168 0.018293742 0.07838906 0.00085242 -0.061806105 -0.06711272 0.06973548 0.019217642
-0.11267916 0.07862895 0.11176962 -0.043702606 0.083681025 0.039954394 -0.0036004337 0.029105023
-0.06247888 -0.013250862 -0.03682216 -0.08648409 0.042484567 -0.1330498 -0.055432152 0.032659557
0.08196046 -0.0018272984 0.08604821 0.08478399 0.13496199 0.13163725 0.16381334 0.14190716
00000000: 3c9b 0ebe 9098 99bd ab56 d53d b699 0dbd
00000010: 752a 8ebd e9ec e4bc a687 c23d a651 4c3d
00000020: 1794 cebd 6b16 943d f33f 633d 864c b5bd
00000030: 494b e93c 15ab 733d 5045 8abd fd7f 96bb
00000040: c515 afbd 3a85 37bd c80c 87bd de9d f2bd
00000050: f9e2 483d 870e 9fbd 4ea8 9cbc 9ab9 233d
00000060: e2dc 8c3d a3e0 a2bc d38a bb3d 1396 b63c
00000070: f883 483e fb18 5c3d 289f 083e d05a ea3d
00000080: 5b1f 9cbd c2dc 953c 728a a03d f074 5f3a
00000090: 6628 7dbd 6572 89bd 7ad1 8e3d 516e 9d3c
000000a0: 55c4 e6bd 3708 a13d 78e7 e43d 8101 33bd
000000b0: f560 ab3d 38a7 233d 41f5 6bbb a86d ee3c
000000c0: dbe9 7fbd 251a 59bc d5d2 16bd 921e b1bd
000000d0: 4c04 2e3d 353e 08be d30c 63bd 07c6 053d
000000e0: e3da a73d f681 efba 0b3a b03d 3ba3 ad3d
000000f0: 7a33 0a3e eacb 063e afbe 273e 1c50 113e

model.8.bias f4 [2]
-0.113448866 -0.13037951
00000000: e157 e8bd 3582 05be
