src/modelDevelopment/training/model_files/deep_mlp_model_raw.pt (torch, 93733 bytes, 14 tensors)

model.0.weight f4 [144, 72]
-0.04388097 0.09965089 0.031969205 -0.027122201 0.07324419 0.03882049 0.18982553 0.042106107
-0.009456609 0.088316046 0.05585909 0.065101296 0.10860706 0.14311144 -0.08065679 -0.21763869
-0.010637429 0.000435766 -0.08830596 -0.13940886 -0.14522119 -0.10127023 -0.026526319 0.084740855
0.03237197 -0.066551864 0.08819993 -0.09791603 0.0042333407 0.11270732 -0.060312506 0.025516782
-0.14638938 -0.17366396 -0.014650277 -0.18344435 -0.12173183 0.014278577 -0.0658462 0.1372809
-0.072941884 0.059402168 0.018199423 -0.095465414 -0.13878407 -0.080060184 -0.10476353 0.10197655
0.14310497 -0.07097347 0.045589074 -0.008587674 -0.09628338 -0.055665154 0.011476472 -0.03034851
0.03157715 -0.088607244 0.02104154 -0.08953367 -0.08102154 -0.16024633 0.09818471 -0.072533965
0.11233908 0.14009255 0.06473154 0.12948662 0.0049821753 0.0041970476 -0.10488637 -0.13848117
-0.18616143 -0.17913644 -0.19100702 -0.09736445 0.02045156 0.13371424 0.019070094 -0.15138407
0.25678462 0.17417738 0.15452915 0.015656998 -0.02741443 0.0005525112 -0.033719998 0.08382979
0.010259814 0.019757476 -0.10219612 -0.094740264 -0.056285698 0.00028214313 -0.15025167 -0.07780376
-0.03615611 -0.026533907 -0.040981334 0.09924194 -0.027199004 -0.072271705 -0.060267963 -0.058266956
0.09581249 0.0956083 0.023120282 0.18923895 -0.086509876 0.055266228 -0.0076853023 0.1433721
0.11334265 -0.13967676 -0.03321274 -0.19913197 -0.04540554 -0.009869129 -0.15163088 -0.08313082
0.032758918 -0.088440344 -0.083783284 0.09099338 0.009803384 0.15162568 0.024924096 -0.103021435
-0.05148304 0.015494921 -0.078810245 -0.129311 -0.04639116 -0.08651493 -0.03751307 -0.032583572
0.16760406 0.01521538 -0.0368577 0.09967402 -0.037912942 0.032276474 -0.035967104 0.17068447
-0.1684497 -0.068620324 -0.24783985 0.039042044 -0.032784164 -0.13147303 -0.25155762 -0.00078634813
-0.082526915 -0.16307727 0.047242153 -0.06398119 0.08061397 0.059589867 0.060721397 0.09735406
0.027710795 -0.014912566 0.11029976 -0.09015811 -0.10730105 -0.018703252 0.07950193 -0.055641115
0.15862973 0.024536857 0.058088705 0.082593024 0.05833573 -0.04048328 0.12925269 0.091422535
-0.06270953 -0.12888965 -0.057931285 0.06789521 -0.09649952 -0.0919307 0.082152106 0.01615999
-0.11037753 0.07011032 0.03824587 -0.027544927 0.022725115 0.09903351 0.034951046 -0.040388517
0.051134683 -0.031471618 -0.074287966 0.040828295 0.02198523 0.1246801 -0.02698297 0.06712421
-0.00039214568 0.13884218 -0.0016091838 0.044215683 0.13355194 -0.068004586 -0.0050556078 0.17943794
-0.025574278 -0.043887798 -0.02520967 0.049310766 0.15767711 0.11193366 -0.018318707 -0.10521876
0.069324866 0.07106027 -0.035311848 0.06492541 0.15756369 -0.020387463 -0.11937279 0.12396152
-0.036013585 0.028062278 -0.086650625 -0.11073335 -0.037226498 -0.079854496 -0.0650911 0.110777855
-0.0043035904 -0.104898825 -0.18919773 -0.10491068 -0.036148045 0.14369455 -0.008852064 -0.07761683
-0.19566616 -0.05526473 -0.06250282 0.1092514 -0.103382334 0.003313355 0.09292055 0.038548473
-0.11399499 -0.1329543 -0.096758604 0.11546861 -0.036423452 -0.021970462 -0.14844523 -0.014811655
00000000: 88bc 33bd c415 cc3d 24f2 023d 612f debc
00000010: 0d01 963d 3c02 1f3d a061 423e 7477 2c3d
00000020: e5ef 1abc 0bdf b43d 80cc 643d d453 853d
00000030: 616d de3d ce8b 123e 632f a5bd addc 5ebe
00000040: 9c48 2ebc 8677 e439 c1d9 b4bd 32c1 0ebe
00000050: ddb4 14be c466 cfbd b94d d9bc 9d8c ad3d
00000060: 7998 043d 584c 88bd 2aa2 b43d 3388 c8bd
00000070: d6b7 8a3b 18d3 e63d 3f0a 77bd 9208 d13c
00000080: 19e7 15be f7d4 31be b707 70bc d6d8 3bbe
00000090: 8a4e f9bd b1f0 693c 5fda 86bd 5d93 0c3e
000000a0: 8e62 95bd b04f 733d f516 953c 5f83 c3bd
000000b0: 691d 0ebe 98f6 a3bd 438e d6bd 15d9 d03d
000000c0: 1c8a 123e 8a5a 91bd 9cbb 3a3d 51b3 0cbc
000000d0: 3930 c5bd 2501 64bd d007 3c3c 709d f8bc
000000e0: 0b57 013d b777 b5bd 4f5f ac3c 6e5d b7bd
000000f0: 9fee a5bd 9d17 24be 1115 c93d b08c 94bd
00000100: 0812 e63d 6c74 0f3e f891 843d 2498 043e
00000110: 8441 a33b 6387 893b aace d6bd 02ce 0dbe
00000120: 1aa1 3ebe 8b6f 37be 5897 43be 0367 c7bd
00000130: 088a a73c 63ec 083e e338 9c3c 6d04 1bbe
00000140: 4679 833e 8e5b 323e e43c 1e3e 1b43 803c
00000150: 3a94 e0bc 66d6 103a fb1d 0abd f4ae ab3d
00000160: c718 283c 6eda a13c 334c d1bd 2f07 c2bd
00000170: d58b 66bd 9cec 9339 93db 19be 9457 9fbd
00000180: 6e18 14bd a35d d9bc 0bdc 27bd 5c3f cb3d
00000190: 72d0 debc 3003 94bd 8adb 76bd 55a9 6ebd
000001a0: 5739 c43d 49ce c33d bf66 bd3c dbc7 413e
000001b0: 172c b1bd d75e 623d fdd4 fbbb 23d0 123e
000001c0: 3120 e83d 6d07 0fbe 150a 08bd 40e9 4bbe
000001d0: 29fb 39bd 21b2 21bc 2045 1bbe 7e40 aabd
000001e0: 372e 063d 3620 b5bd 9296 abbd bd5a ba3d
000001f0: 5f9e 203c c343 1b3e 9e2d cc3c e7fc d2bd
00000200: e1df 52bd 69de 7d3c 4467 a1bd 1a6a 04be
00000210: a804 3ebd bd2e b1bd 4ea7 19bd 5a76 05bd
00000220: 66a0 2b3e ee49 793c 1af8 16bd e521 cc3d
00000230: 9a4a 1bbd 5634 043d 3e52 13bd e9c7 2e3e
00000240: 147e 2cbe d088 8cbd bbc9 7dbe 8dea 1f3d
00000250: b048 06bd dea0 06be 29cc 80be ee22 4eba
00000260: df03 a9bd bafd 26be fd80 413d 9208 83bd
00000270: f018 a53d 8114 743d 00b7 783d 9161 c73d
00000280: c001 e33c d653 74bc d7e4 e13d d1a4 b8bd
00000290: a7c0 dbbd 9037 99bc e8d1 a23d f0e7 63bd
000002a0: d56f 223e 8501 c93c 6cee 6d3d 8826 a93d
000002b0: 72f1 6e3d ccd1 25bd d15a 043e bd3b bb3d
000002c0: db6d 80bd a6fb 03be 5b49 6dbd a50c 8b3d
000002d0: 8aa1 c5bd 2a46 bcbd 5d3f a83d f561 843c
000002e0: 9d0d e2bd 0096 8f3d b4a7 1c3d e6a5 e1bc
000002f0: 052a ba3c 15d2 ca3d d428 0f3d 6e6e 25bd
00000300: 9a72 513d 62e8 00bd 4a24 98bd 923b 273d
00000310: 5e1a b43c 4858 ff3d 640b ddbc 6b78 893d
00000320: e798 cdb9 a52c 0e3e 40eb d2ba 811b 353d
00000330: d7c1 083e fd45 8bbd 83a9 a5bb 94be 373e
00000340: 2681 d1bc b1c3 33bd 8384 cebc 16fa 493d
00000350: 1c76 213e 7a3d e53d 1d11 96bc ef7c d7bd
00000360: 32fa 8d3d 0c88 913d 28a3 10bd 9df7 843d
00000370: 6058 213e 9c03 a7bc b979 f4bd 8adf fd3d
00000380: fb82 13bd dde2 e53c e275 b1bd 2bc8 e2bd
00000390: d07a 18bd c18a a3bd 7c4e 85bd 80df e23d
000003a0: 2205 8dbb 32d5 d6bd 0dbd 41be 69db d6bd
000003b0: f90f 14bd aa24 133e 3f08 11bc 93f5 9ebd
000003c0: b65c 48be 455d 62bd 7a01 80bd 33bf df3d
000003d0: 1eba d3bd df24 593b 214d be3d 01e5 1d3d
000003e0: 3576 e9bd 2c25 08be 6029 c6bd ce7a ec3d
000003f0: c230 15bd 66fb b3bc 0702 18be 95ac 72bc

model.0.bias f4 [144]
0.054025427 -0.09178059 -0.028825201 -0.07345758 -0.09921816 -0.1136645 -0.060836148 0.037236072
0.08119383 0.07827159 -0.04217281 -0.06124062 -0.007732117 0.08834449 -0.08275229 -0.0818011
-0.06697619 0.07270515 -0.07536309 0.11382938 -0.061258875 0.1104049 0.03914233 0.03707876
-0.09091606 0.01988109 -0.07692052 -0.09688015 -0.099677734 -0.01895201 -0.041553523 -0.028637283
0.079206795 0.05190233 -0.02496186 -0.033992913 -0.0768747 0.060105678 -0.10041247 0.0832917
-0.06095526 0.025650984 0.0152712595 -0.06796862 0.0062520513 0.058111403 0.03149135 -0.002640253
-0.036938634 -0.0031755539 -0.055303276 -0.10478593 0.10453192 -0.105870955 0.08137881 0.084289365
0.048088588 -0.05027587 -0.0685095 -0.1152979 0.017250035 0.116834514 0.009994008 0.056849007
-0.09449335 -0.07906168 -0.047585934 0.056601513 0.056244522 -0.09715895 -0.013860494 0.1067068
-0.10158503 0.045704316 0.038385514 -0.06436222 0.112848595 -0.032464825 -0.04332995 0.10354825
-0.10664523 -0.078548856 0.113910824 -0.09361349 -0.08846862 -0.022911722 0.021395912 0.028400581
0.107790954 0.019552382 -0.07296469 -0.0075748237 -0.093167774 0.09307654 -0.004189617 0.06951396
0.071108915 0.011684999 -0.08073342 0.05941642 0.10966471 0.053783618 0.094264224 -0.07640788
-0.054307606 0.042681992 0.06300879 -0.09657447 0.06622962 -0.014604334 0.105814755 0.11024602
-0.0365704 0.0028827798 0.09093101 -0.059104152 -0.11164206 0.015465579 -0.09536076 -0.103976384
-0.016709212 -0.05075258 0.020207256 -0.0914459 0.09504169 -0.03565605 0.02919975 -0.06851201
0.040272698 0.02953315 0.0017521207 -0.01801824 -0.03904103 -0.04670293 -0.095212184 -0.046896644
0.100936346 -0.08605125 -0.005060471 0.08714569 -0.1040083 0.10431502 -0.089458786 -0.07516543
00000000: c449 5d3d 76f7 bbbd d422 ecbc ed70 96bd
00000010: e432 cbbd efc8 e8bd 532f 79bd da84 183d
00000020: f348 a63d db4c a03d 65bd 2cbd 72d7 7abd
00000030: b35d fdbb f5ed b43d 087a a9bd 5687 a7bd
00000040: d02a 89bd 70e6 943d f757 9abd 611f e93d
00000050: 96ea 7abd f71b e23d b553 203d e6df 173d
00000060: 3332 babd abdd a23c 8188 9dbd 1a69 c6bd
00000070: d723 ccbd 3f41 9bbc 0734 2abd bc98 eabc
00000080: 2c37 a23d 8a97 543d d17c ccbc 273c 0bbd
00000090: 7c70 9dbd 5f31 763d 0ea5 cdbd d794 aa3d
000000a0: 39ac 79bd 0322 d23c 4e34 7a3c 2233 8bbd
000000b0: 02de cc3b 3906 6e3d 13fd 003d 1808 2dbb
000000c0: f74c 17bd f41c 50bb b085 62bd 019a d6bd
000000d0: d514 d63d dfd2 d8bd efa9 a63d e79f ac3d
000000e0: 8af8 443d 12ee 4dbd b54e 8cbd 4e21 ecbd
000000f0: f24f 8d3c ef46 ef3d e8bd 233c 81da 683d
00000100: bb85 c1bd 17eb a1bd 78e9 42bd fdd6 673d
00000110: a860 663d 46fb c6bd 2017 63bc 1889 da3d
00000120: d00b d0bd 7334 3b3d 213a 1d3d 57d0 83bd
00000130: 2a1d e73d d6f9 04bd bf7a 31bd 1b11 d43d
00000140: d068 dabd 39de a0bd 144a e93d 6eb8 bfbd
00000150: 092f b5bd 5db1 bbbc 7b46 af3c 56a8 e83c
00000160: 81c1 dc3d 512c a03c 836e 95bd 3a36 f8bb
00000170: bfce bebd ea9e be3d 0e49 89bb 565d 8e3d
00000180: 8da1 913d 7072 3f3c 9057 a5bd a25e 733d
00000190: e497 e03d 364c 5c3d 9a0d c13d bc7b 9cbd
000001a0: a771 5ebd 50d3 2e3d c10a 813d d6c8 c5bd
000001b0: 65a3 873d 0447 6fbc 68b5 d83d aac8 e13d
000001c0: d8ca 15bd 05ed 3c3b 0a3a ba3d 3217 72bd
000001d0: 98a4 e4bd 5763 7d3c 814c c3bd 92f1 d4bd
000001e0: c2e1 88bc f0e1 4fbd b089 a53c fd47 bbbd
000001f0: 38a5 c23d 140c 12bd 5034 ef3c 0650 8cbd
00000200: fcf4 243d 81ef f13c 6aa7 e53a fd9a 93bc
00000210: 7de9 1fbd 924b 3fbd 9bfe c2bd b216 40bd
00000220: b7b7 ce3d a33b b0bd 4fd2 a5bb 7179 b23d
00000230: 4e02 d5bd 1da3 d53d 2b36 b7bd 55f0 99bd

model.1.weight f4 [144]
0.882531 1.0415382 0.9050356 0.9975357 1.0583233 1.0119027 0.9707762 0.91648346
0.95507336 0.9967534 1.0316602 0.91730565 1.0106531 0.9617357 0.970008 0.9963068
0.9101694 0.9745664 1.148042 0.9061329 1.0479139 0.8663438 0.87412107 1.0220088
1.0475109 0.9518785 1.0483071 0.9734379 1.0145521 1.0234187 1.0108489 1.0245858
1.0591942 1.0695331 0.9185337 0.9728834 1.0504807 0.81996715 0.96811336 0.9622952
1.0457424 0.9702718 1.0056857 1.0895758 0.94978565 1.0996451 0.9636915 0.86490285
0.9407085 0.98894525 1.0796728 0.98990685 0.9739358 0.99746376 1.0274041 0.92284006
0.96602046 0.9870152 0.88233167 0.99680233 1.0073897 1.0451804 1.000673 0.9493433
0.9447182 0.96930534 1.0589584 1.1820863 1.0590162 1.05392 0.9666798 1.0851156
0.9827816 1.088566 0.9493081 0.97900397 1.0788338 1.016836 1.0450344 1.030264
1.161952 0.9698748 1.0265744 0.94628 0.9154236 1.067887 0.8957105 1.0134175
1.0921452 1.0695889 1.002225 1.0264078 1.0026451 0.9146739 1.0566584 0.9897925
1.0962623 0.9060363 1.0557476 0.974881 1.0576653 0.99663746 0.9333768 0.9817711
1.0099301 1.0744348 0.988165 0.97461146 0.95784175 0.9399746 1.0140489 1.0055761
0.9168242 1.1799268 1.0172335 0.9771443 1.0418398 1.1074144 1.0366118 1.001879
0.8842089 0.89623165 1.0121222 1.0033991 1.0007468 0.92790383 1.0133593 0.88716745
0.90076584 0.9615241 1.0093004 1.0059191 1.0162059 0.9913752 1.0446986 0.97157425
0.88208187 1.1083906 1.0097133 0.9402295 0.89966977 1.0205734 0.9291003 1.0235486
00000000: 8ded 613f 2051 853f 6ab0 673f 805e 7f3f
00000010: 2377 873f 0786 813f ca84 783f a99e 6a3f
00000020: b07f 743f 3b2b 7f3f 710d 843f 8bd4 6a3f
00000030: 155d 813f 5034 763f 7252 783f f60d 7f3f
00000040: dd00 693f 2f7d 793f 0af3 923f 53f8 673f
00000050: 0b22 863f b5c8 5d3f 66c6 5f3f 2fd1 823f
00000060: d614 863f 4fae 733f ed2e 863f 3a33 793f
00000070: d8dc 813f 62ff 823f 7f63 813f a125 833f
00000080: ad93 873f 76e6 883f 0625 6b3f e30e 793f
00000090: 2776 863f 5ee9 513f 47d6 773f fa58 763f
000000a0: e3da 853f bc63 783f 4fba 803f 3877 8b3f
000000b0: 2725 733f 2cc1 8c3f 7cb4 763f 466a 5d3f
000000c0: 46d2 703f 842b 7d3f b832 8a3f 896a 7d3f
000000d0: db53 793f c959 7f3f fa81 833f 3f3f 6c3f
000000e0: 1e4d 773f 07ad 7c3f 7de0 613f 702e 7f3f
000000f0: 25f2 803f 79c8 853f 0e16 803f 2a08 733f
00000100: 0dd9 713f 6524 783f f38b 873f 9b4e 973f
00000110: d88d 873f dae6 863f 5478 773f 11e5 8a3f
00000120: 9397 7b3f 2156 8b3f db05 733f 01a0 7a3f
00000130: 3a17 8a3f af27 823f b0c3 853f b1df 833f
00000140: d8ba 943f b749 783f ca66 833f 683f 723f
00000150: 3359 6a3f 85b0 883f 494d 653f aab7 813f
00000160: 6acb 8b3f 4ae8 883f e948 803f 5561 833f
00000170: ad56 803f 1228 6a3f 9540 873f 0b63 7d3f
00000180: 5352 8c3f fff1 673f bd22 873f cd91 793f
00000190: 9461 873f a223 7f3f c8f1 6e3f 5a55 7b3f
000001a0: 6445 813f 1487 893f 62f8 7c3f 2380 793f
000001b0: 1e35 753f 2da2 703f 5bcc 813f b8b6 803f
000001c0: feb4 6a3f d707 973f b534 823f 2126 7a3f
000001d0: 025b 853f c1bf 8d3f b2af 843f 923d 803f
000001e0: 845b 623f 706f 653f 388d 813f 626f 803f
000001f0: 7918 803f 1b8b 6d3f c2b5 813f 681d 633f
00000200: 9798 663f 7226 763f c130 813f f5c1 803f
00000210: 0913 823f c4ca 7d3f afb8 853f 17b9 783f
00000220: 1ed0 613f bedf 8d3f 493e 813f e1b2 703f
00000230: c250 663f 26a2 823f 84d9 6d3f a403 833f

model.1.bias f4 [144]
-0.030406734 0.064661175 -0.279823 -0.04834774 -0.12703286 -0.010081364 -0.12643477 -0.33976313
-0.183954 -0.16003142 -0.13213097 -0.21570997 -0.16176745 -0.016630193 -0.13136014 -0.1523207
-0.09403501 -0.1069196 -0.18851793 -0.1553877 -0.034778867 -0.18908821 -0.2025273 -0.2232988
-0.055327762 0.039885145 -0.031698477 -0.151927 0.02667979 -0.14292397 -0.056163073 -0.016525254
-0.18952292 0.04713734 -0.09426871 -0.17399514 -0.03639595 -0.101727106 -0.24853455 -0.119876765
-0.10475533 -0.09946339 0.025351645 -0.07625932 -0.17392647 -0.06883249 -0.10875195 -0.11549427
-0.11758841 -0.12062679 -0.12466178 0.0027588974 -0.16355243 -0.10703994 -0.1298208 -0.19890739
-0.11217763 -0.030862989 -0.056401785 -0.049331058 -0.18735553 -0.06433422 -0.06038771 -0.14304875
-0.11046308 -0.07977088 -0.054548543 -0.03141847 -0.07810769 -0.1626981 -0.17560752 -0.06586548
-0.06425054 0.015225158 -0.16214697 -0.23594016 -0.14371729 -0.026582623 -0.1374434 -0.2272486
-0.017623158 -0.37249294 -0.14296696 -0.19235681 -0.11834347 -0.104238 -0.003060128 -0.12609896
-0.016326085 -0.0002813292 -0.047421496 -0.026208391 -0.12856215 -0.11668836 -0.06555757 -0.112620175
-0.0783299 -0.20133798 -0.21094687 -0.1488104 -0.11967634 -0.09331861 -0.10294547 -0.032762524
-0.020035999 -0.044791702 -0.028674465 -0.110290825 -0.09912461 -0.087305345 -0.06891958 -0.18261811
-0.16583665 -0.040521983 -0.15644072 0.0038428 -0.041541535 -0.11720237 -0.15847866 -0.08966474
-0.16385947 -0.11203475 -0.15400708 -0.064504854 -0.13842292 -0.14674707 -0.103526436 -0.09988593
-0.15224221 -0.13858248 -0.14578985 -0.07517768 -0.030049935 -0.08626756 -0.14742531 -0.0632649
-0.025306439 -0.033127025 -0.11854336 -0.096463 -0.1228846 -0.11539216 -0.17627928 -0.2350946
00000000: 8b17 f9bc 146d 843d f644 8fbe 4808 46bd
00000010: e714 02be 4e2c 25bc 1e78 01be 6ff5 adbe
00000020: 705e 3cbe 47df 23be 574d 07be 13e3 5cbe
00000030: 5ea6 25be 0b3c 88bc 4683 06be f5f9 1bbe
00000040: 6d95 c0bd aaf8 dabd d80a 41be f41d 1fbe
00000050: 4974 0ebd 57a0 41be 5163 4fbe 71a8 64be
00000060: 5d9f 62bd 9b5e 233d 43d6 01bd c092 1bbe
00000070: 938f da3c a95a 12be 400b 66bd f85f 87bc
00000080: 4c12 42be 1513 413d f40f c1bd c82b 32be
00000090: eb13 15bd 4d56 d0bd d77f 7ebe f381 f5bd
000000a0: f689 d6bd 76b3 cbbd 41ae cf3c d92d 9cbd
000000b0: c819 32be 0cf8 8cbd 58b9 debd 4388 ecbd
000000c0: 31d2 f0bd 2e0b f7bd ad4e ffbd 9ece 343b
000000d0: 4a7a 27be c237 dbbd beef 04be 61ae 4bbe
000000e0: 63bd e5bd 61d4 fcbc 8f05 67bd 5d0f 4abd
000000f0: 21da 3fbe a9c1 83bd 1a59 77bd 5f7b 12be
00000100: 783a e2bd ea5e a3bd 4b6e 5fbd a7b0 00bd
00000110: edf6 9fbd 559a 26be 75d2 33be 7be4 86bd
00000120: ca95 83bd f172 793c db09 26be 4c9a 71be
00000130: a02a 13be cdc3 d9bc f6bd 0cbe dbb3 68be
00000140: 715e 90bc 65b7 bebe ee65 12be 2ff9 44be
00000150: 105e f2bd bc7a d5bd 6e8c 48bb 1620 01be
00000160: 48be 85bc 5e7f 93b9 0b3d 42bd fbb2 d6bc
00000170: cca5 03be 4ffa eebd 0c43 86bd 68a5 e6bd
00000180: 6d6b a0bd 8b2b 4ebe 7502 58be c161 18be
00000190: de18 f5bd d41d bfbd 13d5 d2bd ff31 06bd
000001a0: 8922 a4bc 8177 37bd b6e6 eabc 28e0 e1bd
000001b0: d801 cbbd 25cd b2bd b525 8dbd 3e00 3bbe
000001c0: 15d1 29be 61fa 25bd ff31 20be 7cd7 7b3b
000001d0: 7527 2abd cc07 f0bd 3b48 22be 26a2 b7bd
000001e0: c7ca 27be 7a72 e5bd 08b4 1dbe 1f1b 84bd
000001f0: bdbe 0dbe dd44 16be ab05 d4bd ff90 ccbd
00000200: 62e5 1bbe 91e8 0dbe ef49 15be c1f6 99bd
00000210: 482b f6bc 0cad b0bd a9f6 16be 0791 81bd
00000220: 734f cfbc 34b0 07bd dcc6 f2bd 658e c5bd
00000230: ecaa fbbd ba52 ecbd 8e82 34be a4bc 70be

model.1.running_mean f4 [144]
0.036555264 -0.09866699 0.004369524 -0.04790099 -0.07019458 -0.08951327 -0.015534339 0.010680295
0.100801885 0.07186519 -0.029905815 -0.07403509 -0.050910912 0.07899221 -0.08707129 -0.07100593
-0.055811934 0.10466782 -0.077422015 0.15257952 0.0073074996 0.11030643 0.04618464 0.060821585
-0.070662856 0.034834143 -0.12739447 -0.1312014 -0.06990196 -0.059171177 -0.051634002 -0.050967168
0.080478296 0.060719702 -0.03631205 -0.048497632 -0.09200595 0.031920116 -0.09244493 0.11223237
-0.087608516 0.03332474 0.015945232 -0.1103715 -0.020378195 0.043311786 0.043966856 0.036285948
-0.05720412 0.007111704 -0.072593205 -0.09321741 0.09946044 -0.12882134 0.05631582 0.08199107
0.073528364 -0.031210007 -0.08111913 -0.10599328 0.025217121 0.09277269 0.023712276 0.08645708
-0.060193677 -0.09453419 -0.07098025 0.101187535 0.04866843 -0.063005954 -0.013471422 0.12199134
-0.13753723 0.03216065 0.0708584 -0.027491495 0.084181346 -0.06447679 -0.04266625 0.07988611
-0.13262679 -0.080321476 0.10885583 -0.09098538 -0.068621755 0.0019458492 0.02010932 0.017805038
0.14429437 0.022946717 -0.07299323 -0.022060093 -0.077722594 0.10043493 0.017529512 0.07253149
0.078632645 -0.0021338 -0.044935033 0.06439598 0.06858774 0.051504407 0.100216106 -0.09985638
-0.06396912 0.06619392 0.041470848 -0.077890135 0.07695705 -0.059011422 0.08874978 0.098689586
-0.021934234 -0.03873112 0.08623479 -0.033709433 -0.12399779 -0.01705497 -0.11692184 -0.10010381
0.0064060353 -0.03814555 0.012161727 -0.1223297 0.13128252 -0.0563749 -0.0070319087 -0.06109784
0.049189355 0.009941108 -0.03509866 -0.0003364941 -0.040325772 -0.024509948 -0.101918146 -0.013533225
0.10460729 -0.047118705 -0.009658091 0.120025985 -0.13897058 0.12099088 -0.08278834 -0.08661089
00000000: f9ba 153d eb11 cabd 392e 8f3b d433 44bd
00000010: 2dc2 8fbd bc52 b7bd bd83 7ebc 67fc 2e3c
00000020: 3871 ce3d 0f2e 933d 0afd f4bc b69f 97bd
00000030: f687 50bd abc6 a13d 6f52 b2bd 8f6b 91bd
00000040: 0e9b 64bd 155c d63d 6f8f 9ebd ce3d 1c3e
00000050: c073 ef3b 56e8 e13d 1b2c 3d3d 0e20 793d
00000060: b0b7 90bd 3fae 0e3d b273 02be a959 06be
00000070: c228 8fbd 7a5d 72bd 2d7e 53bd f3c2 50bd
00000080: ced1 a43d 39b5 783d f2bb 14bd 74a5 46bd
00000090: 9e6d bcbd abbe 023d c453 bdbd 16da e53d
000000a0: 186c b3bd 867f 083d 939f 823c 740a e2bd
000000b0: 2cf0 a6bc b367 313d 9716 343d 93a0 143d
000000c0: de4e 6abd 4c09 e93b bfab 94bd c5e8 bebd
000000d0: eab1 cb3d bee9 03be 6bab 663d efea a73d
000000e0: 0a96 963d 21ac ffbc c921 a6bd 0113 d9bd
000000f0: 2394 ce3c 9cff bd3d 3f40 c23c 6910 b13d
00000100: a58d 76bd 249b c1bd 185e 91bd 693b cf3d
00000110: 8c58 473d 4409 81bd 3db7 5cbc 98d6 f93d
00000120: 8fd6 0cbe e3ba 033d 351e 913d d835 e1bc
00000130: 4567 ac3d 680c 84bd cec2 2ebd 549b a33d
00000140: 51cf 07be 967f a4bd ceef de3d 8b56 babd
00000150: 9089 8cbd dd0b ff3a 4dbc a43c dfdb 913c
00000160: e7c1 133e c1fa bb3c 797d 95bd 5eb7 b4bc
00000170: 062d 9fbd d4b0 cd3d 0d9a 8f3c 648b 943d
00000180: 270a a13d 39d7 0bbb cc0d 38bd 0ae2 833d
00000190: bb77 8c3d 49f6 523d 1a3e cd3d 8081 ccbd
000001a0: 3e02 83bd ae90 873d 56dd 293d dd84 9fbd
000001b0: a89b 9d3d f6b5 71bd 72c2 b53d c41d ca3d
000001c0: 6caf b3bc 86a4 1ebd de9b b03d e712 0abd
000001d0: 8ef2 fdbd ddb6 8bbc b874 efbd 3a03 cdbd
000001e0: b8e9 d13b 823e 1cbd fb41 473c fe87 fabd
000001f0: ed6e 063e 5ee9 66bd ed6b e6bb bb41 7abd
00000200: c77a 493d 07e0 223c 9dc3 0fbd 796b b0b9
00000210: a32c 25bd 16c9 c8bc 76ba d0bd 76ba 5dbc
00000220: 593c d63d 8bff 40bd f83c 1ebc 2fd0 f53d
00000230: 4e4e 0ebe 11ca f73d ef8c a9bd 0d61 b1bd

model.1.running_var f4 [144]
1.123489 1.4981196 0.61267996 1.001759 0.886811 0.5715046 1.3135947 0.9275206
0.9732131 0.5249369 0.99743646 1.1860918 1.1633927 0.7202656 1.5184681 0.85691994
0.76725346 0.5750488 0.8222616 0.757251 1.1625483 0.9860175 0.7837 0.7677096
0.92058355 0.8851625 1.1638987 0.62593126 0.7899026 1.3988403 1.1175516 0.7939028
0.46507362 1.5024955 0.8613888 0.7976149 0.72554696 0.74652696 0.7441837 0.9915543
0.99901915 1.699917 0.94409674 0.9344607 0.71330917 1.1459153 0.47514918 0.79496217
1.2076975 0.7713736 1.0351613 0.61894923 0.5690487 0.45549476 0.5168893 0.809779
1.0817734 0.93759876 1.3627442 1.1682571 0.72048116 0.6473397 1.1610991 0.95191187
0.7207843 0.7708366 0.70011544 0.90657365 0.7255485 0.85654444 1.0356042 0.804289
1.145193 0.97183716 2.3937137 0.828742 1.3675897 0.9993865 0.5141665 0.53006136
0.5724011 0.49640632 0.990134 0.6970094 0.61818254 0.97205865 1.2997749 1.1606371
0.7590673 0.7856894 0.99253434 1.2662238 1.1563177 0.7577167 1.1472431 0.7848533
0.88726383 0.877724 0.9810324 0.907842 0.7197841 0.87504685 1.2010323 0.74827236
0.63596797 0.95985115 1.0307714 0.9597451 1.1050096 1.2853217 0.47359642 0.9112348
0.9054918 1.0714189 0.88586646 1.3349705 0.8772013 0.9937728 1.0538489 0.7361919
0.938267 1.4719898 0.6425343 1.3205713 0.83457476 1.1798441 1.0225329 0.62909985
0.7418654 1.1133298 0.6385799 0.90304625 0.52328193 0.7183085 0.87985975 1.0841532
0.6861058 1.2325644 0.77627355 1.5626719 1.8836824 0.83146065 1.1072251 0.6061593
00000000: 7dce 8f3f 62c2 bf3f 98d8 1c3f a439 803f
00000010: 0c06 633f 204e 123f df23 a83f fd71 6d3f
00000020: 7e24 793f 4462 063f ff57 7f3f dbd1 973f
00000030: 0dea 943f 5463 383f 2a5d c23f 1b5f 5b3f
00000040: b96a 443f 6636 133f bc7f 523f 34db 413f
00000050: 62ce 943f a56b 7c3f 90a0 483f 9e88 443f
00000060: 5dab 6b3f 029a 623f a2fa 943f 083d 203f
00000070: 0f37 4a3f 330d b33f ee0b 8f3f 373d 4b3f
00000080: 211e ee3e c651 c03f fa83 5c3f 7d30 4c3f
00000090: 72bd 393f 641c 3f3f d382 3e3f 81d6 7d3f
000000a0: b8bf 7f3f e196 d93f 53b0 713f d138 6f3f
000000b0: 6e9b 363f 5aad 923f c146 f33e a482 4b3f
000000c0: d595 9a3f be78 453f 2a80 843f 7573 1e3f
000000d0: 2dad 113f 9c36 e93e db52 043f ad4d 4f3f
000000e0: 8d77 8a3f 7906 703f 676e ae3f 7389 953f
000000f0: 7471 383f 0eb8 253f e59e 943f 7fb0 733f
00000100: 5285 383f 8c55 453f c43a 333f 3615 683f
00000110: 8cbd 393f 7f46 5b3f ae8e 843f e2e5 4d3f
00000120: af95 923f 52ca 783f 9b32 1940 7028 543f
00000130: 2e0d af3f cbd7 7f3f 6aa0 033f 1ab2 073f
00000140: e188 123f f828 fe3e 6c79 7d3f 356f 323f
00000150: 3641 1e3f d6d8 783f 065f a63f c28f 943f
00000160: 3c52 423f f122 493f bb16 7e3f 9f13 a23f
00000170: 3802 943f b9f9 413f ddd8 923f 25ec 483f
00000180: b923 633f 85b2 603f f024 7b3f 5568 683f
00000190: c543 383f 1203 603f 6dbb 993f c78e 3f3f
000001a0: ccce 223f ceb8 753f 51f0 833f dbb1 753f
000001b0: f470 8d3f 6c85 a43f 3b7b f23e af46 693f
000001c0: 50ce 673f 4124 893f 25c8 623f 50e0 aa3f
000001d0: 4490 603f e567 7e3f 85e4 863f 1377 3c3f
000001e0: 4432 703f 296a bc3f 217d 243f 7b08 a93f
000001f0: b1a6 553f 2205 973f 5ce2 823f b00c 213f
00000200: e4ea 3d3f 9781 8e3f f979 233f 0a2e 673f
00000210: cef5 053f 11e3 373f 7d3e 613f 88c5 8a3f
00000220: a1a4 2f3f acc4 9d3f ddb9 463f a205 c83f
00000230: 811c f13f 9bda 543f 8db9 8d3f 422d 1b3f

model.4.weight f4 [72, 144]
0.07067002 -0.08330755 0.05502448 -0.18107072 0.02331572 -0.075398855 -0.03184415 0.15119682
-0.109464 -0.020356152 0.0027972744 0.05082659 -0.16967319 0.050678235 -0.073610894 -0.09090436
-0.0048389956 0.09063494 -0.16062823 -0.09433099 -0.15208654 0.06040335 0.07850385 0.029036911
0.09026845 -0.114013165 -0.0562115 0.0011171399 -0.09264475 -0.16038084 -0.022542857 -0.004861383
-0.06149491 -0.08807245 0.01595693 0.003191554 -0.15826994 0.028512243 -0.00816198 -0.021923134
-0.21325225 0.055667542 0.0022686438 -0.21890378 0.06426056 -0.092312135 -0.10643272 0.04369409
0.025551353 -0.10172059 -0.16342509 -0.026710207 0.01734829 -0.029382898 -0.018916074 -0.10694296
-0.001885201 -0.105684236 -0.06513951 0.0065949294 -0.0468156 -0.06612177 -0.10556041 0.11571358
-0.043874655 0.0962771 -0.15378451 -0.15332526 -0.100542866 0.035648946 0.13734359 -0.1154712
-0.025428843 0.110823125 -0.0121060135 0.0018902612 -0.18949462 0.12440576 -0.004998174 -0.015196358
0.10149546 0.119950965 0.07370294 0.13294296 -0.069623925 0.048221465 -0.0770875 0.13030553
-0.14778128 -0.10882415 0.058694504 0.020138234 -0.007130608 -0.0122987 -0.05207045 -0.10798977
0.03474439 0.04411668 -0.06417172 0.030645588 -0.13123429 0.114135504 -0.016618531 -0.12164889
-0.0070694825 -0.06934007 -0.13420863 -0.037764207 -0.07058256 -0.036074977 -0.12703505 -0.019990148
-0.031707633 -0.08348854 0.04560027 0.02813878 0.0099791335 0.023044962 -0.09091233 0.03117624
0.008588698 0.05699738 0.13160576 0.022562878 0.0405739 -0.07967789 -0.0679529 0.05013926
0.047635116 -0.12209199 0.063373834 0.10565994 0.015212201 -0.031621873 -0.11444389 -0.025391635
-0.068856284 -0.08572128 -0.046319555 0.096852764 -0.04364312 -0.021333262 0.0048060706 -0.03197577
0.032197412 0.03204187 -0.069461696 0.099532366 -0.081415534 -0.07518536 0.048768423 0.026765862
-0.08308944 0.060504977 -0.012758899 0.11787113 0.09009991 -0.017605688 -0.04275402 0.05900722
-0.1270021 -0.034616303 -0.052329697 -0.10567992 -0.079558946 -0.058609117 -0.09403265 -0.0011132094
-0.10794757 -0.0701692 -0.01145243 0.05893438 -0.11218334 0.04171323 0.06622732 -0.14009927
0.04679125 0.017121587 -0.030243391 -0.025460768 -0.09291444 0.06695662 0.041278645 0.0152702145
0.09922153 -0.03603754 -0.126821 0.13335238 0.09498372 0.06690526 0.084247924 -0.101167634
-0.011976725 -0.014536572 0.14534737 -0.13129492 -0.011869541 -0.18865356 0.011690053 0.16121846
-0.02577547 -0.06648359 -0.07236347 -0.112428024 0.008526687 0.038981445 0.0018938427 -0.020689806
0.0025165223 0.014733348 -0.0016146011 -0.13057958 0.0068695326 -0.20712818 0.027999187 0.09526394
0.0039466266 0.124314435 0.013222847 0.07194857 -0.09399794 -0.038749654 0.017294781 0.04130556
0.01949061 -0.102636464 -0.08199865 0.015923152 0.0690611 -0.050844178 -0.05340558 0.10368085
-0.04612381 0.062621474 0.068147056 0.09024366 0.05241944 -0.13151886 0.034224693 0.13009107
-0.022495445 0.10237756 0.017195957 0.09906999 0.05053301 0.056693472 0.03908851 -0.007668175
-0.16872416 0.010238533 -0.011490185 0.020386858 0.022997497 -0.05830436 0.12773782 -0.012351915
00000000: 72bb 903d 269d aabd 5961 613d 9a6a 39be
00000010: 9c00 bf3c b76a 9abd 036f 02bd 57d3 1a3e
00000020: a92e e0bd f2c1 a6bc 7a52 373b 8b2f 503d
00000030: cfbe 2dbe fb93 4f3d 4fc1 96bd 112c babd
00000040: 7090 9ebb d09e b93d ba7b 24be 9b30 c1bd
00000050: 93bc 1bbe 8169 773d a0c6 a03d d1de ed3c
00000060: aade b83d bc7f e9bd 083e 66bd ff6c 923a
00000070: 88bc bdbd e03a 24be ccab b8bc 3c4c 9fbb
00000080: 16e2 7bbd 545f b4bd 1cb8 823c 6429 513b
00000090: 8411 22be 8292 e93c d3b9 05bc 2598 b3bc
000000a0: cc5e 5abe a603 643d 87ad 143b 5028 60be
000000b0: 0a9b 833d 250e bdbd 66f9 d9bd 93f8 323d
000000c0: 1251 d13c e252 d0bd e858 27be 5dcf dabc
000000d0: 001e 8e3c 67b4 f0bc e2f5 9abc e904 dbbd
000000e0: d918 f7ba fa70 d8bd dd67 85bd 471a d83b
000000f0: b7c1 3fbd da6a 87bd 0e30 d8bd 3efb ec3d
00000100: e9b5 33bd ee2c c53d b079 1dbe 4c01 1dbe
00000110: 6be9 cdbd a104 123d cca3 0c3e 2a7c ecbd
00000120: 2650 d0bc 3cf7 e23d 4d58 46bc a4c2 f73a
00000130: e10a 42be 72c8 fe3d b9c7 a3bb 25fa 78bc
00000140: dadc cf3d daa8 f53d 91f1 963d 3322 083e
00000150: fd96 8ebd df83 453d 0de0 9dbd d06e 053e
00000160: fa53 17be 32df debd a669 703d f0f8 a43c
00000170: e0a7 e9bb 7d80 49bc d347 55bd be29 ddbd
00000180: 2250 0e3d b1b3 343d 766c 83bd 750c fb3c
00000190: 4862 06be e0bf e93d 9623 88bc 0e23 f9bd
000001a0: 1ea7 e7bb 2b02 8ebd fd6d 09be a4ae 1abd
000001b0: 978d 90bd 5bc3 13bd 7a15 02be 61c2 a3bc
000001c0: dddf 01bd 0afc aabd 59c7 3a3d 4c83 e63c
000001d0: 857f 233c cac8 bc3c 3e30 babd 5065 ff3c
000001e0: 9cb7 0c3c 1676 693d a9c3 063e c9d5 b83c
000001f0: d130 263d 292e a3bd e42a 8bbd d35e 4d3d
00000200: 0a1d 433d 5e0b fabd 24ca 813d 3d64 d83d
00000210: 983c 793c f085 01bd 8f61 eabd 1e02 d0bc
00000220: 8604 8dbd a38e afbd 93b9 3dbd be5a c63d
00000230: 21c3 32bd 18c3 aebc 3e7c 9d3b 06f9 02bd
00000240: 6fe1 033d 563e 033d ef41 8ebd a0d7 cb3d
00000250: 30bd a6bd c8fa 99bd 66c1 473d 1544 db3c
00000260: cc2a aabd 11d4 773d b30a 51bc 6b66 f13d
00000270: 4d86 b83d ce39 90bc d71e 2fbd 8eb1 713d
00000280: d70c 02be d3c9 0dbd aa57 56bd b76e d8bd
00000290: cdef a2bd 1d10 70bd 3194 c0bd 1ce9 91ba
000002a0: 9e13 ddbd dfb4 8fbd f9a2 3bbc 2d65 713d
000002b0: 61c0 e5bd 7edb 2a3d 30a2 873d 2f76 0fbe
000002c0: 2fa8 3f3d 9242 8c3c fdc0 f7bc 1a93 d0bc
000002d0: ed49 bebd 8d20 893d cc13 293d ec2f 7a3c
000002e0: a834 cb3d 199c 13bd 5ddd 01be 878d 083e
000002f0: d386 c23d a005 893d 2d8a ac3d fa30 cfbd
00000300: 073a 44bc cd2a 6ebc f1d5 143e 2d72 06be
00000310: 7778 42bc 662e 41be a387 3f3c 7416 253e
00000320: 1427 d3bc 8c28 88bd 4d33 94bd aa40 e6bd
00000330: 84b3 0b3c 02ab 1f3d d13a f83a ab7d a9bc
00000340: 3dec 243b 2464 713c 06a1 d3ba a7b6 05be
00000350: d119 e13b 6919 54be 8d5e e53c be19 c33d
00000360: b452 813b 9198 fe3d a4a4 583c c659 933d
00000370: fe81 c0bd f5b7 1ebd c9ad 8d3c 0530 293d
00000380: c6aa 9f3c 1133 d2bd e9ee a7bd 4571 823c
00000390: e86f 8d3d fc41 50bd cfbf 5abd a056 d43d
000003a0: 52ec 3cbd b03f 803d af90 8b3d abd1 b83d
000003b0: c4b5 563d e1ac 06be 312f 0c3d 9836 053e
000003c0: 5e48 b8bc 54ab d13d 89de 8c3c 35e5 ca3d
000003d0: b4fb 4e3d 6a37 683d 461b 203d 5045 fbbb
000003e0: 07c6 2cbe 85bf 273c 5441 3cbc 5702 a73c
000003f0: 3f65 bc3c 8dd0 6ebd b4cd 023e b05f 4abc

model.4.bias f4 [72]
0.050793406 -0.060540445 -0.0142044695 -0.060944743 0.073410615 -0.012559027 -0.065645844 -0.07098865
-0.06801479 -0.070579976 0.016530598 -0.06020986 -0.0778479 0.0768524 -0.060159005 0.011412764
0.007878069 -0.0365352 -0.036132544 0.024039801 -0.0317121 -0.02463722 -0.026070394 -0.075327225
-0.010957579 -0.07699463 -0.067206554 -0.032837093 0.07336472 -0.05958671 0.06904166 -0.0042337347
-5.3333373e-05 -0.006097413 -0.07647469 0.004635649 -0.07238117 -0.045829434 0.04005696 0.033346586
0.023171257 0.022157282 -0.043588627 0.04509306 0.07762253 0.030429123 0.06809706 0.07798563
0.031150643 -0.0010560569 0.05349441 -0.03918683 -0.068694375 -0.053977735 0.028848343 0.049594894
-0.07611831 -0.02176556 -0.006754702 0.05833087 -0.028213164 -0.0028363192 -0.026247676 0.021746073
-0.05443103 -0.0106182685 0.047969423 0.031144675 0.016993886 0.050407313 0.069605775 0.07267143
00000000: bf0c 503d 42f9 77bd ddb9 68bc 32a1 79bd
00000010: 4e58 963d 61c4 4dbc 5471 86bd 7f62 91bd
00000020: 574b 8bbd 3c8c 90bd 2d6b 873c 9d9e 76bd
00000030: b86e 9fbd cb64 9d3d 4a69 76bd 9afc 3a3c
00000040: 0413 013c efa5 15bd b8ff 13bd 1eef c43c
00000050: 8ce4 01bd ffd3 c9bc 9491 d5bc 2945 9abd
00000060: 6b87 33bc 5caf 9dbd 97a3 89bd 3080 06bd
00000070: 3e40 963d 3211 74bd b765 8d3d 24bb 8abb
00000080: 46b2 5fb8 cfcc c7bb c39e 9cbd a4e6 973b
00000090: 943c 94bd a5b7 3bbd c412 243d 6e96 083d
000000a0: a6d1 bd3c 3083 b53c fd89 32bd 80b3 383d
000000b0: 90f8 9e3d 7f46 f93c 7976 8b3d eeb6 9f3d
000000c0: a22f ff3c 646b 8aba f41c 5b3d 5f82 20bd
000000d0: a3af 8cbd c217 5dbd 5c53 ec3c 0424 4b3d
000000e0: ebe3 9bbd b04d b2bc 8c56 ddbb 5aec 6e3d
000000f0: 4b1f e7bc 8ae1 39bb 5e05 d7bc d224 b23c
00000100: 12f3 5ebd 3ff8 2dbc 967b 443d 1e23 ff3c
00000110: c336 8b3c e677 4e3d 798d 8e3d c2d4 943d

model.5.weight f4 [72]
0.87959284 0.82587713 0.8534281 0.8154096 0.66996396 0.87431705 0.8434916 0.8795691
0.86801875 0.85643464 0.84785634 0.8794211 0.7754407 0.81303537 0.87988836 0.8653701
0.80876595 0.82577455 0.8153468 0.81224144 0.72472996 0.84095955 0.85060644 0.8482566
0.7509789 0.8026483 0.8061173 0.8827585 0.9027736 0.8638748 0.8673005 0.7759601
0.8313116 0.8061332 0.8501201 0.7933144 0.7215942 0.6821814 0.8542837 0.86314833
0.87427473 0.7831018 0.6876702 0.64956254 0.866193 0.89600873 0.862295 0.86422676
0.76946914 0.8390676 0.81214947 0.84642637 0.90183234 0.85989064 0.89534044 0.83754027
0.8449038 0.8638525 0.8549876 0.8863504 0.785614 0.8779809 0.77328336 0.8615074
0.7661833 0.8538361 0.71474713 0.85330033 0.8620254 0.69544464 0.86181283 0.87799835
00000000: ff2c 613f af6c 533f 447a 5a3f afbe 503f
00000010: c282 2b3f 3ed3 5f3f 11ef 573f 712b 613f
00000020: 7a36 5e3f 4d3f 5b3f 1d0d 593f be21 613f
00000030: 4883 463f 1623 503f 5d40 613f e588 5d3f
00000040: 490b 4f3f f665 533f 91ba 503f 0eef 4f3f
00000050: e787 393f 2049 573f 58c1 593f 5827 593f
00000060: 2740 403f 5c7a 4d3f b45d 4e3f 76fc 613f
00000070: 2c1c 673f e626 5d3f 6807 5e3f 52a5 463f
00000080: d6d0 543f bf5e 4e3f 79a1 593f a716 4b3f
00000090: 66ba 383f 71a3 2e3f 56b2 5a3f 4af7 5c3f
000000a0: 78d0 5f3f 5c79 483f 270b 303f bb49 263f
000000b0: d3be 5d3f d460 653f 5dbf 5c3f f73d 5d3f
000000c0: eefb 443f 22cd 563f 07e9 4f3f 66af 583f
000000d0: 7cde 663f cb21 5c3f 0835 653f 0a69 563f
000000e0: 9e4b 583f 7025 5d3f 78e0 5a3f dce7 623f
000000f0: 001e 493f 5bc3 603f e6f5 453f c08b 5c3f
00000100: 9724 443f 0195 5a3f abf9 363f e471 5a3f
00000110: b2ad 5c3f a908 323f c49f 5c3f 80c4 603f

model.5.bias f4 [72]
-0.2064939 -0.22498193 -0.1867505 -0.21773359 -0.25017735 -0.19524105 -0.15249181 -0.24839064
-0.22162038 -0.28677464 -0.22094302 -0.1543436 -0.25936058 -0.22165202 -0.094603404 -0.2072236
-0.23307218 -0.20402287 -0.20656204 -0.26156184 -0.25038683 -0.05797578 -0.22038707 -0.17788109
-0.23877287 -0.22291464 -0.15439531 -0.2267467 -0.11658433 -0.20623745 -0.20013481 -0.2758379
-0.22028182 -0.24228515 -0.21864781 -0.1807962 -0.23107018 -0.24101779 -0.16447811 -0.20128715
-0.095516756 -0.23140773 -0.24878888 -0.27851835 -0.1468823 -0.09801494 -0.18295889 -0.21067159
-0.19725505 -0.21948692 -0.19169237 -0.15283996 -0.1609407 -0.16792665 -0.13897939 -0.2176921
-0.20244147 -0.19551595 -0.23996024 -0.13014705 -0.19717908 -0.19061074 -0.25656208 -0.12025643
-0.17365143 -0.2274659 -0.2227297 -0.22610739 -0.1638599 -0.21760999 -0.17606342 -0.18433084
00000000: 2373 53be aa61 66be 863b 3fbe 8ef5 5ebe
00000010: 3f17 80be 45ed 47be d026 1cbe 1e5a 7ebe
00000020: 74f0 62be 20d4 92be e33e 62be 400c 1ebe
00000030: e9ca 84be bff8 62be 6ebf c1bd 6c32 54be
00000040: 79aa 6ebe 5feb 50be 0085 53be 6feb 85be
00000050: b432 80be 0378 6dbd 26ad 61be 7626 36be
00000060: e080 74be bc43 64be ce19 1ebe 4930 68be
00000070: c4c3 eebd e92f 53be 24f0 4cbe a03a 8dbe
00000080: 8f91 61be 9919 78be 36e5 5fbe a422 39be
00000090: a99d 6cbe 5ecd 76be f36c 28be 381e 4ebe
000000a0: 4a9e c3bd 26f6 6cbe 83c2 7ebe f599 8ebe
000000b0: 5068 16be 0fbc c8bd 9359 3bbe 4bba 57be
000000c0: 3afd 49be 2ec1 60be 014b 44be 1482 1cbe
000000d0: a4cd 24be f7f4 2bbe 9d50 0ebe aeea 5ebe
000000e0: d14c 4fbe 5535 48be 23b8 75be 4545 05be
000000f0: 50e9 49be 762f 43be 1b5c 83be 0149 f6bd
00000100: aed1 31be d2ec 68be 4113 64be b288 67be
00000110: e4ca 27be 27d5 5ebe f849 34be 39c1 3cbe

model.5.running_mean f4 [72]
-1.2802101 -0.15258855 -0.57613504 -1.0527176 -0.23477128 -0.48859823 -0.6427808 -1.3833671
-0.5494866 -0.94393253 -0.40890467 -0.25681114 0.7279711 -0.59538853 -1.5986434 -1.0413957
0.66063553 -0.77813566 -0.8838267 0.44211274 -0.4224349 -1.3933759 -0.56794125 -0.9289076
-0.12582022 -0.8186731 -0.305186 -1.2894468 -0.6915472 -0.3477467 -0.9027876 -0.15338501
0.4779477 -1.2691823 -0.7016013 -0.29776838 -1.0266838 -0.44268185 -0.75808746 -0.8664631
-0.88863146 0.42819628 0.26759782 -0.9704529 -0.95967954 -1.0177263 -1.321544 -0.33811545
0.26596567 -0.6172375 -1.2035896 -0.6419152 -0.7944407 -0.8705089 -1.4708947 -1.292535
-0.92403203 -1.5386194 0.42632455 -0.7943774 0.024146896 -1.2595854 -0.058214597 -0.9157371
0.7112649 -1.3277247 -0.7731952 -0.32874316 -0.920125 -0.06424447 -1.3616221 -1.3972095
00000000: eddd a3bf 2c40 1cbe 967d 13bf 73bf 86bf
00000010: e267 70be 8c29 fabe 488d 24bf 2c12 b1bf
00000020: 27ab 0cbf 90a5 71bf f45b d1be c07c 83be
00000030: 505c 3a3f 626b 18bf 59a0 ccbf 744c 85bf
00000040: 691f 293f e633 47bf 7742 62bf 9a5c e23e
00000050: 6349 d8be 245a b2bf 9964 11bf e3cc 6dbf
00000060: 04d7 00be 8f94 51bf 5741 9cbe 980c a5bf
00000070: 3d09 31bf db0b b2be 171d 67bf f610 1dbe
00000080: 90b5 f43e 9174 a2bf 259c 33bf 1975 98be
00000090: 606a 83bf 32a7 e2be 0512 42bf 87d0 5dbf
000000a0: 5a7d 63bf 8b3c db3e 9502 893e 9a6f 78bf
000000b0: 8fad 75bf db44 82bf 5b28 a9bf 781d adbe
000000c0: a72c 883e 4703 1ebf 390f 9abf 8e54 24bf
000000d0: 7760 4bbf acd9 5ebf 4746 bcbf c971 a5bf
000000e0: 5d8d 6cbf 7bf1 c4bf 3647 da3e 515c 4bbf
000000f0: b6cf c53c 183a a1bf 6e72 6ebd bf6d 6abf
00000100: 7515 363f e2f2 a9bf 1ff0 45bf 0651 a8be
00000110: 508d 6bbf 9b92 83bd a249 aebf c3d7 b2bf

model.5.running_var f4 [72]
1.1471937 0.6084118 0.76301587 0.9805396 0.82424164 0.7861392 0.74506044 1.1559527
0.9354294 0.8504032 0.54980344 0.91393346 0.8132147 0.5791139 0.9575584 0.9323919
1.1573178 0.74921674 0.76153433 0.7275555 0.6778413 0.9815481 0.75796497 0.95196867
0.5075071 0.9139885 0.8369389 0.71964383 1.1162883 1.1658134 1.161299 0.4855605
0.6100928 1.4849302 1.2304916 1.4853355 0.85966784 0.8122548 1.3055373 0.8598479
1.2194934 0.6886912 0.5017758 0.8321364 1.0430906 1.3433127 0.9426623 0.9678691
0.87678355 0.8389255 0.8139064 0.6253576 0.999467 1.2699168 1.4055374 1.0338987
0.7141826 0.8702362 1.0525162 0.859738 0.65398574 1.5341253 0.63946545 0.98114806
0.5205274 1.1009603 1.194226 0.67635596 1.2981964 0.4147635 1.2633759 1.0182838
00000000: 3ed7 923f e0c0 1b3f 0255 433f a504 7b3f
00000010: 8001 533f 6b40 493f 48bc 3e3f 42f6 933f
00000020: 4d78 6f3f 06b4 593f ebbf 0c3f 8bf7 693f
00000030: d72e 503f cf40 143f 8c22 753f 3cb1 6e3f
00000040: fd22 943f abcc 3f3f eaf3 423f 1441 3a3f
00000050: 0287 2d3f bc46 7b3f fe09 423f 38b4 733f
00000060: fceb 013f 26fb 693f a141 563f 943a 383f
00000070: 89e2 8e3f 6039 953f 72a5 943f 639b f83e
00000080: 0b2f 1c3f 3112 be3f c080 9d3f 791f be3f
00000090: 3113 5c3f eeef 4f3f d91b a73f fe1e 5c3f
000000a0: 5c18 9c3f 114e 303f 6174 003f e406 553f
000000b0: fe83 853f acf1 ab3f 5152 713f 45c6 773f
000000c0: e374 603f d2c3 563f 2b5c 503f 7017 203f
000000d0: 12dd 7f3f a28c a23f a6e8 b33f cb56 843f
000000e0: acd4 363f cdc7 5e3f dab8 863f ca17 5c3f
000000f0: 9c6b 273f 385e c43f 02b4 233f 852c 7b3f
00000100: 4941 053f 44ec 8c3f 66dc 983f aa25 2d3f
00000110: 4d2b a63f e25b d43e 4db6 a13f 2057 823f

model.8.weight f4 [2, 72]
0.06277822 0.013242015 -0.035016473 -0.08838075 0.08196785 0.059738476 0.024127549 0.02595968
-0.111976534 -0.0560353 0.038927346 0.0130681405 0.02882513 -0.000690961 -0.04291742 0.008895976
0.002794559 0.050435476 -0.03028692 -0.05822451 -0.08451292 0.057962604 0.006961146 -0.026828632
0.03587444 0.041597452 -0.0034523925 0.07613949 -0.016975122 0.01719578 -0.08671122 0.05149509
-0.039839808 0.06696733 0.02003104 0.09373118 0.017906325 -0.026438672 -0.060047816 0.063041516
-0.070234954 0.04546759 0.016693808 0.09912417 -0.057247028 -0.025122521 0.00797463 0.07178679
0.063616395 0.018704792 0.065904394 -0.032980345 -0.059329655 -0.041317385 -0.00311755 0.0726469
0.020332733 -0.04646778 0.05160061 0.020280536 -0.0024835742 0.021031912 -0.042523038 0.05904833
0.006233321 -0.020547623 0.111720845 0.023196697 0.0643385 0.009205326 0.02127782 0.047935992
-0.012285521 0.047683347 -0.08161714 -0.044482354 0.06980875 -0.007378708 0.06320806 -0.010845219
-0.06094688 0.038018525 0.009309903 0.07686574 0.052675433 0.026144978 -0.006632602 -0.021060139
-0.07161052 0.032420646 -0.003731598 -0.10450852 -0.07442865 0.015742628 -0.038400352 0.024170298
0.015749896 0.06445248 0.052258212 0.00010772757 -0.07862534 0.075556 -0.043503124 0.014366461
0.007895072 -0.0035681764 0.09330603 0.044899393 -0.014758004 -0.013593842 -0.15223147 0.034685772
-0.10870802 0.07600539 0.00840051 0.09645626 -0.019567752 -0.092375934 0.052520663 0.008860908
0.08879516 -0.017705016 0.018930316 -0.00518728 0.03662393 -0.0020838545 0.051637296 0.0110621825
-0.00043577788 0.022695012 -0.0005520105 0.08129386 -0.046487875 0.08562885 -0.080824785 0.024792327
-0.017672427 0.024429841 0.061464578 -0.02624091 0.001520415 0.040905125 0.060374316 0.008095181
00000000: de91 803d 09f5 583c 6f6d 0fbd f700 b5bd
00000010: c3de a73d 55b0 743d 23a7 c53c 65a9 d43c
00000020: f453 e5bd 4585 65bd 4872 1f3d c11b 563c
00000030: ae22 ec3c 9c21 35ba 2dca 2fbd 6dc0 113c
00000040: ec24 373b 6e95 4e3d 461c f8bc d37c 6ebd
00000050: 1c15 adbd 326a 6d3d 531a e43b b8c7 dbbc
00000060: 14f1 123d 1762 2a3d 8941 62bb 05ef 9b3d
00000070: 690f 8bbc 2ade 8c3c a795 b1bd 84ec 523d
00000080: 112f 23bd 2b26 893d 2318 a43c 22f6 bf3d
00000090: 49b0 923c ea95 d8bc b3f4 75bd e91b 813d
000000a0: 58d7 8fbd 393c 3a3d 74c1 883c 9d01 cb3d
000000b0: dc7b 6abd bfcd cdbc 06a8 023c f404 933d
000000c0: 5049 823d cb3a 993c e2f8 863d 6616 07bd
000000d0: a703 73bd 6b3c 29bd cf4f 4cbb e6c7 943d
000000e0: d590 a63c 0055 3ebd 295b 533d 5e23 a63c
000000f0: 76c3 22bb 1e4b ac3c a32c 2ebd a9dc 713d
00000100: e340 cc3b 7d53 a8bc e6cd e43d 0007 be3c
00000110: e7c3 833d f0d1 163c d34e ae3c 8858 443d
00000120: 3649 49bc 9d4f 433d e326 a7bd 2133 36bd
00000130: e4f7 8e3d 17c9 f1bb 3a73 813d 25b0 31bc
00000140: 70a3 79bd 50b9 1b3d 9088 183c c96b 9d3d
00000150: 32c2 573d fe2d d63c 4c56 d9bb 5086 acbc
00000160: 89a8 92bd 83cb 043d d38d 74bb 9008 d6bd
00000170: 0c6e 98bd aff6 803c b049 1dbd ca00 c63c
00000180: ed05 813c a9ff 833d b50c 563d cceb e138
00000190: 5206 a1bd 1bbd 9a3d 5530 32bd 4e61 6b3c
000001a0: 555a 013c 11d8 69bb 3b17 bf3d 6de8 373d
000001b0: 8ecb 71bc b5b8 5ebc 91e2 1bbe ab12 0e3d
000001c0: 4fa2 debd b7a8 9b3d 4ba2 093c dc8a c53d
000001d0: 8d4c a0bc 982f bdbd e81f 573d 582d 113c
000001e0: 3dda b53d 1c0a 91bc c013 9b3c 0ffa a9bb
000001f0: f902 163d 4791 08bb a181 533d 283e 353c
00000200: 1e79 e4b9 e4ea b93c ccb4 10ba 657d a63d
00000210: 126a 3ebd 2e5e af3d 7787 a5bd 4719 cb3c
00000220: c4c5 90bc 1721 c83c 48c2 7b3d 2df7 d6bc
00000230: a948 c73a 228c 273d 0f4b 773d a6a1 043c

model.8.bias f4 [2]
-0.089163005 0.10119199
00000000: 189b b6bd bf3d cf3d
