src/modelDevelopment/training/model_files/deep_mlp_model_diff.pt (torch, 24635 bytes, 14 tensors)

model.0.weight f4 [64, 32]
000000 00 00 ae bd 7b b0 8a 3d 23 b5 f5 bd d3 8f a4 bd
       -0.08496094 0.06771942 -0.1199744 -0.08035245
000010 9b 00 45 3e c2 3b d4 bd ec d3 6e 3e 8d 57 83 3d
       0.19238512 -0.103629604 0.2332303 0.06413183
000020 d6 e8 d2 bd 03 e8 df bd 74 9e 25 be 9e f6 2f 3d
       -0.10298316 -0.109329246 -0.16173726 0.0429598
000030 7b 57 a4 bd da 2f cc 3d 2c 26 a3 3d 54 ae 22 3e
       -0.08024498 0.099700645 0.07966265 0.15886813
000040 40 af ea bd 8a 44 2b be 45 f9 b6 3d e1 29 d7 bd
       -0.114592075 -0.16725364 0.08934263 -0.10506035
000050 63 20 8d 3c 43 23 d0 bd d3 cb 88 bd 8c a2 0d bd
       0.017227357 -0.10162976 -0.066795014 -0.034578845
000060 ba b1 0e 3d ef c1 a6 bd 84 e6 90 bd 6b 5b 2c bd
       0.034837462 -0.08142459 -0.07075217 -0.04207937
000070 4d 35 23 be 1f 1d 5f 3d 48 e2 1f be f5 d5 13 bd
       -0.15938301 0.05447113 -0.15613663 -0.036092717
000080 00 64 d1 bc 4c 12 27 3e 7f c3 0a be 7b 12 77 bd
       -0.025560379 0.16315573 -0.13551138 -0.06032036
000090 dd e8 7a bc 28 62 b2 39 fe ba 85 bb 77 39 55 be
       -0.015314308 0.00034023938 -0.004081129 -0.20822702
0000a0 c0 b1 28 be 53 61 44 bc 05 de 91 bd d1 be 20 be
       -0.16474056 -0.0119860945 -0.07122425 -0.1569779
0000b0 58 6d ac bd d2 6d bc bc 23 9c f6 3d 5a b4 9d be
       -0.08419293 -0.023001585 0.120414995 -0.3080166
0000c0 35 45 9c bc 49 71 48 bd b8 d3 05 be a2 3e 18 be
       -0.01907597 -0.048936162 -0.13069046 -0.14867643
0000d0 c4 dd 0e 3c fb be 12 be b1 34 ab bd 74 f0 b1 bb
       0.008719865 -0.14330666 -0.083596595 -0.0054302756
0000e0 f7 d0 5d bc 15 ff 6e 3e 53 ef 14 3e f9 00 78 bd
       -0.013538591 0.23339494 0.1454442 -0.060547803
0000f0 ea ff 86 bd 1b 90 99 3d 6c a1 c7 bd 36 e9 7d be
       -0.065917805 0.07498189 -0.09747586 -0.24795994
000100 0e 73 9a bd 99 71 a2 3d 05 b3 8d bd 45 50 a4 bd
       -0.07541476 0.07931823 -0.06918911 -0.08023123
000110 dd c3 14 3e fa fa 77 be a1 6b b5 3d 8a be 8b 3d
       0.14527841 -0.24216834 0.08858419 0.06823452
000120 4f 07 66 be 5c 2b 23 bd 7e ad 5e 3d 5a 62 1b bc
       -0.22463726 -0.039836273 0.054364674 -0.009483898
000130 75 fd 22 bd cf c1 7d 3b 19 3c 74 3d 18 ae 86 3e
       -0.039792497 0.0038720255 0.059627626 0.26304698
000140 2a 49 57 3c 0b 5a f0 bd a8 d7 00 3e df 36 c2 bd
       0.013140002 -0.11735924 0.12582266 -0.09483122
000150 a2 22 30 be 5a 58 30 3e b8 3f 91 bd 59 72 13 3e
       -0.17200711 0.17221203 -0.070922315 0.14399089
000160 3d c7 20 be 5c 3c 79 be b5 be 0b 3d 4b 48 91 3d
       -0.15701003 -0.24339432 0.03411742 0.07093867
000170 10 d0 69 bd c0 2e e6 3d f9 c5 97 3b 38 f5 8d bc
       -0.05708319 0.112393856 0.0046317545 -0.017328843
000180 e7 98 4f be 92 93 6a 3d 6a 04 d7 3d 74 f4 28 3b
       -0.20273171 0.05726964 0.10498889 0.002578047
000190 ad 8d 0f bb 81 66 58 3d bc c2 35 3e 39 a0 8a 3c
       -0.0021904514 0.05283213 0.17750067 0.016922103
0001a0 7f be 93 bd d4 67 19 be c9 f3 d9 3d 90 1c 7c be
       -0.072140686 -0.14981014 0.106422015 -0.2462027
0001b0 13 2d 1a be 5a ea 9c 3d 7d 54 96 3c 4d 0a cd bd
       -0.15056257 0.076618865 0.018350834 -0.1001173
0001c0 72 6a 06 3d 5c 8e 22 3e 68 ad 70 3d 91 5c 93 3c
       0.032816358 0.15874618 0.058759123 0.017988475
0001d0 2b ef c3 3d c4 72 fe bd d8 c5 d8 3c 1f 82 b3 3d
       0.09567102 -0.124242336 0.026461527 0.08765053
0001e0 35 e4 db bd 37 a8 b4 bd 80 03 8d bd a5 42 1f 3e
       -0.107368864 -0.08821147 -0.06885433 0.15552767
0001f0 cc 4a 1d 3e d4 29 2b 3e 07 fc c5 bd 91 aa a5 3d
       0.15360564 0.16715175 -0.09667211 0.080891736
000200 99 9d 3f 3c 44 56 94 bd 93 9f 2d be 40 82 b1 3d
       0.011695289 -0.07243016 -0.16955404 0.08667421
000210 24 a4 20 3e f4 a3 10 bd 78 41 b6 bd 0f dd 87 bd
       0.15687615 -0.035312608 -0.08899206 -0.066339605
000220 26 33 20 3e d4 7c ce 3d 00 ab 9b 3d ae b8 65 3e
       0.15644512 0.10082403 0.07600975 0.22433731
000230 2c bb 20 bd 6d 18 90 3d 59 7b f4 3d f7 6c 45 3e
       -0.039241 0.07035909 0.11937589 0.19279848
000240 24 c9 8c be 31 11 63 3d 0a 32 76 3d 5d 7a fc bd
       -0.27497208 0.055436317 0.060106315 -0.123280264
000250 1b 4e c8 bc e3 ce 30 3e ae 7d cb bd cb 9a 12 3e
       -0.024451306 0.17266421 -0.09936081 0.14316861
000260 90 57 90 bd 22 25 0d bd 34 a6 f5 bd 47 b2 e2 3d
       -0.07047951 -0.03445924 -0.11994591 0.1106916
000270 9f bd 53 3d d7 89 33 bd b9 5a 70 3d 0d 9f 9e 3d
       0.05169451 -0.043832626 0.05868027 0.0774518
000280 a1 97 f6 3d 95 c5 b8 bd d3 7d a7 3d 95 db 47 3e
       0.1204064 -0.09022061 0.08178296 0.19517358
000290 7b dd 53 3d cc 7d 04 bd 66 a5 bf 3d fb 68 eb 3c
       0.051724892 -0.03234653 0.09357719 0.028736582
0002a0 b2 86 93 3d 43 69 0d 3e cc c0 41 3e 72 eb 2c 3e
       0.072034255 0.13809685 0.18921202 0.1688669
0002b0 bc 3f 65 3d 2c ce f5 bd b9 09 21 be 00 b5 12 bd
       0.055968985 -0.12002215 -0.15726365 -0.035817146
0002c0 ad a9 83 3d ca 63 0f 3e af 4d 58 be d8 34 c5 bc
       0.064288475 0.1400291 -0.21123384 -0.02407305
0002d0 0a 50 fa bd 3e 04 57 be 13 1a 2d be 8b 23 57 bd
       -0.122222975 -0.20997712 -0.16904478 -0.05252413
0002e0 62 b8 03 be 3e d1 5f 3e 51 6a fd bd 82 15 cf 3d
       -0.12863305 0.21857163 -0.12373794 0.10111524
0002f0 a2 a2 b6 3d f2 e0 8d bd 7a d3 87 b9 70 96 30 be
       0.089177385 -0.069276705 -0.0002590677 -0.17244887
000300 61 e3 72 3e 4d 23 fd 3d c3 f7 34 3c f0 1a ff 3d
       0.2371955 0.12360249 0.011045399 0.1245631
000310 1a 3a b2 3d 98 03 38 3e 70 09 21 bd a1 b2 f7 3d
       0.08702488 0.17970121 -0.03931564 0.12094618
000320 7b d8 8a 3d 6c d6 ac 3d 22 19 19 be 06 73 a0 3d
       0.067795716 0.08439335 -0.14950994 0.07834439
000330 91 81 0a 3e 40 15 93 bd 7c 39 69 3c f8 2b 88 3d
       0.13525988 -0.071817875 0.014234897 0.066490114
000340 c6 f3 38 bc 5e 45 8a bb 54 b9 3f 3e f8 1a 2e 3e
       -0.011288589 -0.004219695 0.18723041 0.17002475
000350 7e 17 b4 3d 56 52 bb 3d 67 39 05 3e 75 e3 47 be
       0.08793543 0.09146564 0.13010179 -0.19520362
000360 d7 6d 64 be 58 70 0a 3c 82 ed ab bd 8d 45 a1 3d
       -0.22307526 0.008449636 -0.083949104 0.07874594
000370 ca 99 25 3d bf cf 25 3d e8 da 3d 3d 03 a9 13 3e
       0.040429868 0.040481325 0.046351343 0.14419942
000380 7d 8d 6c bb 90 c2 de bc 65 f3 0d be b6 cf fc bd
       -0.0036095076 -0.027192384 -0.13862379 -0.12344305
000390 98 76 b0 bc 1a 59 38 3d 4d 55 56 3d 02 b0 43 3e
       -0.021540925 0.04500685 0.052327443 0.1911011
0003a0 32 77 ec 3d 1a a8 24 3e a8 60 79 3e db 79 9a bd
       0.11546172 0.1607975 0.24353278 -0.07542773
0003b0 5a 9a 38 3e cc 81 a2 3d ce 12 a5 3d 1d d9 eb bd
       0.1802763 0.07934913 0.08060227 -0.115160204
0003c0 e3 ff 4f 3e fb 41 e7 bd af c1 c6 3d 52 ed d6 bd
       0.20312457 -0.11291882 0.09704911 -0.10494484
0003d0 b2 92 55 3e 21 a1 9e bc dc e3 f0 3d 5a 95 13 bc
       0.20856741 -0.019363942 0.11762211 -0.009007776
0003e0 38 c2 d5 bd 5e d9 76 3d 7c a4 5f 3d 01 8e 44 3d
       -0.10437435 0.06026589 0.054600224 0.047986988
0003f0 be da 95 bd 0b e2 8b bd 75 fd ab 3d 7a 76 be 3d
       -0.073171124 -0.06830224 0.083979525 0.09299941

model.0.bias f4 [64]
000000 82 ea 0b bd 21 b7 25 be 00 0d d8 3c 96 ab 21 be
       -0.03415919 -0.1618314 0.026373386 -0.15788111
000010 07 99 67 3c 25 12 c3 3c 38 4e 61 3d 4e 0c bb 3c
       0.014135606 0.023812363 0.055006236 0.022833016
000020 33 6a cf bd 59 52 89 bd dd 78 30 be 12 2c e3 b9
       -0.10127678 -0.0670516 -0.17233606 -0.0004332965
000030 f9 17 2a bc 23 25 1f be 7f c1 7f 3d dc 19 0a 3e
       -0.010381692 -0.1554151 0.06244039 0.13486427
000040 99 55 29 3e 3d be 34 3e 02 f8 47 bc 47 64 f6 bd
       0.16536559 0.17650695 -0.012205126 -0.12030845
000050 ed 99 f2 bd 11 66 47 3d 3e b2 9f bd 29 27 7c 3c
       -0.11845765 0.048681322 -0.07797669 0.015390196
000060 58 14 2a be b1 06 11 3d c8 3f b3 bc 20 d5 ec bd
       -0.16609323 0.035406772 -0.021881 -0.11564088
000070 b8 a3 b7 bc de dd 43 bd fa e2 d3 3c 17 4d 32 be
       -0.022416934 -0.04781901 0.025865067 -0.1741222
000080 2e 1f d7 ba ff 7d 17 3e 42 09 87 bd 50 64 97 bd
       -0.001641249 0.14794157 -0.06593563 -0.0739218
000090 eb df d0 bc de a6 d3 bb c9 f0 07 be db 3f 13 be
       -0.025497397 -0.006459101 -0.13275446 -0.14379828
0000a0 9d 9e 0a 3e 0f 5a 2d be 6f 15 6d bd 8e 4a 6c bd
       0.13537069 -0.16928886 -0.05788177 -0.05768829
0000b0 59 14 0d 3d 2b 4b bb 3d d3 be cb bd 8d f4 d0 3c
       0.034443233 0.091451965 -0.09948506 0.025507236
0000c0 f1 20 dd bd d9 76 a7 bd 41 0d 51 bd d9 57 aa bd
       -0.10797299 -0.08176965 -0.05103803 -0.08317537
0000d0 de d7 e2 3c 78 3e d2 3d 4a 86 50 bd 84 f5 f7 3d
       0.027690824 0.10265821 -0.050909318 0.12107375
0000e0 51 8a 48 bd 96 df 00 3e ba 56 05 3e 70 19 fe 3d
       -0.048960034 0.12585291 0.13021365 0.124071956
0000f0 a1 85 23 be 38 52 25 3e 50 5e 8a bc 34 10 dc bd
       -0.15968944 0.16144645 -0.016890675 -0.10745278

model.1.weight f4 [64]
000000 53 93 70 3f 54 21 74 3f d4 ce 7f 3f 3c bf 84 3f
       0.939748 0.95363355 0.9992497 1.037086
000010 cc 68 79 3f 32 1c 7b 3f 41 08 77 3f 58 b5 7c 3f
       0.9742553 0.980899 0.9649697 0.9871421
000020 51 11 5d 3f c7 97 84 3f 43 e2 80 3f 09 1a 71 3f
       0.8635455 1.0358819 1.006905 0.9418035
000030 c1 a6 82 3f eb 8b 84 3f a6 3e 83 3f ac 80 80 3f
       1.0207139 1.03552 1.0253494 1.0039268
000040 49 b2 8f 3f 18 26 83 3f 53 16 7d 3f 05 88 6b 3f
       1.1226283 1.0246 0.9886219 0.92004424
000050 ea 1e 6b 3f 5f a1 88 3f 79 6d 7d 3f e9 fd 81 3f
       0.91844046 1.0674247 0.98995167 1.0155612
000060 55 a7 77 3f 94 03 6f 3f 7e b9 59 3f 87 d0 75 3f
       0.96739703 0.93364835 0.85048664 0.9602131
000070 7f 20 7b 3f 3a 4d 87 3f 44 b8 89 3f ef 51 6d 3f
       0.9809646 1.0570443 1.0759358 0.92703146
000080 97 73 75 3f c7 6a 8c 3f 03 cc 7a 3f e2 9e 7e 3f
       0.958795 1.0970086 0.9796755 0.99461186
000090 48 1c 75 3f 6b 64 8a 3f 14 1e 86 3f f7 49 6b 3f
       0.9574628 1.0811895 1.0477929 0.91909736
0000a0 67 b3 75 3f b8 03 75 3f c5 63 86 3f b9 a9 88 3f
       0.9597687 0.957088 1.0499197 1.0676795
0000b0 c3 eb 89 3f 6c e6 8b 3f 91 b4 6e 3f 78 66 7e 3f
       1.0775074 1.0929694 0.9324427 0.99375105
0000c0 6b 65 6d 3f b5 07 80 3f 9b b4 75 3f c3 e4 76 3f
       0.92732877 1.0002352 0.9597871 0.9644281
0000d0 a4 f0 81 3f 82 35 87 3f 31 04 75 3f 03 a7 83 3f
       1.0151563 1.0563204 0.9570952 1.0285343
0000e0 28 e2 7d 3f c6 8c 83 3f 97 d5 8b 3f cf 12 83 3f
       0.9917321 1.0277336 1.0924557 1.0240115
0000f0 59 66 84 3f 19 23 8f 3f 11 9e 89 3f 78 64 76 3f
       1.0343734 1.1182586 1.0751363 0.96247053

model.1.bias f4 [64]
000000 74 af 51 bd e7 41 79 bd 1d e6 60 bd 61 7e 4a 3d
       -0.051192716 -0.060853865 -0.054906953 0.04943693
000010 38 94 8a 3c f6 66 1e 3c f9 5e 18 bd bb 4b c1 bd
       0.01691638 0.0096681025 -0.037199948 -0.094382726
000020 53 7b 68 be d2 b8 87 bc 06 81 2e 3d 1a 27 d8 bd
       -0.22703294 -0.016567621 0.042603515 -0.10554333
000030 6d 30 dc 3d 22 22 d5 bd 05 70 dd bc 26 b2 b7 bd
       0.10751424 -0.10406901 -0.027030954 -0.08969526
000040 63 ac fa bc 5b 71 95 bc e1 22 b2 bd f4 f4 2f bd
       -0.030599779 -0.018242529 -0.08698059 -0.042958215
000050 06 e8 0a bb d2 0a a9 3d c8 4a 03 bd bb f1 35 be
       -0.0021195426 0.08254017 -0.03205374 -0.17767994
000060 bb 6e 3f bd 7b f4 91 bd e0 ce 1c be 84 e4 9a be
       -0.04673646 -0.07126709 -0.15313292 -0.3025247
000070 35 c5 0e be 0e 67 40 bb f5 bc 61 bd a3 4f 1a bc
       -0.13942416 -0.00293583 -0.055111844 -0.009418401
000080 7e b9 e4 bc ce 3e b8 3d 56 69 73 be 1e 7a ad bd
       -0.02792048 0.08996354 -0.23770651 -0.08470558
000090 3c 7f 90 ba c0 57 64 3c 90 a6 0c bd c9 43 83 bd
       -0.0011024247 0.013936937 -0.034338534 -0.06409413
0000a0 55 3d 40 be f8 2c 8b bd c8 0d 5b bd 4e a9 b8 bd
       -0.18773396 -0.067956865 -0.05347994 -0.09016667
0000b0 c8 bc 04 bd f1 d3 d2 3d 7c 74 0d bd c1 79 13 be
       -0.0324066 0.10294331 -0.034534916 -0.14401914
0000c0 c0 55 5a be fd 82 50 bd e2 7b aa bd da b7 77 bd
       -0.21321774 -0.05090617 -0.0832441 -0.06047807
0000d0 6c 74 2a 3c fd 6a 03 3d 2b 59 ae bd 52 00 36 bd
       0.010403734 0.032084454 -0.08513101 -0.0444339
0000e0 31 71 18 be 95 45 c9 3c ef fe 11 be ae a2 9c bd
       -0.14886929 0.024569312 -0.14257406 -0.07648216
0000f0 b0 17 a0 3d c2 b0 94 3b 99 25 72 3d d7 83 0d bb
       0.07817018 0.0045376727 0.059117887 -0.0021593475

model.1.running_mean f4 [64]
000000 5d 91 4f bc ae f2 46 be 77 2e 79 3d d5 5a 27 be
       -0.012668935 -0.19428512 0.060835328 -0.16343243
000010 1a 6f d8 3c d2 fc 81 bb 32 6b 81 3d 21 98 d2 3c
       0.026420165 -0.003966906 0.06319274 0.025707306
000020 cb 3d b0 bd 16 4b 70 bd f0 d3 07 be 8d 6c 58 3b
       -0.08605536 -0.058665358 -0.13264441 0.0033023686
000030 a4 37 8a bc 85 7a 33 be ec cf a3 3d ad 4d 44 3e
       -0.016872235 -0.17527206 0.07998642 0.19170256
000040 f9 7e 2d 3e 2f 57 20 3e 2c b8 f0 bc 5b 58 00 be
       0.16942967 0.15658258 -0.029384695 -0.12533705
000050 10 a1 02 be ba d0 29 3d 36 29 3a bd 82 03 cb 3c
       -0.12756753 0.041458823 -0.045449458 0.024781946
000060 45 fb 24 be 27 11 1c 3c 57 9b 9f ba 72 b3 0a be
       -0.16111477 0.009525574 -0.0012177032 -0.13545015
000070 0d ab 83 3b 35 d0 89 3b be 70 6b 3c 0f 38 33 be
       0.0040181936 0.0042057284 0.014370142 -0.17501853
000080 45 0d c1 bb 80 53 f2 3d 56 09 a3 bd cc f5 95 bd
       -0.0058914744 0.118323326 -0.07960765 -0.07322273
000090 33 8d 0f 3a bf 5e 20 bb 95 b5 00 be a5 ab 04 be
       0.00054760574 -0.0024470536 -0.12569268 -0.12956102
0000a0 49 1a 28 3e 97 7a 2d be 98 c4 00 bd e7 f0 88 bd
       0.16416277 -0.16941296 -0.031437486 -0.066865735
0000b0 f0 b9 4b 3d 2e 80 5c 3d 0a 51 e4 bd 3f 0f 7d 3c
       0.04973787 0.05383318 -0.111482695 0.0154455295
0000c0 d4 9b ab bd 30 3a 87 bd 32 59 9c bd f4 eb 91 bd
       -0.08379331 -0.06602895 -0.076342 -0.071250826
0000d0 8f 6a 33 3d 2c af a7 3d 15 09 7b bd aa 3a ee 3d
       0.043802794 0.08187708 -0.06128796 0.11632283
0000e0 a8 43 44 bd 65 67 d3 3d 2d d6 f4 3d 1b 4e 27 3e
       -0.047916085 0.10322455 0.11954913 0.16338389
0000f0 67 01 31 be 4a c5 32 3e fe 35 57 bc 4e a9 f7 bd
       -0.17285691 0.17458072 -0.013135431 -0.12092839

model.1.running_var f4 [64]
000000 2d d4 be 3e d4 c9 58 3f 7c ee 5d 3e 5b 61 0c 3f
       0.37271252 0.84682965 0.21673006 0.5483605
000010 7f 85 74 3f 80 ee de 3e dd 7c 5d 3f f3 a4 1a 3f
       0.955162 0.43541336 0.8651865 0.6040794
000020 53 b5 d5 3e fa dd d6 3e d4 e3 dc 3e cc 81 4d 3e
       0.41739902 0.4196623 0.4314257 0.20069045
000030 a0 05 17 3f ec de be 3e 78 10 da 3e ab 00 36 3f
       0.5899296 0.3727945 0.4259069 0.7109477
000040 48 4e b3 3e 03 19 5e 3e 4e 4c 0b 3f a5 0e ad 3e
       0.3502066 0.21689229 0.54413307 0.33800235
000050 5c ff 95 3e 57 83 c1 3e c0 d4 d3 3e b9 3a 90 3e
       0.29296386 0.37795517 0.41373253 0.28169802
000060 f5 ab 0d 3f 97 b2 1a 3f e0 de 68 3f 4b 38 0e 3f
       0.5534051 0.60428756 0.9096508 0.55554646
000070 78 5a 44 3f 0b b9 23 3f 3e fa 91 3e 51 bb 7b 3f
       0.76700544 0.6395423 0.28511232 0.983327
000080 a1 6c a1 3e c2 1e a6 3e 62 07 d9 3e 73 44 18 3f
       0.3152819 0.3244534 0.42388445 0.59479445
000090 a0 c9 a8 3e 0b fc 4f 3f 1d a8 06 3f d9 51 ed 3e
       0.32966328 0.8124396 0.5260027 0.46351507
0000a0 e9 f5 de 3e 19 5a 2e 3f 18 34 b2 3e 43 c8 3d 3f
       0.4354699 0.6810623 0.3480537 0.741337
0000b0 01 8c 8b 3e 74 aa 30 3f d9 8d 05 3f 26 42 e8 3e
       0.27255252 0.6901009 0.5216957 0.45362967
0000c0 ec 66 3e 3f 49 15 cb 3e db 25 43 3f 2a 39 69 3f
       0.74375796 0.39664677 0.7622964 0.9110285
0000d0 98 74 4b 3f c1 1f aa 3e 84 ca 71 3f 75 33 ca 3e
       0.7947478 0.3322735 0.9444964 0.39492384
0000e0 d0 18 c1 3e 98 20 cf 3e 37 a1 6c 3e 07 08 84 3e
       0.37714243 0.40454555 0.23108374 0.25787374
0000f0 88 3f 4b 3f 45 66 08 3f 24 d5 61 3f cb 4a 79 3f
       0.79393816 0.5328105 0.8821585 0.9737975

model.4.weight f4 [32, 64]
000000 82 58 28 3c 08 3a 82 be 33 71 4d 3d 8e a4 21 be
       0.010275008 -0.254349 0.050156783 -0.15785429
000010 6f 04 88 bc 3c 91 e2 3d 58 b1 af bd 69 80 7a 3d
       -0.016603677 0.110628575 -0.085787475 0.061157618
000020 1b f9 43 bd c7 8e 5b bd 00 2a 4c bb 22 82 8c 3b
       -0.047844987 -0.05360296 -0.0031152964 0.004287974
000030 34 fb ca bc 26 fb 17 be c8 ef 3a bd 44 18 b8 bc
       -0.024777986 -0.148419 -0.04563883 -0.022472508
000040 49 f8 b7 3d 0e b0 b5 bd 06 8a a3 bd 64 2c f4 bd
       0.089829035 -0.088714704 -0.0798531 -0.11922529
000050 0e 8a ab 3d 8b 79 02 3e 65 0e 14 bc 8f 3a d8 3d
       0.08375941 0.12741677 -0.009036635 0.10558044
000060 3f d9 eb bb f5 a9 c4 3d 63 7d 19 bc c8 cb c1 3c
       -0.0071975286 0.09602729 -0.009368273 0.02365674
000070 62 d9 51 be 51 dd 6d 3d 08 36 a0 bd 79 2c b9 bd
       -0.20493081 0.058072392 -0.07822806 -0.090416856
000080 94 10 0d 3b 0e 71 1b 3d 36 a6 12 bd a8 c0 0f 3d
       0.0021524774 0.037949614 -0.035803042 0.03509584
000090 88 d4 73 3c fb 96 05 3e 57 03 02 be d2 da ab 3d
       0.014882214 0.13045876 -0.12696587 0.08391346
0000a0 e9 df a7 3d ad 32 0c be 10 05 b5 3d 0d 25 52 3d
       0.08197004 -0.13691206 0.08838856 0.051304866
0000b0 38 48 86 bd bd 61 df 3b 9c 40 75 bd f8 33 a6 bc
       -0.065567434 0.0068170712 -0.05987607 -0.020288453
0000c0 7d 89 2e 3e 8f 42 13 3e a8 4f 36 be 63 10 ca bd
       0.17044635 0.14380859 -0.17803824 -0.09866407
0000d0 d9 f1 bf 3c e1 3a 95 be e8 0c fb 3c 49 14 45 3e
       0.023430752 -0.29146484 0.030645803 0.1924602
0000e0 dd 06 1a be a8 cc f5 bd d2 a8 55 be 57 c9 b9 bd
       -0.1504168 -0.12001926 -0.20865181 -0.09071606
0000f0 05 ff 1c 3e f9 7d 91 3d 51 de a1 3d cb 67 bb 3d
       0.15331657 0.071041055 0.079037316 0.09150656
000100 13 76 a2 3d 9e fe bf bd cf 2e aa bd bb d2 1b 3e
       0.07932677 -0.09374736 -0.08309709 0.15217106
000110 2c f9 92 bd 78 78 c1 3d 8d bf 97 3b bc c4 68 bd
       -0.07176432 0.09446806 0.004630989 -0.056828246
000120 36 6a aa 3d b0 9d c1 3d 8e 81 bf bc 1b 0a b6 bd
       0.083210394 0.09453905 -0.023377206 -0.08888646
000130 af 47 0e bd 55 2c 26 bd 13 05 be bd 19 11 e9 3d
       -0.03473633 -0.040569622 -0.092783116 0.11380214
000140 ba f5 89 3d 72 8a 78 3d 98 0f ba 3d 94 f4 cf 3c
       0.06736322 0.060678907 0.090850055 0.025385179
000150 54 27 07 3b f0 54 ae 3d f3 8d 99 3c c5 e3 27 3e
       0.0020622807 0.08512294 0.018744444 0.16395481
000160 aa f7 11 be 2b 35 50 bc 15 81 ab bd 4d a1 30 bd
       -0.14254633 -0.012707989 -0.0837423 -0.04312258
000170 3a 92 b1 bd ec d5 e2 bd 68 1c 0c 3e de ef 97 3d
       -0.08670469 -0.110759586 0.13682711 0.07418798
000180 af a9 0a be b2 02 ac 3c 3e e1 27 3e b2 c0 a9 3d
       -0.13541292 0.020997379 0.16394517 0.08288707
000190 da 07 65 bd 21 0b 70 bc b1 0c c3 3c a3 f4 73 3d
       -0.05591569 -0.014651091 0.023809763 0.059559476
0001a0 d1 fd 0a bd ce e5 bd bd c6 39 30 be 90 37 3a be
       -0.033933464 -0.092723474 -0.17209539 -0.18185258
0001b0 79 03 14 be b7 60 3a 3d c2 f8 2b be 47 11 e2 3d
       -0.1445445 0.04550239 -0.16794112 0.11038452
0001c0 9a 85 8c 3d fc cc f7 3c 13 e2 3e bd 36 87 ab 3d
       0.0686142 0.030249111 -0.04660232 0.08375399
0001d0 d9 39 99 3d 1e da 8f 3d c1 09 d6 bd ef 72 24 be
       0.07481737 0.070240244 -0.10451079 -0.16059469
0001e0 50 7f ad 3d 46 ac 92 bd f2 bb c6 3c 61 ef 4d bd
       0.084715486 -0.07161765 0.024259541 -0.050277118
0001f0 c0 f6 3c bc 31 d6 0b be b4 53 4e 3c d8 ec 34 3e
       -0.011533439 -0.13655926 0.012593199 0.17668474
000200 ab af 84 be 28 88 b1 3c d2 7d 60 be d0 25 92 3d
       -0.25915274 0.02167137 -0.21922997 0.071361184
000210 ff 54 bb 3d 8d 2d d1 3c bb ad 0f bb 13 f2 8f bd
       0.09147071 0.025534416 -0.002192362 -0.07028594
000220 f8 ee d8 bc 43 f6 47 3d 8e f1 db bc 5d 0a 2b 3c
       -0.026481137 0.048818838 -0.02684858 0.0104394825
000230 ed 1b 3f be 42 94 f3 bc 59 d8 e5 bc 22 5d ce bd
       -0.18662997 -0.02973378 -0.028057264 -0.100763574
000240 b3 fe f0 bd 1d c9 4a be 57 64 0f bc 11 5b cd bd
       -0.1176733 -0.19803281 -0.00875195 -0.10027135
000250 f5 23 13 3e 03 49 31 be 6c 8f 9b bd b8 7e 8a bc
       0.14369185 -0.17313008 -0.07595715 -0.016906127
000260 65 f4 b7 bb ee de a4 3b 03 6f 01 be 17 51 c7 bd
       -0.005613851 0.005031458 -0.12640004 -0.097322635
000270 f4 d5 09 3e d4 ee d4 bd db 3a 24 bd 31 3b f0 3d
       0.13460523 -0.10397115 -0.04009519 0.1173004
000280 d4 01 64 bd 39 35 1a 3d 02 bd fc 3d 39 15 9f 3c
       -0.055665806 0.037648413 0.12340738 0.0194193
000290 39 fa ba 3d 2f ca 90 bd 52 d8 5c 3b 71 64 bb 3d
       0.091297574 -0.070698135 0.0033698273 0.09150017
0002a0 ea a4 ec bb 19 d1 27 bd ea 2c a6 bd a0 8c cd b9
       -0.0072218077 -0.040970895 -0.081140354 -0.0003920542
0002b0 13 dd 6a be d3 cd 8c bd ec 1b 8a bd ed f7 4f be
       -0.22935896 -0.06875195 -0.06743607 -0.2030942
0002c0 4a 2f b2 3d f6 a3 02 bc 39 b5 d9 bc 06 58 8f 3c
       0.08700426 -0.007973662 -0.026575672 0.017498028
0002d0 c8 c3 46 be de 6a 1f 3d 4e 1e fb 3c b6 bb 1a be
       -0.19410622 0.038920276 0.030654099 -0.15110669
0002e0 65 ef 00 be 55 df ad bd b3 5d bf 3d 0a 57 04 be
       -0.12591322 -0.08489863 0.093440436 -0.12923828
0002f0 85 62 55 bc 47 a6 d3 bd 8a e9 eb bd f6 93 12 bd
       -0.013023977 -0.10334449 -0.115191534 -0.035785638
000300 93 2b e5 bc 87 f5 77 bd 17 af 9f bd 19 cc 27 3d
       -0.02797488 -0.060536887 -0.077970676 0.040966127
000310 21 5e 36 bd 7f f3 06 be 76 79 b6 3d 8b 16 0e 3e
       -0.044523362 -0.13178824 0.089098856 0.13875787
000320 ee 35 9c 3b a1 1a f5 3d 2a ab bf 3d 12 18 0a 3d
       0.004767171 0.1196797 0.09358819 0.03371436
000330 69 c1 3b be 15 7a 21 bb ac d6 f8 bd a1 1a f4 bd
       -0.18335499 -0.0024639417 -0.121503204 -0.119191416
000340 3d ee 85 bd 7c 44 90 3c a0 e1 4f be f4 0f 9f 3d
       -0.06539581 0.01761078 -0.20300913 0.07766715
000350 85 a2 11 3d 02 0a 6e bd ad b2 ae bd 18 6d c7 3d
       0.03555538 -0.058115013 -0.085301735 0.09737605
000360 6a b3 9f 3d 54 a0 69 3d 3c 18 82 3d 93 2f 28 3b
       0.077978924 0.057037666 0.063522786 0.0025663122
000370 6d 9e 55 be a4 93 f6 3b d4 7f 88 3d 60 c6 0c 3e
       -0.20861216 0.0075249244 0.06665006 0.13747549
000380 a4 24 5d 3c 0b ea 39 be 12 4f a9 bb c1 6b c6 3c
       0.013497505 -0.18155687 -0.0051668966 0.024221303
000390 75 bd 80 be 94 6f 84 bc b5 40 06 bd 93 7b af bd
       -0.25144544 -0.016166486 -0.032776553 -0.08568492
0003a0 44 08 87 be 70 e1 35 bd b4 67 b9 3c 71 44 e3 bd
       -0.26373494 -0.044404447 0.022632457 -0.110970385
0003b0 d4 62 95 bd 57 bd 3c 3d e7 9a 3e 3e 70 f6 7f bd
       -0.072942406 0.046079006 0.18613778 -0.06249088
0003c0 f2 70 75 be f5 70 61 3d 36 c3 0a bd 8b 51 7e bd
       -0.23968866 0.055039365 -0.033877574 -0.062089484
0003d0 39 ff 5a be c2 6a 84 bd 46 64 ee 3c 59 c9 27 bd
       -0.21386422 -0.06465675 0.029100548 -0.040963504
0003e0 db 37 e1 bc 35 3b de bb 90 56 37 bd 68 bc 03 bd
       -0.027492454 -0.0067819604 -0.044760287 -0.0321621
0003f0 55 dd 52 be b2 ed f3 bd ed 75 92 3c e6 cf ba bb
       -0.20592244 -0.11910571 0.017878497 -0.005701053

model.4.bias f4 [32]
000000 af 96 3f 3d 6c 9d 00 3e 7d 01 7f bd 47 ce b2 bd
       0.046774562 0.12560052 -0.06225728 -0.087307505
000010 a4 f1 b0 bd ce de 8f 3d d7 c3 89 bc fb ad f3 bd
       -0.08639839 0.070249185 -0.016817017 -0.118984185
000020 5d 84 4e 3d f1 d8 4b 3d b6 72 90 3c aa 44 86 bd
       0.0504192 0.04976744 0.017632823 -0.065560654
000030 31 a7 ca bd 2f 63 bf bd ff 32 a3 bd d1 04 99 3a
       -0.098951705 -0.0934509 -0.07968711 0.0011674409
000040 f3 91 00 be 3c de 86 3d 44 f0 a6 bb f0 0f 77 bd
       -0.12555675 0.065853566 -0.00509456 -0.060317934
000050 41 d5 2d bd ba 6e 41 3d 0f 21 00 3e 65 56 e2 3d
       -0.042439703 0.047224738 0.12512611 0.11051635
000060 13 52 69 3b 8b 70 e5 3d d2 22 d6 3d 34 78 de 3d
       0.0035601899 0.112031065 0.1045586 0.10862771
000070 c7 02 a6 bc 30 bc 43 3d 25 2c 19 bd 24 c2 39 bd
       -0.020264996 0.04778689 -0.037395615 -0.045351163

model.5.weight f4 [32]
000000 c7 99 4e 3f e3 2f 60 3f 31 e1 59 3f 21 c5 67 3f
       0.80703396 0.8757307 0.8510924 0.9053517
000010 9d a4 5e 3f 87 6e 6a 3f 2d c2 5e 3f fd 4e 62 3f
       0.8696993 0.915749 0.8701504 0.88401777
000020 ec 85 55 3f 72 52 54 3f 85 b8 59 3f b4 b5 55 3f
       0.83407474 0.829383 0.8504718 0.8348038
000030 87 68 6b 3f 8b 48 59 3f cb dd 60 3f 35 60 3e 3f
       0.9195637 0.84876317 0.8783843 0.7436555
000040 94 f0 5d 3f 16 1c 49 3f 71 e2 62 3f 32 c0 5d 3f
       0.8669522 0.7855848 0.8862677 0.8662139
000050 2e 5a 62 3f e2 4c 54 3f 56 20 52 3f 28 8c 67 3f
       0.88418853 0.82929814 0.8208059 0.90448236
000060 00 43 5e 3f f9 c5 5f 3f 13 24 60 3f 9c 98 4a 3f
       0.86820984 0.8741146 0.87555045 0.79139113
000070 18 50 65 3f a2 ab 55 3f 08 84 39 3f a1 ff 5f 3f
       0.8957534 0.83465016 0.7246709 0.87499434

model.5.bias f4 [32]
000000 c8 2f 96 bd c5 ff 9f bd 1c 4e 28 be 6c 32 cc bd
       -0.07333332 -0.07812456 -0.16436046 -0.09970555
000010 3b 78 e5 bd 28 08 18 be 7e a9 ca bd d4 75 9f bd
       -0.11204573 -0.14846861 -0.09895609 -0.07786146
000020 34 cc f8 bd c9 a2 0e be cc c4 3a be d2 ea 21 be
       -0.12148324 -0.13929285 -0.18239135 -0.15812233
000030 59 dd 02 be 90 bd 2a be dc 16 b6 bd c4 4b 8f be
       -0.1277975 -0.16673875 -0.08891079 -0.27987492
000040 d6 e0 2c be 58 63 e9 bd 23 b0 27 bd ae 74 bb bd
       -0.16882643 -0.113959014 -0.04093946 -0.09153114
000050 5f 92 10 be 63 7c 45 be 7d e1 2d be eb d6 07 bd
       -0.14118336 -0.19285731 -0.16980548 -0.033163946
000060 5f 6a 0c be 4d 57 a3 bd 55 ed a5 bd c8 ab 07 be
       -0.13712452 -0.07975636 -0.08101908 -0.13249123
000070 e3 1f c9 bd f5 dd cb bd dd b7 7f be f5 aa 2a be
       -0.09820535 -0.09954444 -0.24972482 -0.16666777

model.5.running_mean f4 [32]
000000 64 25 7a be ad 0d 99 3d 50 42 8b bf 74 4a 63 bf
       -0.24428326 0.074733116 -1.0879612 -0.8878548
000010 52 1c 4b bf 50 89 78 bf a7 71 a7 be 1c b9 6a bf
       -0.7934009 -0.9708452 -0.32703897 -0.91688704
000020 69 f8 5f be dc 9d 74 bd b9 3a 5e bf d3 a2 0c bf
       -0.21872105 -0.05972086 -0.86808354 -0.5493595
000030 43 b5 69 bf df 4e 17 bf c5 a4 80 bf 9b e5 cc 3e
       -0.9129221 -0.5910472 -1.0050284 0.40018925
000040 e2 2e e4 be 89 27 a4 be 7e 55 09 bf 86 44 b1 be
       -0.4456702 -0.32061413 -0.53646076 -0.34622592
000050 be 4e 90 bf d2 20 7e 3d 00 10 eb bd 15 9b 33 bf
       -1.127403 0.06204302 -0.11477661 -0.7015851
000060 5e ff d7 be 35 be 89 3d c0 ac f2 be 1e ca b6 3e
       -0.42187017 0.06725732 -0.47397423 0.35701078
000070 d4 8d 1e bf 5a 6f 01 bf 48 04 6b be 52 9f 96 be
       -0.6193516 -0.50560534 -0.22950852 -0.29418427

model.5.running_var f4 [32]
000000 e9 84 79 3f c6 15 04 3f 86 1b 56 3f 04 41 22 3f
       0.9746843 0.51595724 0.8363575 0.63380456
000010 96 dd 4e 3f 15 dd 08 3f 8c 2f 0f 3f ab 05 6c 3f
       0.80806863 0.53462344 0.55931926 0.9219615
000020 5a 02 f2 3e 2f 5b ee 3e 63 e0 85 3f d5 16 bf 3e
       0.4726742 0.46553943 1.0459102 0.37322107
000030 1a 5a 40 3f fc 4b e3 3e 64 50 87 3f 48 ab da 3e
       0.75137484 0.4439391 1.0571408 0.42708802
000040 31 e2 1e 3f 6e d8 93 3e a5 12 70 3f 7b 92 5a 3f
       0.6206389 0.2887606 0.9377845 0.8537976
000050 23 e4 0c 40 42 23 94 3e 1c 40 b7 3e f7 81 93 3f
       2.2014244 0.2893315 0.357911 1.1524037
000060 c7 3a 0c 3f 3b d0 37 3f ae f3 20 3f cc ac c1 3e
       0.5477719 0.7180211 0.62871826 0.37827146
000070 63 ec 55 3f 21 c5 51 3f d3 5c b5 3e 82 f6 2a 3f
       0.8356382 0.8194142 0.35422382 0.6678239

model.8.weight f4 [2, 32]
000000 90 15 d3 3c 8e 99 8d 3c 0a 25 46 bd fa 0f d8 3d
       0.025767118 0.017285135 -0.048375167 0.10549922
000010 ae b1 5c bd fb ee a4 ba 05 e2 94 3b c3 51 af bc
       -0.053880386 -0.0012583429 0.004543545 -0.021401292
000020 15 36 b7 bd eb 9e 55 3d 8c 69 98 bd 5e b3 08 3d
       -0.08945862 0.05215351 -0.074420065 0.033374183
000030 e1 8e c0 bd 89 5b 6f bd 09 96 68 bc 79 1b 98 bd
       -0.09402252 -0.058436904 -0.014195927 -0.07427115
000040 85 c4 73 bd 4b 25 e4 bb a6 41 34 3d c0 29 b9 3d
       -0.059513588 -0.0069624535 0.04400792 0.09041166
000050 dc dc d6 bd f3 b2 b2 bd 6a 23 3f 3d 16 41 71 bd
       -0.10491344 -0.08725538 0.046664633 -0.05889996
000060 8c 7c bc 3c 9b d4 e8 bd d1 7c f3 bd af 02 18 bd
       0.023008607 -0.11368676 -0.11889041 -0.037111934
000070 c7 b4 03 be 50 85 04 be 46 41 6f 3c 2a 86 e8 3d
       -0.1286193 -0.1294148 0.014602965 0.11353715
000080 b6 20 00 bd ba 2e 93 3d a0 ce fb 3c d7 5c 43 3e
       -0.031281196 0.07186647 0.030738175 0.19078384
000090 1e c6 24 ba de c7 db 3d 47 5d 2a bd 18 e7 14 3d
       -0.0006285625 0.10731481 -0.041592862 0.0363532
0000a0 0d d3 51 bd 28 c8 e2 3c 04 8a fe bc 48 19 ed bc
       -0.051226664 0.027683333 -0.03107167 -0.02894272
0000b0 01 75 cf bc fb 46 06 39 44 68 11 3d ab 8d f9 bd
       -0.025324346 0.00012805678 0.035499826 -0.12185224
0000c0 b8 f0 d3 bd da bb 43 bd 60 fd ae 3d dc 2d 0a 3e
       -0.10348648 -0.04778657 0.08544421 0.13494056
0000d0 80 fd 79 bd 54 bf cc bd 6e de 5f 3c 0c 01 59 ba
       -0.061032772 -0.099974304 0.013663871 -0.0008278049
0000e0 65 b3 32 bd 57 58 6d bd ef 7f c2 bd 51 40 11 bc
       -0.043628115 -0.057945576 -0.09497058 -0.008865432
0000f0 91 25 80 bd b4 db 43 be d0 44 a1 3c 1f 8b 81 3d
       -0.06257165 -0.19126779 0.019686133 0.06325363

model.8.bias f4 [2]
000000 af c5 39 3d 23 9c 31 3d
       0.04535454 0.043361794
