src/modelDevelopment/training/model_files/deep_mlp_model_diff.pt (torch, 24635 bytes, 14 tensors)

model.0.weight f4 [64, 32]
00000000: f9c3 79bd 4e6b 023e 53fa 913c f340 c53d
00000010: 6826 98bd 20ce 3bbb 83d7 0abe 0264 d5bd
00000020: 4d2c 523e 3cac 5dbe ad6c 4c3c 2bfb 0a3e
00000030: 6a64 3bbd f4d6 253e c43d 89be b77b af3d
00000040: 770c 443d 77f0 883d 6b3b 9cbd 3df5 7a3d
00000050: 8fb2 d93d ff24 ef3c ec70 df3d 23b0 783d
00000060: 9c1d c83d d583 553d 8a68 c13d 0737 03be
00000070: f01f 9f3d 6dbd e4bd 1a65 743d e948 4dbe
00000080: 9114 263e 4b4d d8bd 80af 48bd 8efb 283d
00000090: 72ca 7bbe ec32 673e e261 3bbe cd53 f3bd
000000a0: 248f e6bd de00 4dbe ee97 06bc 187c 91bd
000000b0: 673d 243d d299 03be f1d3 59bd 0c25 0e3e
000000c0: d81c 7f3d fac8 2b3e 0855 aa3d 54b6 a9bd
000000d0: cfdf e43b e036 443d 404d 4d3e 0947 07be
000000e0: e4ec 1cbe 431e 543c 0db9 1b3e e614 023e
000000f0: 35eb 8a3d c67a de3d 0e80 16be b3cf 41be
00000100: d04b ef3d 9c88 37be b745 00be 0f4f 46be
00000110: 6b3f 1f3e b259 a73c dd05 8d3c 473f bb3d
00000120: a77c 2a3d 868e 84bd 1058 3abe 6e9c 3b3e
00000130: 05ee 4dbe 68ca 3ebe 7ffd d93c 2960 1a3e
00000140: 38e5 f6bd e798 52bc 612a 32be bdb9 0c3e
00000150: 97df a73d bc9e 39bc 5fed 5c3c 5b46 003e
00000160: 43ad 453e 02cb 09be 1dfb 6f3d b00c 6c3d
00000170: 18b3 74be ed42 90bd bc15 4b3e 0c5b 9dbd
00000180: 4bc4 1dbe 0488 22be 713c 82be 8ebe f2bd
00000190: ca8c f93d 89e5 40be c0e1 83bd 19f1 043e
000001a0: f2cf 0abe f447 69bc c5ad 683e e0ac af3a
000001b0: 3070 493e d036 09be 7f5a 11bc 7cb4 403d
000001c0: 5f53 a3bd b024 353e 9a6c bd3d 2bc7 2e3d
000001d0: bbf3 17be 543a 52bd 6290 48be 2e2d a2bd
000001e0: 14df a2bd 68d8 1f3d 19a8 1b3c 70b2 e5bd
000001f0: 67a5 763e 6d3a c13d 602b 27bd 0de8 a23d
00000200: dc9d 82bc aa6b 823e fbd0 f8ba b487 0c3e
00000210: e9fe 9fbd 6d70 a03d f35a 293e 549a bf3d
00000220: 74cf c03d 5a52 11be 8040 8b3c 4767 8bbd
00000230: 948f ad3c 8864 a03c 4ea7 2bbe 3a67 143e
00000240: 1c86 78bc 1abb 673e 4e0d 50bd 5e22 b53d
00000250: ea5a 2c3d 6b07 c63d be68 833e 7ee1 053d
00000260: 2849 26be 2cc8 753d 991d 193e d210 33be
00000270: 98ce 2cbe a743 6ebe 0810 d3bc 2bf1 c83d
00000280: 0bff bcbd 441b 4ebd f75a 3bbe 25ad a5bd
00000290: 45ff 19bd 331b 1abe 1727 583e 4e59 2cbe
000002a0: f0eb b13d 1bb6 22be 136c d0bb fe47 553e
000002b0: 7166 35bd f629 a1bd eb91 89bd c7c8 743e
000002c0: 83cb 57bd 8404 7c3d 690b 0b3e e17e 16be
000002d0: df32 b0bd 344d 483e 1ac6 8bbd 7902 25bd
000002e0: 72cc 10be 9cfe 04bd 9b77 64bc e52e 9b3b
000002f0: 0fd9 adbd 1b3c 25be a3e2 a43c a547 353d
00000300: 4d24 3a3d b129 1abd cdda 80bc 773f 8a3d
00000310: c84f 0f3d 2da4 6f3e 61e4 4dbe c40d 3bbe
00000320: 4e9f b9bd 9e58 8bbd 6b57 df3d 4054 cdbd
00000330: 7731 c13d b869 d3bd 3414 c33d a5c9 17be
00000340: 38c1 e73d bfd7 9b3d c8bd f9bd 45d1 01be
00000350: a554 e0bd a26c 163e d313 a9bd 0008 653e
00000360: 8671 593d fbec 67bc d84e 393d 810b 223e
00000370: b2bb 28bd 894a 92bd 143b ccbd edeb d8bd
00000380: f285 18bd a13e d6bd dcb2 943d 2863 313e
00000390: 44be 1dbe 1834 b43d c5e3 bf3d 0325 fabd
000003a0: e3ca 263e 64ef 16be 1306 3a3e e1e7 a5bd
000003b0: b617 a73d e5e0 97bd 2f1a a83d 8332 81bd
000003c0: f322 80bc 79ce 74be b01f 39bd 2146 a03d
000003d0: 6b88 c23c fcbe debc 4f33 96be 0497 b33d
000003e0: 915d bb3b ae22 90bd 92fc 813d e80e bf3c
000003f0: 8620 cebd e533 66bd 4d19 29be 3531 923e
-0.06097791 0.12736246 0.01781956 0.09631529 -0.074292004 -0.0028656796 -0.13558774 -0.104194656
0.20524712 -0.21647733 0.012477082 0.13572375 -0.04575006 0.1619528 -0.26804936 0.085685186
0.04786345 0.0668649 -0.076285206 0.061269034 0.106297605 0.029192446 0.1091021 0.060714852
0.097712725 0.052127678 0.09443767 -0.1281396 0.077697635 -0.111689426 0.05966673 -0.20047344
0.16218783 -0.105616175 -0.048995495 0.041255526 -0.24588946 0.22578019 -0.18299058 -0.11881218
-0.11257771 -0.20019862 -0.008214934 -0.07103747 0.04009762 -0.12851647 -0.05318064 0.1388132
0.062283367 0.16775885 0.08317 -0.082867295 0.006984688 0.047903895 0.20049 -0.13210692
-0.15324742 0.012946668 0.1520731 0.12703285 0.067831434 0.10863261 -0.14697286 -0.18926887
0.11684382 -0.17923206 -0.12526594 -0.19366096 0.15551536 0.020428512 0.01721471 0.091429286
0.041622784 -0.06472497 -0.18197656 0.18321392 -0.20110328 -0.186319 0.026610134 0.15075745
-0.12055439 -0.012853838 -0.17398979 0.13742729 0.08196943 -0.011329349 0.013484328 0.12526838
0.19304375 -0.13456348 0.05858909 0.057629287 -0.23896444 -0.07044015 0.1983251 -0.076833814
-0.15406911 -0.15872198 -0.25436738 -0.11852752 0.121850565 -0.1883756 -0.06439543 0.12982596
-0.13555887 -0.014238346 0.22722538 0.0013402961 0.19671702 -0.13399816 -0.008871674 0.047047123
-0.07974886 0.17689776 0.0924923 0.04267041 -0.1483907 -0.051325157 -0.19586328 -0.079187736
-0.07952705 0.03902474 0.009500527 -0.11215675 0.24086533 0.09434972 -0.04081285 0.079544164
-0.015944414 0.25472766 -0.001898318 0.13723642 -0.07812292 0.078339435 0.165386 0.09355608
0.094145685 -0.14191571 0.01699853 -0.06806808 0.021186627 0.019579187 -0.1676304 0.14492503
-0.015168693 0.22629967 -0.05079394 0.08844446 0.04207889 0.096693836 0.2566585 0.03268575
-0.16238844 0.060005352 0.14952697 -0.17486885 -0.16875684 -0.23267995 -0.02576448 0.09811624
-0.09228333 -0.05031897 -0.18296419 -0.08089665 -0.03759696 -0.15049438 0.21108662 -0.16830942
0.0868758 -0.1588978 -0.0063605397 0.20828244 -0.04428715 -0.078693315 -0.06717285 0.23904715
-0.05268432 0.061527744 0.13578571 -0.14696838 -0.08603453 0.195607 -0.06824894 -0.04028556
-0.1414049 -0.032469377 -0.013944532 0.004735815 -0.08488666 -0.1613621 0.0201276 0.04425778
0.045444775 -0.037637416 -0.015729332 0.06750386 0.034988195 0.23402472 -0.20106651 -0.1826697
-0.09063588 -0.06804012 0.109053455 -0.10025835 0.09433263 -0.103228986 0.09525338 -0.14823015
0.113161504 0.0760951 -0.12194401 -0.12677486 -0.10953645 0.14689878 -0.08255734 0.22366333
0.05308678 -0.014155622 0.045241207 0.15824701 -0.041194625 -0.07143123 -0.09972206 -0.10591874
-0.037237115 -0.10461164 0.07260677 0.17322981 -0.15404612 0.087989986 0.093696155 -0.12214091
0.16288333 -0.14739758 0.1816638 -0.08100868 0.081588194 -0.07415942 0.08208119 -0.063084625
-0.015641665 -0.23906888 -0.045196235 0.07825876 0.02374669 -0.027190678 -0.2933602 0.08769038
0.005717941 -0.070378646 0.06347002 0.023322538 -0.10064797 -0.056201834 -0.16513558 0.28553167

model.0.bias f4 [64]
00000000: fc24 003e 1820 15be db7b 12be fe01 343e
00000010: 1a39 5f3d 44b6 bd3d eaad 1c3e 58e8 a3bd
00000020: 35e0 e23d d642 8d3d 3ab8 8bbd 6e77 bcbd
00000030: 9460 ee3d 704f b9bd 7977 513d 1d3a ffbd
00000040: 8d16 dfbd 4148 04be 8dbe aebb 0b7b b93d
00000050: 068c 793c 227d a53d 3bf9 03bd 401f 2bbe
00000060: 3dd9 d6bd af7d 20bd f4b1 fc3d 3cd4 453b
00000070: bda9 103d 484d 0e3e 5b4b 23be ec6b e43d
00000080: 78d7 1e3b e6de 2b3c 35e6 c33d f578 f63d
00000090: c2d0 95bd a714 2c3e 80a9 9a3d 5ed1 abbd
000000a0: 60d9 623d 5d0b 40bc e833 23be 31c9 b23d
000000b0: a4f4 5cbc 603c 303e adba 2f3e a3d4 f03d
000000c0: f8a9 2bbe 5a41 c6bd 3101 fb3d 29a7 d03d
000000d0: 777c 083e b31f 0ebe b753 643c f0a9 f8bd
000000e0: e008 943d 63f7 d7bd 20a9 3e3c 7044 2fbb
000000f0: c5e6 12be a1fe 91bd dadc 30be 1eb8 2d3e
0.12514108 -0.14563024 -0.1430506 0.17578885 0.054497816 0.0926328 0.15300718 -0.080033004
0.1107792 0.068975136 -0.06822248 -0.09202467 0.116395146 -0.090483546 0.05113933 -0.12462256
-0.10892973 -0.12918188 -0.005332774 0.09056672 0.015231138 0.08080508 -0.032220107 -0.1671114
-0.10490654 -0.03918236 0.12338629 0.0030186316 0.035318125 0.13896668 -0.15946715 0.11153397
0.0024237316 0.010490155 0.09565393 0.120347895 -0.07315208 0.16804753 0.07551861 -0.08389543
0.055383086 -0.011721459 -0.1593777 0.087297805 -0.013486061 0.17210531 0.17161055 0.11759307
-0.16764057 -0.096804336 0.122560866 0.10188133 0.1332873 -0.1387928 0.013935975 -0.12141788
0.07228255 -0.10545232 0.011637002 -0.0026743673 -0.14345844 -0.07128645 -0.17271748 0.16964766

model.1.weight f4 [64]
00000000: aeaf 863f 1b99 763f 689e 863f d13d 7a3f
00000010: 3e74 8a3f 5ac0 783f 156a 7e3f 63f5 6f3f
00000020: 24bd 773f 3272 6f3f c6ad 773f a97b 603f
00000030: 5fa9 783f 0669 863f 0849 7c3f cc67 813f
00000040: b76a 753f ef25 793f 3b96 7d3f 0c3f 873f
00000050: 16e3 843f 063b 833f 54c3 793f a41a 753f
00000060: 3662 803f 5b44 833f 79e4 783f c351 8a3f
00000070: 6b44 753f dcca 8c3f 77c8 683f bc70 893f
00000080: 1614 723f 6146 7e3f e173 793f 2bae 813f
00000090: d0f7 893f e4dd 803f 23cc 753f 519f 7e3f
000000a0: d314 853f 072c 743f 4e13 7f3f bb74 8c3f
000000b0: a6da 7c3f ac8f 833f a8fe 863f 6692 873f
000000c0: 79fd 893f 77d5 713f 1790 7b3f 4a1a 923f
000000d0: adce 7b3f acb3 6b3f c12e 783f 6761 5a3f
000000e0: 4931 823f c367 713f 43c7 6d3f f0c2 833f
000000f0: 3e5c 853f 4551 8f3f c07a 823f fa94 853f
1.0522363 0.9632737 1.0517092 0.97750574 1.0816724 0.97168505 0.9938062 0.93733805
0.9677298 0.93533623 0.9674953 0.8768869 0.9713344 1.0500801 0.98548937 1.0109801
0.9586596 0.9732351 0.9905736 1.0566115 1.0381801 1.0252388 0.9756367 0.95743775
1.0029972 1.0255235 0.9722362 1.0806202 0.9580752 1.0999408 0.90930885 1.0737529
0.945619 0.9932614 0.9744244 1.0131277 1.0778751 1.0067716 0.9601461 0.9946185
1.039698 0.9537968 0.9963883 1.0973123 0.9877113 1.027822 1.0546465 1.0591552
1.0780479 0.94466347 0.9826674 1.1414273 0.9836224 0.9207103 0.9694634 0.85304874
1.0171291 0.9429895 0.92882174 1.0293865 1.0418775 1.1196676 1.019371 1.0436089

model.1.bias f4 [64]
00000000: 6fa8 75bc 4d74 a0bb 333c babc b7d3 aabd
00000010: c3b2 6ebc 0873 a6bd d022 82bd bc2d dd3b
00000020: e26f b6bd 35a5 ddbd faaf 43bc abaf b2bd
00000030: 4e23 29bd ecb3 0c3b be2e 22be ecb1 68bd
00000040: 36b1 4fbe 5cc4 0dbe e57d 43bd 9cec c0bd
00000050: d434 1ebe 4c29 a1bd 3d52 40bd 84f9 b43c
00000060: 8018 30be 2dae 7e3d 9d1c cdbd ded3 cfbd
00000070: d79e c6bd 41b7 35bd a18f 0fbe ba0d 44bd
00000080: 0765 76bd 332b f3bd 92cf b13c 2cfe 9bbd
00000090: c113 503d 5dd5 9dbd a320 ecbd 2859 3ebe
000000a0: 8c1e 433d 36ff 00be c3cf bebd f6e8 e63c
000000b0: f1a9 21bd f7f8 a5bd 6fec 983c 8e79 21be
000000c0: 7dfe f7bc ed0e c4bd b2ea 8fbd 7d63 bfbd
000000d0: 11ad a9bd 173d 40bd d2d2 3ebe 99c2 17be
000000e0: b1b4 e8bd 6b3a 6abc 1c22 07be f825 5abe
000000f0: 6a3d 343d 7d45 c9bc f8c3 1fbd a8d6 11be
-0.014993771 -0.0048966766 -0.022733783 -0.08341163 -0.014568987 -0.08127409 -0.06354296 0.0067498367
-0.08908059 -0.10822526 -0.011943812 -0.08724912 -0.041293435 0.0021469546 -0.15838143 -0.056810305
-0.20282444 -0.13844436 -0.047727484 -0.0942013 -0.1544984 -0.07869205 -0.04695343 0.022091635
-0.17196846 0.062177826 -0.10015223 -0.10147832 -0.09698265 -0.044364218 -0.14019634 -0.047864653
-0.06015494 -0.11873474 0.021705423 -0.07616839 0.05080009 -0.077067114 -0.115296625 -0.18588698
0.047636554 -0.12597355 -0.09316971 0.028187256 -0.03946871 -0.08104127 0.018667428 -0.15769026
-0.030272717 -0.09573159 -0.070271865 -0.09345148 -0.08284963 -0.04693326 -0.18635109 -0.14820327
-0.11362589 -0.0142961545 -0.13196605 -0.21303546 0.04400388 -0.024569267 -0.03900525 -0.14242041

model.1.running_mean f4 [64]
00000000: 1253 f23d c98d 2dbe 0738 f6bd c77a 343e
00000010: 6be8 063d daed a73d 30e5 283e c2da 91bd
00000020: 1af7 0f3e 5cfd 9e3d ff1f 8ebd 7cdd e5bd
00000030: 0b24 c33d 2617 c0bd 63d2 ad3c 616f fcbd
00000040: 9977 f1bd 1175 16be 6434 0abc 0d52 d43d
00000050: 93f2 1d3c 0cb1 df3d db53 1abd 84af 3bbe
00000060: 4b89 ebbd 95d5 0abd 33ca 033e 07d0 85bc
00000070: cbd1 633d 172d 243e e559 3cbe 5282 ee3d
00000080: 6ec1 983b e05a f7bc 7a3a dd3d ae9c ec3d
00000090: 0922 9bbd 5b2e 0c3e 65af 743d cde4 a4bd
000000a0: 56e3 633d e432 213b 6f2b 2fbe aef8 a33d
000000b0: b6b5 82bc e4d6 2f3e e363 203e 3ae5 df3d
000000c0: cf09 26be bb7b aebd 7b8c f93d b572 cd3d
000000d0: d0be 0b3e b723 14be 584b f83c c8f4 0ebe
000000e0: aa78 a73d 190d b8bd b11c 4cbc ecd8 a23b
000000f0: 7f65 20be 2e48 93bd 98cd 3bbe 48dd 2d3e
0.11832251 -0.16948618 -0.12022405 0.17624961 0.032936495 0.081996635 0.16493678 -0.07121803
0.14059106 0.07763168 -0.069396965 -0.112238854 0.09528359 -0.09379415 0.021218484 -0.12325931
-0.117903896 -0.14693095 -0.008435342 0.103672124 0.009640354 0.10922441 -0.037677627 -0.18328673
-0.11500796 -0.033895094 0.12870102 -0.016334547 0.055619996 0.16032825 -0.18393667 0.116459504
0.0046617305 -0.0301947 0.10802169 0.11553322 -0.07574851 0.13689558 0.05973758 -0.08051453
0.055636726 0.0024596984 -0.17106412 0.08006416 -0.015955787 0.17171818 0.15663104 0.10932393
-0.16214679 -0.085196935 0.12184998 0.10031644 0.13647008 -0.14466749 0.030309364 -0.13960564
0.08177312 -0.08986873 -0.012458012 0.0049697068 -0.15663718 -0.071915016 -0.18340147 0.16978943

model.1.running_var f4 [64]
00000000: 5e74 523e 906a 823f 7078 bb3f 9c46 423f
00000010: ece8 4f3f 8063 d73e 6fdf cc3e 359a d33e
00000020: 6265 413f 9ebf a63f 8c6d b73f c2ac a83e
00000030: 2361 5e3f a315 063f d6e1 413f 86f7 a03e
00000040: e5c8 203f 30fc 693e 663d 7d3e 05bd 0a3f
00000050: e2d4 3e3f 0a8a 303f aa86 ec3e 7aa5 d93e
00000060: 9460 f33e e999 f93e 62db 813e 97e0 553e
00000070: 5367 e33e ae96 073f abe2 a53f 11e2 9c3e
00000080: 8043 2f3f 14a0 573f d50d dd3e e301 d23e
00000090: 7301 123f 74a3 c13f cb6b b43f 85be b73e
000000a0: 0918 8d3e 291f d03e b553 9c3f 7994 9b3e
000000b0: c9cb 143f 40a6 7d3e 7e07 003f 279c af3e
000000c0: cb12 f43e 5584 243f 4b4d b23e 7a29 813e
000000d0: 7c0b a13f 73b7 403f 9352 ea3e 9a07 283f
000000e0: 7b8d d83e af37 0f3f 64b8 b53e 6503 433f
000000f0: ea78 373f 2f49 1f3f 72ba b93e 46fa 3d3f
0.20552203 1.018877 1.464613 0.7588899 0.81214786 0.420681 0.40014216 0.41328588
0.7554532 1.3027227 1.4330306 0.32944304 0.8686697 0.52376765 0.75735223 0.31438845
0.6280654 0.22850108 0.24730453 0.5419467 0.74543583 0.6896063 0.4619649 0.4250906
0.4753462 0.48750237 0.25362688 0.20886455 0.44414768 0.52964294 1.2959799 0.30641225
0.6846237 0.84228635 0.43174616 0.41017064 0.5703346 1.5128007 1.4095396 0.35887542
0.275574 0.40648773 1.2213045 0.30386713 0.5812345 0.2477045 0.5001143 0.34298822
0.47670588 0.6426442 0.34824595 0.25226957 1.258163 0.7527992 0.45766124 0.656366
0.4229544 0.5594434 0.3549224 0.76177055 0.71668875 0.62221044 0.3627506 0.7421001

model.4.weight f4 [32, 64]
00000000: 78c0 51bd b9c6 bfbd 6165 b83c c95d cdbd
00000010: b09b 31be bb47 c6bd e7b0 66be f572 df3d
00000020: df6f c6bd c2ae a8bd f678 b6bd 3f4a 353c
00000030: 6c5d 1abe f860 04bd 1e4b 073c 2f26 ec3c
00000040: 216d fd3d cb18 143d 34e1 303e 276a cfbd
00000050: 1231 a4bc 545f 113c 1258 3d3d c0e9 8cbc
00000060: fd87 15bd 4bad b83d f2ad cf3c d2d8 4abe
00000070: c543 063d 48dd 29be 45d0 f63d c79d c8bd
00000080: 0c15 0ebd 1914 59be 064a 463d 710a 44be
00000090: a703 dd3c 8cae 43be 0d36 5f3c f341 8cbd
000000a0: f3e8 e1bd f563 98bd 8b28 6d3c b544 b1bb
000000b0: a0cb 9a3d 7169 a3bd da41 9d3d d9e9 443e
000000c0: 920e ed3d ed1d 1b3d 0b5e c4bc a3b0 bebc
000000d0: 1758 533d 493a d5bc 3c5a 5abd 27db a4bd
000000e0: 1c65 f43d 46c6 343d f805 b53c 998a 0abe
000000f0: ffa3 ef3d 205a ebbd 656f 493d cf5c 193e
00000100: 541c 0e3d fbc4 20be 36f4 f13c e265 e4bb
00000110: bd61 a6bd bef2 69bc 9a6e 2cbe 5e8a ec3c
00000120: d9fb 0dbe e309 81bc 04a4 eabd 8dcb 05bd
00000130: 7c42 78bd 5f16 3e3d fa81 703a 81a4 e4bc
00000140: 2732 4b3d a085 4e3d 1288 bf3d 6128 65be
00000150: d442 de3d f0c3 46bd 2431 443e 0ac6 9e3c
00000160: 5b1c bbbd f2cb 89bd 3f38 35be 8daf 43be
00000170: eeda 193c f3af 32be ecf4 2a3d ec0e cdbd
00000180: e933 843d e4f0 0fbe 2b6f 453b ce8c a3bd
00000190: 8882 c53c aff5 38be ac53 093e 13fc 293e
000001a0: 620c 043e e018 56be e5a4 953c 7816 87bd
000001b0: 399e 9e3d bbc8 66be 3e11 60bd 8ba1 f33d
000001c0: 0bfc 60be 28d7 b83d e52e f6bd 7a0a 59b9
000001d0: fd02 cbbd 2b2e 083e 4f81 073d f880 d63c
000001e0: dbc2 6dbd e3de 943d 42bf febb 9b20 aabd
000001f0: a1f7 32bc fd5f f5bd 2679 efbd b670 abbc
00000200: 1d7e 2bbe 9fe6 19be 16c5 2c3e 9ba5 4cbe
00000210: 7633 6fbe b8e1 383c e2fa dcbc 87a1 1fbd
00000220: cd58 92bd 473e d43d 708e 60bc 7587 6a3d
00000230: 3be8 f5bd 96bc 7dbc 4167 fabc bd0d 5dbd
00000240: 558c 163d 4523 663d 6288 cf3b a045 b0bd
00000250: 9526 173e 8e74 5d3d 7658 aebd 31db 2c3e
00000260: f0c6 b9bd 840e c1bb b9d9 47bd eab2 3abd
00000270: 4254 0cbe 7a92 9cbd 93da f9bd 2245 adbd
00000280: b447 15be 45b7 0dbc 52d8 06be 0705 19bd
00000290: ee6b d23d c1fa 26bd 24fc 13be 9368 f53d
000002a0: 68fc 18bc e351 07be d226 263d 68a7 5a3c
000002b0: 0d60 4f3d 7e31 2dbe 8fc0 6c3d 753e 483c
000002c0: 0544 0bbe 7cc2 99bd 07b9 743d 843a e2bd
000002d0: 48c7 ce3d 45ed 2abd 678b bb3d 5fdf 003b
000002e0: e548 693d 3d20 cd3d cce6 f6bd 4db7 dfbd
000002f0: e661 1bbd debc acbe 5011 f2bc dc36 8e3c
00000300: f052 83be 4155 05be 9eb0 b43d 5248 08bb
00000310: 2546 c3bc 6990 26bc d9bc 4abb ec0d 82bd
00000320: f618 05bd 2029 433d 9637 61bd d698 67bd
00000330: 4e5b 0bbe 95df e7bd 042b 6cbe c0f5 1dbe
00000340: 01af a0bd 9638 7abd 22dc 4bbe 587d 593d
00000350: 1722 62bd 681f debd bb92 a3bd 6cdb 5ebd
00000360: 3ab7 203c 21bd f1bd c7b3 d63d 5037 04bc
00000370: e011 95bd 5308 3ebe 1f24 233d 4d7e 29be
00000380: 0035 e6bd e15c e7bd e941 c3bd c20a 20bc
00000390: 68b5 a03c 9b57 d93d 520a b83d 275b efbd
000003a0: dd27 16bd f4a4 f8bd 57e1 91bd e45b 623e
000003b0: a85f d43d b1dd 173d 5163 fc3d 3df2 2ebd
000003c0: de0e 153c ac12 683d 1030 97bd d67a 283e
000003d0: bd5d 1f3e c1ea 2e3d fe46 24be 6667 9cbd
000003e0: 789b f4bc dfcf c0bd f1ef 47bd 190c 94bd
000003f0: 3641 25bd 80dc 83be 2532 c63d dc78 14be
-0.051208943 -0.09364075 0.022509279 -0.10027654 -0.17344546 -0.0968165 -0.2252842 0.10910598
-0.096893065 -0.082364574 -0.0890979 0.011065065 -0.150747 -0.03231904 0.008257655 0.028826801
0.1237433 0.036156457 0.17273408 -0.10127669 -0.02004293 0.008872826 0.04622657 -0.017201304
-0.03650664 0.09017428 0.025351498 -0.19809273 0.032779474 -0.16588318 0.12051443 -0.09795719
-0.03468804 -0.21199073 0.048410438 -0.19144608 0.02697928 -0.19109553 0.013623727 -0.06848516
-0.1103076 -0.0744094 0.014474998 -0.005409802 0.0755837 -0.07979096 0.07678576 0.19229831
0.11575045 0.037870336 -0.023970624 -0.023277586 0.05159768 -0.02602877 -0.05330871 -0.080496125
0.119333476 0.0441344 0.022097573 -0.13529433 0.11701202 -0.11491799 0.0491785 0.1497681
0.034694985 -0.15700142 0.029535394 -0.006970153 -0.08124111 -0.014279066 -0.16839066 0.028874572
-0.13865604 -0.015751785 -0.11457065 -0.032664824 -0.06061028 0.046408053 0.00091746415 -0.027910473
0.049608376 0.050420403 0.09352125 -0.22378685 0.1085259 -0.048526704 0.1915937 0.019381542
-0.09136268 -0.067283526 -0.17697237 -0.19109936 0.009390576 -0.17449932 0.041737482 -0.10012612
0.064552136 -0.14056736 0.0030126076 -0.07985841 0.024110094 -0.18062471 0.13410825 0.16600065
0.12895349 -0.20907927 0.018267104 -0.065960824 0.07745022 -0.2253751 -0.054703943 0.11896046
-0.21971147 0.09025413 -0.12020663 -0.00020698635 -0.09912679 0.13298862 0.033082303 0.026184544
-0.058047157 0.07269075 -0.0077742646 -0.08307 -0.010923297 -0.11981199 -0.11693029 -0.020927768
-0.16747327 -0.15029381 0.16872057 -0.19985048 -0.23359475 0.011284284 -0.026975099 -0.038972404
-0.07145844 0.10363441 -0.013705835 0.05725809 -0.12007185 -0.015486857 -0.030566813 -0.05396818
0.036754925 0.05618598 0.006333397 -0.0860703 0.14760812 0.054066233 -0.08512966 0.1688049
-0.090711474 -0.005891623 -0.04879162 -0.045580782 -0.13704017 -0.07645126 -0.12199893 -0.08460452
-0.14578134 -0.008649652 -0.13168457 -0.03735831 0.10274492 -0.04076648 -0.14451653 0.119828366
-0.009337522 -0.13214831 0.040564366 0.013345577 0.05062871 -0.16913411 0.057800826 0.012221922
-0.13600166 -0.07507798 0.05974677 -0.11046317 0.10096604 -0.041730184 0.09157448 0.001966439
0.056954283 0.100159146 -0.1205574 -0.10923634 -0.03793516 -0.33737844 -0.02954927 0.017360143
-0.25649214 -0.13020803 0.088227496 -0.002079506 -0.023837158 -0.010166266 -0.0030935316 -0.06350312
-0.032494508 0.04764664 -0.05498465 -0.05654224 -0.13609049 -0.11321942 -0.23063284 -0.15425777
-0.07845879 -0.06108912 -0.19908193 0.053098053 -0.05520829 -0.10845834 -0.07986971 -0.054408476
0.00980931 -0.118036516 0.104835086 -0.008069828 -0.072788 -0.18557863 0.03982937 -0.16552086
-0.11240578 -0.11297012 -0.09534056 -0.00976819 0.019617751 0.106124125 0.089863434 -0.11687308
-0.03665911 -0.12140837 -0.07123058 0.22105366 0.103698075 0.037076656 0.123236306 -0.042711485
0.009097783 0.056658432 -0.07382214 0.16453108 0.15563102 0.042704348 -0.16042706 -0.07636909
-0.02985929 -0.09414648 -0.04881281 -0.0722887 -0.040345393 -0.25754166 0.09677533 -0.14499229

model.4.bias f4 [32]
00000000: 6e5f a83d 33e5 d3bd 889d b13d e28e df3c
00000010: a8f5 4f3d 9cb0 64bd 1bbe ae3d 7d50 84bd
00000020: d3c9 86bd 298f 0ebc effd 64bd 2d9f 6e3c
00000030: a55e 503d f95e ccbd 4ddb e7bc 1ca2 04b6
00000040: 0ddd 613d ac1a 1c3c d537 c73d f2b1 e6bd
00000050: 71cc e3bd 49cb 243d a01f 3d3d 12c6 cbbd
00000060: 0dee f5ba a278 013e b53c b93d 7620 26bd
00000070: b514 d13c 909b dbbc 4bf0 ce3c 7ad3 823b
0.08221327 -0.10346451 0.08672625 0.027289812 0.050771385 -0.05583249 0.085323535 -0.064606644
-0.06581464 -0.008701124 -0.055906232 0.014564318 0.05087151 -0.09979052 -0.028302813 -1.9763893e-06
0.05514245 0.009527843 0.09727446 -0.11264409 -0.111229785 0.04023293 0.046172738 -0.09949888
-0.0018762961 0.12643674 0.09044782 -0.0405583 0.02552257 -0.026807576 0.025261065 0.003992495

model.5.weight f4 [32]
00000000: f8b9 613f 6bff 573f 625d 5c3f e383 373f
00000010: 7449 443f 0dbc 6f3f f3cc 4f3f fd97 643f
00000020: c9ad 5c3f 2bd9 6c3f 6690 6f3f 0239 503f
00000030: e192 663f 78b6 703f d9ba 5b3f d8bd 533f
00000040: 79db 4a3f 0e3c 593f 8b45 5e3f b6a9 573f
00000050: 70f3 5f3f 0993 5e3f 0beb 543f a3ca 4a3f
00000060: 3d67 613f cf41 5a3f 3188 703f 3d12 623f
00000070: ba55 5e3f d138 573f 4ef6 643f ba93 493f
0.8817439 0.8437411 0.8607999 0.7168562 0.7667458 0.9364632 0.811721 0.89294416
0.86202675 0.9251887 0.9357971 0.81336987 0.9006787 0.94028425 0.8583198 0.82711554
0.7924114 0.8485726 0.86824864 0.84243333 0.8748083 0.8694311 0.8317115 0.7921545
0.88048154 0.85256666 0.9395781 0.8830908 0.8684956 0.8407107 0.8943833 0.7874104

model.5.bias f4 [32]
00000000: b81b 0bbe 01f0 38be 02b2 05be 072f 6cbe
00000010: 6f8c 50be 3847 9abc 511d 38be 0dde b5bd
00000020: 0f3f 4dbe 79cd b4bd fd03 32bd 2e8c 00be
00000030: a45f a6bd f121 383d 9cbf ddbd 763d 09be
00000040: 6e98 25be aabb 0cbe 8e4c cdbd 95f7 09be
00000050: ac50 20bd 03e8 11be 8423 0ebe 9984 37be
00000060: db19 ddbd 6d8d 02be 74a2 80bc 683b 43be
00000070: 6adb b1bd 63de 12be b342 9cbd 19b9 e3bd
-0.13584793 -0.18060304 -0.13056186 -0.23064815 -0.20366071 -0.018832788 -0.17979933 -0.088802435
-0.20043586 -0.08828253 -0.043460835 -0.12553474 -0.08123711 0.044954244 -0.10827562 -0.13402352
-0.16171429 -0.13743463 -0.10024367 -0.13473351 -0.039139435 -0.14248662 -0.13880736 -0.17921676
-0.10795947 -0.12749262 -0.015702464 -0.1906563 -0.08684428 -0.14342646 -0.07629909 -0.11119289

model.5.running_mean f4 [32]
00000000: ff3d bcbe f4a1 54bf 9a3a 30bf e790 65bf
00000010: 7d48 92be 8116 55bf 1fdb 2bbf c413 26bf
00000020: 9277 50bf 963e aebe 9e07 8abf 85f5 c0be
00000030: 3629 09bf b6cb 51bf 43ea 95be 5a4b 4dbf
00000040: a0ac 67be 4afd 8abe debf 67bf 81b3 b4bd
00000050: b10e 3dbf 804e 55bf 3f62 8fbe f038 0cbf
00000060: 37ac 76be 3e8e 1abf 1f96 72be 9e12 34bf
00000070: 86b8 09bf b3dc 91be 62d6 b2be a288 173e
-0.3676605 -0.8305962 -0.6883942 -0.8967423 -0.2857093 -0.83237463 -0.6713123 -0.6487391
-0.8143245 -0.34032124 -1.0783575 -0.37687317 -0.5357851 -0.81951463 -0.2928029 -0.801931
-0.22624445 -0.2714637 -0.9052714 -0.088233 -0.7385054 -0.83322906 -0.28004643 -0.5477438
-0.24089132 -0.60373294 -0.23690079 -0.7034091 -0.53797185 -0.28488693 -0.34929186 0.14798215

model.5.running_var f4 [32]
00000000: 35b6 233f 7b19 263f 2754 713f 3dd4 2c3f
00000010: 5354 053f beed 6e3f b051 8c3f 1c61 6f3f
00000020: b9ee 113f ad01 043f 4260 443f a7bc bb3e
00000030: 3def 883f d575 bb3f e0af 123f 5098 ae3f
00000040: 69aa 093f c703 2d3f 3126 993f a2c1 ec3e
00000050: 3e04 da3e 1524 203f 46a5 163f 00a1 413f
00000060: aff2 a33e 4091 0f3f 1d68 1b3f b1f8 1c3f
00000070: ffeb 2f3f fca4 c23e 7eb0 a13f 2e19 9b3e
0.639499 0.6488263 0.9426903 0.6751135 0.52081794 0.93331516 1.0962429 0.9350755
0.57004887 0.5156506 0.7670938 0.36667368 1.069801 1.4645334 0.57299614 1.3640232
0.5377565 0.6758389 1.196478 0.4624148 0.42581362 0.62555057 0.5884594 0.7563629
0.3202109 0.5608101 0.6070574 0.6131697 0.68719476 0.38016498 1.2631986 0.30292648

model.8.weight f4 [2, 32]
00000000: 391f b4bd 74c0 443e 6109 0b3e b29d f33c
00000010: ef71 3b3e 19c4 18be bbde febd 1856 e73d
00000020: 7610 db3c 3665 c53d 68b8 df3d ffd4 423d
00000030: 2d8e 123d a040 123e c016 96bc 4b50 703c
00000040: eb02 093e 8da0 df3c c998 483d ceea 8c3d
00000050: d991 be3c 5175 983d 95ca 833c 3ec5 ddbc
00000060: 1aab 003e dcd9 f23d cb1b efbd 81ef a53d
00000070: 11c9 513c 518e 033d db66 b7bd d42c a13c
00000080: b4b4 04be 1785 f83d fb55 c83d 0406 cf3b
00000090: 771d 0c3e 8263 c3bd 75db 38be 39b1 5b3d
000000a0: ad05 0bbd 6a5e 253e c810 0f3e f5d4 1e3d
000000b0: 29fb b23d 2f9c 3b3e 0ef1 9bbd 83c2 553d
000000c0: b778 d63d a971 d3bc c788 823d 54ea 303c
000000d0: 99c3 953d 6351 a83c 825a 28bb 1a13 b9bd
000000e0: 73fb 133e 0c54 9b3d 97bf 45bd c45b 8c3b
000000f0: 5ab6 12bd 5422 263b d9a2 3ebd 39df d93c
-0.08795018 0.1921404 0.13577797 0.02973828 0.18305181 -0.14918555 -0.12444826 0.11295718
0.026741248 0.09638445 0.109238446 0.04756641 0.03578012 0.14282465 -0.018321395 0.014667581
0.1338002 0.027298236 0.048973832 0.06880723 0.023262905 0.07444251 0.01608781 -0.027071591
0.1256527 0.1185796 -0.11675223 0.08102322 0.012804286 0.032118145 -0.08955165 0.019674696
-0.12959558 0.1213476 0.097820245 0.006317856 0.13683115 -0.09540464 -0.18052466 0.05363581
-0.03394096 0.16149297 0.13971245 0.03877731 0.08739311 0.18321298 -0.07614337 0.052187454
0.10472243 -0.025811033 0.063737445 0.010798056 0.07312698 0.02054662 -0.0025688712 -0.090368465
0.14451389 0.0758439 -0.048278417 0.0042834003 -0.035818435 0.002535005 -0.046542022 0.026595699

model.8.bias f4 [2]
00000000: 358f c2bd 1ea5 973d
-0.09499971 0.074045405
