src/modelDevelopment/training/model_files/deep_mlp_model_raw.pt (torch, 75522 bytes, 14 tensors)

model.0.weight f4 [128, 64]
000000 c4 7c 5b bd 0a 50 6c 3d 8b ef 95 bd 8f 95 8f bc
       -0.053585783 0.05769352 -0.0732108 -0.01752737
000010 92 1b a5 bc 98 6a 32 3e 2d 31 b3 bd 6c 33 a2 bd
       -0.020154748 0.17423475 -0.08749614 -0.07919964
000020 e0 60 e1 3d 46 a6 56 bd 33 bf cb 3c b4 63 91 bd
       0.110048056 -0.052404664 0.024871444 -0.07099095
000030 71 28 34 be c3 bc 06 be 98 22 1f 3e a3 a2 b0 bc
       -0.17593552 -0.13157944 0.1554054 -0.021561926
000040 e6 89 ce 3d d2 61 fa 3d 65 22 cf 3d 48 43 05 bd
       0.10084896 0.12225689 0.10113982 -0.032534868
000050 c4 09 60 3e 9a 63 77 bd 37 e8 ec 3d 9c ca e9 bd
       0.21878725 -0.06039772 0.11567729 -0.11415598
000060 eb 2f 1a bc dd 05 66 3d 30 2e d5 3c 32 c3 bc ba
       -0.009410839 0.056157935 0.026023 -0.0014401434
000070 99 8c 91 bb 2c ed fb 3d 8d e2 7a be 58 10 70 3d
       -0.0044418094 0.12301096 -0.24500485 0.058609337
000080 c5 eb 95 bd b2 ab 69 3e e6 75 a0 3c 9e e1 1f be
       -0.0732036 0.22819403 0.019587468 -0.1561341
000090 06 81 aa 3c fc 95 0b bd a5 39 4c 3e f6 64 15 3d
       0.020813476 -0.034078583 0.19943865 0.036473237
0000a0 dd 14 d7 3d 67 7a 43 bd 8a db e6 bd 3d fc 30 3c
       0.10502026 -0.047724154 -0.112723425 0.010802326
0000b0 58 66 19 be a6 f2 19 be 86 0a 8a bd 1c 6a b8 3d
       -0.14980447 -0.1503397 -0.067402884 0.09004614
0000c0 71 f5 a1 bd 4f 7e 07 bd 57 1d bc 3d 1b 6c 34 be
       -0.07908142 -0.03307944 0.09185284 -0.17619364
0000d0 9c 24 de bc 55 fd cb 3d 60 be d6 3d fa 23 aa bc
       -0.027117066 0.099604286 0.1048553 -0.020769108
0000e0 ab 7b 14 bc a6 3a 56 3d 2b 40 5d 3c bc f5 24 bd
       -0.009062688 0.052302025 0.013504068 -0.040273413
0000f0 5a 7a 8c 3d 29 32 08 bd 27 01 34 3e b7 e2 b7 bc
       0.06859274 -0.03325096 0.17578565 -0.022446973
000100 ad c1 0a 3e c1 05 d7 bc 50 89 8a 3d 78 fc db 3c
       0.13550444 -0.02624786 0.067644715 0.026853785
000110 bb 2e 5e bd cc 8c a9 bd cc 8f e3 bd ed ae 53 3c
       -0.054243784 -0.08278808 -0.111114115 0.0129201235
000120 4f 80 ed bd b8 a3 cd bc 7d e2 aa 3d 7c 01 18 bd
       -0.115967385 -0.025102481 0.083439805 -0.03711079
000130 0f b5 22 3e 6c a9 0c 3e f3 b3 97 3d aa 62 1e 3e
       0.15889381 0.13736504 0.074073695 0.15467325
000140 25 43 5b bd 1e 44 ea bd bc 2b 04 bd 63 b9 b5 3d
       -0.05353083 -0.114387736 -0.03226827 0.0887325
000150 b2 4a 90 3d fc 61 83 3c 2a 49 09 3e c8 eb 8d bd
       0.07045497 0.016037934 0.13406816 -0.06929737
000160 e6 05 ad 3d 83 dd 30 bd 72 c2 a7 bd 22 be b9 3d
       0.08448391 -0.04318 -0.081913844 0.09069468
000170 e0 85 01 be bc a0 7f 3d da 4b 00 be 72 a1 f7 bd
       -0.12648726 0.062409148 -0.12528935 -0.1209134
000180 49 f1 b6 bd da a1 37 3e 7b 1b 0c be d3 ff 10 be
       -0.0893274 0.17932835 -0.13682358 -0.14160089
000190 77 d7 b1 bd 9f b4 46 be 68 ab d6 3d f8 74 fd 3d
       -0.08683675 -0.19404839 0.10481912 0.12375826
0001a0 ff 00 a2 3d ac 96 0e bc 3a 60 c9 bc f4 18 1c 3d
       0.07910346 -0.008702915 -0.024582017 0.038109735
0001b0 7a d1 bd bd 34 33 d4 3c 40 2f 9e bc 35 64 cb bd
       -0.0926847 0.025903322 -0.01930964 -0.09931222
0001c0 0a 85 33 3e 8c e7 bc bc de 18 9b bd 00 35 69 3c
       0.17531219 -0.023059629 -0.075731024 0.014233828
0001d0 88 0f 65 bd e1 01 fa bd de 7b 2b bd 30 0c 03 3d
       -0.055923015 -0.122073896 -0.041866176 0.031994045
0001e0 29 c4 e4 bd 11 ab c8 3d a3 94 5f 3d 72 db 18 3e
       -0.11170227 0.09798253 0.05458511 0.14927462
0001f0 c4 67 c7 3d e9 ca c7 3d d7 3f bc bd ba 0b 96 3e
       0.097365886 0.09755499 -0.09191864 0.29305822
000200 8d d1 66 bd 9b e3 92 3d 72 fc 42 3e 3e 91 72 3c
       -0.056352187 0.071723185 0.19041613 0.014805136
000210 a2 f9 d1 3c 84 66 91 3c c1 b6 b2 3d 47 f8 ae 3c
       0.02563173 0.017749079 0.08726264 0.021358622
000220 be 47 aa 3d 9d 8b ea bb 16 e8 11 bd a7 64 48 bd
       0.08314465 -0.0071577565 -0.035621725 -0.048924115
000230 44 f3 35 3e 72 b5 45 3e bc f8 48 3c 10 cf b4 3b
       0.1776858 0.19307497 0.012266334 0.005517848
000240 19 c2 49 3c 7a 69 80 bd a3 e2 f1 bc 59 54 50 be
       0.012314343 -0.06270118 -0.029527014 -0.20344676
000250 33 cf 3c be 79 ff 2a bd 16 12 3b 3d cc 7d ad 3d
       -0.18438415 -0.041747544 0.045671545 0.084712595
000260 7e 7b 0d 3d b6 9c 1b bd 42 07 e0 3c b0 62 a9 bd
       0.0345416 -0.037991248 0.02734721 -0.08270776
000270 16 2f 9a bd 68 01 cd 3c 0a 4a 11 be 1d 6a 25 3e
       -0.07528512 0.025025085 -0.141884 0.1615376
000280 06 0f 9a bd 36 50 1a 3e b9 a3 b0 3d 85 b8 a4 3d
       -0.07522397 0.1506966 0.086249776 0.08043007
000290 3a 96 2d bd b3 c1 5d bc 5b db 37 3c bb d9 8d bc
       -0.042379595 -0.013534951 0.011221732 -0.017315736
0002a0 f5 8a 17 bd d8 81 6b bd b2 e9 bf 3d f1 5a f4 3d
       -0.036997754 -0.057496876 0.09370746 0.11931408
0002b0 43 23 d4 3b 72 64 d3 bd 25 8a 3e bd c4 7d d0 3c
       0.00647393 -0.10321893 -0.046518464 0.025450595
0002c0 a6 32 d8 bd 72 12 91 3c 69 aa 26 3e e6 f2 34 3d
       -0.105565354 0.01770899 0.16275944 0.04417696
0002d0 f7 c5 34 be 4b 63 71 3d 16 92 c6 3d e2 1a 54 be
       -0.17653643 0.058932584 0.096958324 -0.2071338
0002e0 d6 ff 0a be 17 61 24 3c 21 f1 04 be cb 8c 00 be
       -0.13574156 0.010032914 -0.12982608 -0.12553708
0002f0 68 47 ed 3d 5d 6d 27 3e 88 fc 0a 3e 50 5d ce bd
       0.11585885 0.16350313 0.13572896 -0.10076392
000300 f0 f0 11 be d0 a5 ee bc fb d3 e9 bc 83 da 13 3e
       -0.14252067 -0.0291318 -0.028543463 0.14438824
000310 01 e4 be 3c 70 26 76 be a4 24 41 3e 8f 4f f5 bd
       0.02330208 -0.240381 0.18861634 -0.11978065
000320 88 f3 b2 bd 47 fa 00 3e 5a 02 04 3e 2e fd dd bc
       -0.08737856 0.12595473 0.12891522 -0.027098265
000330 20 f8 be 3b 11 ce 98 3d 52 8c ca 3d cf da 5a 3d
       0.0058279186 0.07461179 0.09890045 0.05343133
000340 f6 b6 9c bd f7 7c ef 3c 1b f6 96 3d 4f 4e 6c 3d
       -0.076520845 0.029234393 0.0737116 0.05769187
000350 05 78 fa 3c 37 a9 3d bd ea c5 50 3d 52 e3 2e be
       0.030574808 -0.046303954 0.050969996 -0.17078903
000360 cc 02 7b 3d 18 8b 06 bd f1 8c e5 bd 27 b0 c0 3c
       0.061281964 -0.032847494 -0.11208523 0.023521496
000370 ae db 27 3e 9d ad 19 3e b7 69 b5 3d c5 0d 8c bd
       0.16392395 0.15007634 0.08858054 -0.06838564
000380 9b a5 af 3d 76 0a d6 bd 69 09 22 3d 97 dc de bb
       0.085765086 -0.10451214 0.039559755 -0.0068011987
000390 47 c0 3d bb fb c7 2f 3e f6 35 52 bd ad 51 45 be
       -0.0028953718 0.1716613 -0.051320992 -0.19269438
0003a0 0d 0f 43 3c f7 33 a3 bd 10 7b 05 3d bd d9 d9 bc
       0.011905444 -0.07968896 0.032588065 -0.026593084
0003b0 52 58 91 3d de db 13 3d b1 bd 2f be 2e df 5b be
       0.07096924 0.036098354 -0.17162205 -0.21471855
0003c0 45 b0 6c be c5 a9 eb bd 92 6f 92 3d fe 20 61 3d
       -0.23114116 -0.1150699 0.071501866 0.054963104
0003d0 7a 9a 00 be a4 31 08 be f1 37 f4 bb 20 32 7e bc
       -0.12558928 -0.13300186 -0.007452958 -0.01551488
0003e0 fd 54 14 3d 19 80 01 bd 28 ce 9c 3b 2c 11 af 3c
       0.036213864 -0.031616304 0.004785318 0.021370493
0003f0 9c 13 ce bc 6e 1d ae bd df d6 6a bd c8 cd 15 3e
       -0.025155835 -0.08501707 -0.057333823 0.1462928

model.0.bias f4 [128]
000000 b6 af 83 3d 40 6e ce bd 99 f6 dc 3d 23 07 52 3d
       0.064299986 -0.10079622 0.10789222 0.051276337
000010 10 8f 50 bc 29 a6 2a bb b9 b1 30 bd f6 75 c0 bd
       -0.012729421 -0.002603898 -0.04313824 -0.09397499
000020 98 8c c0 3d 3c 7f 7d bd f5 24 50 3d db 81 85 bd
       0.09401816 -0.06188892 0.050816495 -0.065189086
000030 d4 45 c5 3d 8d 34 cf 3b bf f1 db bd 55 ab 6b bd
       0.09632459 0.006323403 -0.10739469 -0.05753644
000040 f8 50 d7 bc 16 61 5f bd ec 04 b9 3d 34 cf 6a bd
       -0.026283726 -0.054535948 0.09034142 -0.05732651
000050 53 11 64 3d d7 29 11 3d e9 0c 44 3d b2 f3 d2 3c
       0.055680584 0.035440292 0.047863875 0.025750969
000060 e7 5d 83 bd c5 29 65 bd 43 68 db bc 49 24 d5 bd
       -0.06414395 -0.055948038 -0.026783114 -0.104073115
000070 42 27 a3 bd 55 a3 69 bd 24 e5 b7 3d b9 7c 4e 3d
       -0.07966472 -0.05704053 0.08979252 0.050411914
000080 06 d3 38 bd 43 e4 9f 3c 52 6c e7 3d 57 b3 8b bc
       -0.045123123 0.019518023 0.11299957 -0.01705329
000090 25 04 67 bd 5c 0e e6 3d 75 56 4c 3d 11 18 c4 bd
       -0.056400437 0.112332076 0.04988714 -0.09574903
0000a0 4b 81 9c 3d 71 7d ab 3d ea c4 83 3d 7f 59 cf 3c
       0.07641848 0.083735354 0.06434043 0.02531123
0000b0 15 2d b4 3b 2f 74 82 3d 75 f1 fb bd 12 8b 57 3d
       0.0054985383 0.063698165 -0.12301914 0.052622862
0000c0 b8 02 1b 3d e7 6a f5 bd a7 e0 a2 3d ad 05 f8 bd
       0.03784439 -0.11983281 0.07953005 -0.121104576
0000d0 37 41 d6 3c 3c f0 de bd d7 75 00 bd ee f0 60 bd
       0.026154144 -0.10885665 -0.03136238 -0.05491727
0000e0 3f b3 a5 3d 8a e0 6c 3d 31 62 3f 3d fd 53 10 3d
       0.08090829 0.057831325 0.046724502 0.035236347
0000f0 f2 b1 ed bc 50 09 0e 3d fa 41 56 bd 4b 7c a3 3d
       -0.029015515 0.03467685 -0.052309014 0.079826914
000100 b1 ce 4d 3b 3f 62 c1 3d 75 36 15 3d 87 71 c3 3d
       0.0031403715 0.09442567 0.036428887 0.09543138
000110 58 e0 95 bd 3b ae be bb b1 de c7 bd 8e 3d db bd
       -0.07318181 -0.0058191097 -0.09759272 -0.107051
000120 d1 8a ee 3d 4e 09 8c bd ee a1 b5 bd fd a1 fe 3d
       0.11647571 -0.06837712 -0.08868776 0.124332406
000130 b1 6f f3 3d 9e df fb 3d 77 0d ca bc 18 c6 97 3d
       0.11886538 0.12298511 -0.024664624 0.0741083
000140 0c 24 fd bd d1 1f d7 3c b6 df 99 3d d5 c9 44 bd
       -0.12360391 0.026260288 0.075133726 -0.048044045
000150 10 06 07 bd 6d 7e 65 bc 96 14 ce 3c 69 f2 a6 bd
       -0.032964766 -0.014007193 0.0251563 -0.08151705
000160 35 ca 93 bd 95 aa bd 3c 29 3b 6f bd b6 4c f5 bd
       -0.07216302 0.023152629 -0.05840603 -0.11977522
000170 50 47 d2 3d b8 ec 84 3d 9c 2f ce bb 87 23 f6 3d
       0.10267508 0.06490463 -0.0062922966 0.12018495
000180 55 12 f4 bb ed 25 6b 3d 8d 73 89 bd fb 55 90 3d
       -0.0074484744 0.057409216 -0.06711493 0.070476495
000190 cd 91 df 3d d3 16 bc bc ab e6 2d bd 0c 1e 48 b9
       0.10916481 -0.022960102 -0.04245631 -0.0001908468
0001a0 b5 f1 01 3d 66 26 80 3d f8 90 a1 3d 55 22 c2 bd
       0.03172465 0.06257324 0.07888979 -0.094792046
0001b0 bb 79 fa bd 91 a4 7e 3d 7b d6 da bc dc d8 af 3d
       -0.122302495 0.06216866 -0.0267136 0.085862845
0001c0 0a 8d 4c bd 06 bf b4 3d 1c 4f a2 3c 36 24 02 3e
       -0.049939193 0.08825497 0.019813113 0.12709126
0001d0 f2 52 c5 bd 2e c8 92 bd cd e5 c3 3d 55 cb 23 3c
       -0.09634961 -0.071670875 0.095653154 0.009997209
0001e0 64 3b c6 bd 6b a8 9b bd 60 13 4c bb e3 6b 30 3d
       -0.096792966 -0.076004826 -0.0031139478 0.04307164
0001f0 13 11 f4 bd 3d d7 51 3d 26 5e 16 bd 53 68 00 bd
       -0.11917319 0.051230658 -0.03671088 -0.03134949

model.1.weight f4 [128]
000000 03 02 88 3f 81 c7 75 3f 8f 6f 6e 3f a8 65 8c 3f
       1.0625614 0.96007544 0.93138975 1.0968523
000010 8d 57 87 3f 9c dc 81 3f 08 f3 75 3f 31 72 81 3f
       1.0573593 1.014545 0.9607396 1.0112973
000020 81 19 58 3f a2 7c 63 3f c3 d8 84 3f 03 bd 82 3f
       0.84413916 0.8886205 1.037865 1.0213932
000030 aa 5b 84 3f 2b 0c 83 3f 03 37 6e 3f 67 4e 72 3f
       1.0340474 1.0238088 0.9305269 0.9465088
000040 4d 93 84 3f d4 c8 68 3f 0e 15 88 3f 3b 6a 8b 3f
       1.0357453 0.9093144 1.0631425 1.0891794
000050 a6 63 67 3f 23 79 8c 3f 50 d9 7f 3f e1 c3 80 3f
       0.90386426 1.0974468 0.9994097 1.0059777
000060 ca 17 87 3f 94 56 85 3f 83 82 81 3f 1b e3 85 3f
       1.0554135 1.0417047 1.0117954 1.0459932
000070 87 81 7d 3f 14 9b 4b 3f 1a 5b 84 3f 69 4d 96 3f
       0.9902577 0.79533505 1.0340302 1.1742374
000080 8d c9 92 3f 16 3f 7e 3f 8e 3c 70 3f 3b f4 6c 3f
       1.1467758 0.9931501 0.938424 0.92560166
000090 55 c3 6b 3f b6 ac 7c 3f 12 61 83 3f 03 28 8a 3f
       0.9209493 0.98701036 1.0263999 1.0793461
0000a0 0d 08 67 3f d9 31 6c 3f 85 be 84 3f 69 89 85 3f
       0.9024666 0.9226356 1.0370642 1.0432559
0000b0 23 e7 7a 3f e7 71 80 3f fd 51 75 3f 49 88 65 3f
       0.98008937 1.003476 0.9582823 0.8966108
0000c0 2e e2 63 3f 01 b7 88 3f 46 d7 8b 3f 07 70 7c 3f
       0.89017 1.0680848 1.0925071 0.9860844
0000d0 60 6f 52 3f aa 7c 83 3f 69 01 5f 3f 6a 2d 74 3f
       0.82201195 1.027242 0.87111527 0.95381796
0000e0 49 73 79 3f 03 c3 82 3f 37 10 74 3f 94 2e 86 3f
       0.97441536 1.0215763 0.9533724 1.0482965
0000f0 6e c8 74 3f 2d 38 7f 3f 8d e7 6a 3f e8 8a 73 3f
       0.9561833 0.9969509 0.9175957 0.9513383
000100 f0 80 8a 3f 4b 33 71 3f 09 52 76 3f 6a 9a 82 3f
       1.0820599 0.9421889 0.96218926 1.0203373
000110 a7 ca 6f 3f 2f c3 74 3f 51 09 80 3f f8 a0 79 3f
       0.936686 0.95610327 1.0002843 0.97511244
000120 09 53 88 3f b3 0b 70 3f 9c ff 88 3f 5c e4 6c 3f
       1.065034 0.9376785 1.0703006 0.9253595
000130 04 53 86 3f 41 28 84 3f 89 bc 54 3f ca 35 76 3f
       1.0494084 1.0324785 0.8310018 0.96175826
000140 12 92 7d 3f b1 2b 89 3f a1 43 7e 3f 04 9e 8b 3f
       0.9905101 1.0716459 0.99321944 1.0907598
000150 51 f4 55 3f 5f 81 83 3f 4d 2e 82 3f 9e 19 82 3f
       0.8357592 1.0273856 1.017038 1.0164068
000160 eb 82 85 3f cc 23 6a 3f 1a 39 7d 3f 95 04 7e 3f
       1.0430578 0.9146087 0.98915255 0.9922574
000170 3d 6f 82 3f fe b2 75 3f a6 fd 83 3f 5b 1e 83 3f
       1.0190197 0.95976245 1.0311782 1.0243639
000180 3f 60 82 3f 8a 85 6c 3f 02 7a 8e 3f 3f c7 7c 3f
       1.0185622 0.92391264 1.1130984 0.98741525
000190 f6 8f 89 3f 5a 87 81 3f db 0c 87 3f e6 d0 7c 3f
       1.0747058 1.0119431 1.0550798 0.98756254
0001a0 09 da 81 3f dc cc 8a 3f 77 fc 6a 3f d3 da 64 3f
       1.0144664 1.0843768 0.9179148 0.893964
0001b0 d3 53 80 3f 9b 8c 77 3f f5 6d 72 3f c0 b5 71 3f
       1.0025581 0.9669892 0.9469903 0.94417953
0001c0 5b 4f 80 3f 06 3b 8a 3f 4d 45 80 3f df 35 80 3f
       1.0024217 1.0799263 1.0021149 1.001644
0001d0 bb 81 74 3f 85 53 8f 3f 54 ed 7f 3f cf 24 7b 3f
       0.95510453 1.1197363 0.9997151 0.9810304
0001e0 0c 62 81 3f 66 05 7c 3f e6 d3 76 3f 35 cf 8c 3f
       1.0108047 0.9844574 0.9641708 1.1000735
0001f0 39 46 6f 3f fa 7e 7e 3f cc 7c 73 3f 33 65 88 3f
       0.93466526 0.994125 0.951123 1.0655884

model.1.bias f4 [128]
000000 86 8e 9a bd 79 20 4c bc 13 da 8c be 6f 48 e8 3d
       -0.075467154 -0.012458914 -0.27510127 0.113419406
000010 9a e3 b9 bc 99 a1 1a be 3d 49 3b bd 8f 7d a5 bd
       -0.022691537 -0.15100707 -0.045724142 -0.08080589
000020 59 e7 ef bd 5e 56 25 be 4a db 31 be fe da 1a be
       -0.11714048 -0.16146228 -0.17368808 -0.15122601
000030 b9 1c 77 be 9d c8 72 bd 9c 58 1a be 99 cd 0e be
       -0.2413205 -0.05927335 -0.15072864 -0.13945617
000040 80 80 19 be 52 6e 95 bd f2 f2 15 be a5 bc 28 3d
       -0.14990425 -0.072964326 -0.14643458 0.04119553
000050 80 d7 41 be 1d d6 53 be 76 82 eb bd f6 a8 54 3c
       -0.18929863 -0.20687146 -0.11499493 0.012979737
000060 58 16 ec bd 80 7d 11 be 03 4c a5 bd 6b 3b 6a be
       -0.11527699 -0.1420803 -0.08071139 -0.22874229
000070 cb 3c b0 bd be 6a e1 bd 0b 50 08 be 5a df 73 bd
       -0.08605345 -0.110066876 -0.13311784 -0.059539177
000080 f8 d2 75 bd 11 15 56 be 56 4c 39 bd 5b 72 13 be
       -0.06001565 -0.20906474 -0.045238815 -0.14399092
000090 87 1c 23 be af 02 67 be 68 ca 21 be ae a8 5e bd
       -0.15928851 -0.22559617 -0.15799868 -0.054360084
0000a0 11 92 04 be cb f4 dd bd bf 6e ee bd 30 75 02 be
       -0.12946345 -0.10837706 -0.11642217 -0.12740016
0000b0 3a 1b ed bd 06 e5 bf bd 18 60 c6 bd ba fd 29 be
       -0.11577459 -0.09369855 -0.09686297 -0.16600695
0000c0 70 d6 2b be f8 61 da bd e9 b3 08 be cc c2 ff bd
       -0.1678102 -0.10663217 -0.1334988 -0.124883264
0000d0 33 ed 01 be a6 e9 ef bd e6 55 47 be 52 c4 87 be
       -0.1268814 -0.11714487 -0.19466361 -0.26516968
0000e0 bb 74 31 be ff 01 de bd 5e ee c4 bd 74 c6 fc bd
       -0.17329685 -0.108402245 -0.096157774 -0.123425394
0000f0 ff 2d 45 be 8b 32 69 be c1 74 dd bd b9 78 4b be
       -0.19255827 -0.22773187 -0.10813285 -0.19870271
000100 7e 02 92 bd 99 ea cb bd 2b c8 3a be 93 c7 63 be
       -0.071293816 -0.09956855 -0.1824042 -0.222441
000110 fa 76 5e be 27 ae 2c be 77 da 64 bd 6e 4d 17 be
       -0.21725073 -0.16863309 -0.055872407 -0.14775631
000120 d6 f9 c9 bd 0a 1e 0d be 85 39 4f bd e7 69 4b be
       -0.098621055 -0.1378099 -0.050591964 -0.19864617
000130 6c af ab bd a4 f8 66 be 0a 32 8a be 25 a5 93 bd
       -0.083830684 -0.22555786 -0.26991302 -0.07209233
000140 0f a8 9a bd a3 d6 52 be a9 7e 17 be 3c 98 03 be
       -0.07551586 -0.2058969 -0.14794411 -0.12851042
000150 2b 25 42 be d0 0d d2 bd cc 07 a2 bd 0a 86 34 bd
       -0.18959491 -0.10256541 -0.079116434 -0.044073142
000160 40 73 97 bd 51 7b ef bd ac b0 d1 bc 22 02 1b be
       -0.07395029 -0.116934426 -0.025596939 -0.15137532
000170 c6 b5 37 be dc 0d 9e bd 03 76 77 be f4 6e 52 bd
       -0.17940435 -0.07717487 -0.24166112 -0.051375344
000180 16 a9 bc bc 64 ff f2 bd 5b c3 08 be 49 cc 64 be
       -0.023029845 -0.11865118 -0.13355772 -0.22343554
000190 94 68 0a bc c8 1a 04 be 6d c4 87 be 82 e6 8e bd
       -0.008447785 -0.12900841 -0.26517048 -0.069775596
0001a0 ac 16 9d bd ac 47 13 be c5 e7 83 bd 8e 2e 08 be
       -0.0767034 -0.1438281 -0.06440691 -0.13299009
0001b0 bf d5 23 be 30 59 57 be d1 6d 4e be e7 0a 46 be
       -0.15999506 -0.21030116 -0.20159079 -0.19340096
0001c0 91 09 f3 bd a7 da 3e 3b 34 bb 35 be 98 0a f2 bd
       -0.11867059 0.0029122026 -0.17747194 -0.11818427
0001d0 04 6e 10 be f2 56 d9 bd e1 4c 6c be 81 8d ba bd
       -0.14104468 -0.106122866 -0.23076202 -0.09109021
0001e0 30 05 3f be f4 b1 bc bd 0a 9d a8 bd 64 d2 b3 bb
       -0.18654323 -0.09213629 -0.08233078 -0.005487727
0001f0 bb 90 b2 bd c3 b8 a0 bd 08 fe 9e bd 39 07 69 bd
       -0.087190114 -0.078477405 -0.07763296 -0.056891654

model.1.running_mean f4 [128]
000000 fe 7e 5a 3d aa bf 01 be 53 da f8 3d f6 d3 b2 3d
       0.053343765 -0.1267077 0.12151017 0.087318346
000010 ca 1c 63 bb e6 1d fe 3b d9 db be bc f0 a6 be bd
       -0.003465461 0.007755029 -0.02329819 -0.093091846
000020 22 3c d6 3d c8 8a 6f bd 5e ab 41 3d 08 c4 bb bd
       0.10460688 -0.05848196 0.04728257 -0.09168249
000030 59 ff b1 3d b8 cf 02 bd 29 27 05 be 3f 99 8c bd
       0.08691282 -0.031936377 -0.1300322 -0.06865167
000040 3c 58 83 bc 3a cb 59 bd 9b 09 9b 3d be 87 5a bd
       -0.016033284 -0.053172328 0.075701915 -0.05335211
000050 bb 96 50 3d d2 a0 86 3d 4c a1 10 3d 23 63 1c bd
       0.050924998 0.06573643 0.035310075 -0.03818048
000060 51 8f 44 bc e0 17 bf bd 3c 02 0c bd c9 c6 17 be
       -0.01199706 -0.09330726 -0.03418182 -0.14821924
000070 a6 a8 c7 bd b2 56 7f bd f0 90 ce 3d ae 42 ab 3d
       -0.09748964 -0.06233854 0.100862384 0.083623275
000080 7b be 15 bd 96 81 44 3d f2 82 fd 3d 14 1a 34 3c
       -0.03655861 0.047975145 0.123784915 0.010992546
000090 a1 da 38 bd 20 32 d0 3d a4 b8 2e 3d a8 f2 cc bd
       -0.045130376 0.101658106 0.042656556 -0.100072205
0000a0 6f b0 84 3d af 26 ed 3d a6 7e 56 3d cf 0d aa 3c
       0.064789645 0.11579644 0.052366875 0.020758538
0000b0 e1 2c 45 bb cd e7 65 3d ef 3c e7 bd b9 32 ba 3d
       -0.0030086564 0.056129266 -0.11290919 0.09091706
0000c0 91 69 d0 3c f0 d6 0a be cf 21 32 3d a2 94 04 be
       0.025440963 -0.13558555 0.043489274 -0.12947324
0000d0 c1 a9 fe 3c 7f ca 14 be 94 b0 3b 3b 71 d5 9e bd
       0.031086804 -0.14530371 0.0028639184 -0.077555545
0000e0 34 57 b5 3d c7 19 4a 3d c3 d8 f0 3c 1f bd f4 3c
       0.08854523 0.04934099 0.029400235 0.029875336
0000f0 d8 e0 2f bd 3b 1b 4f 3d 37 bd 3b bd 5a 50 df 3d
       -0.042939037 0.05056308 -0.045834746 0.10903998
000100 e9 dc f4 bc 1b 68 e8 3d 7e f4 a0 3c 19 61 f3 3d
       -0.029890494 0.113479815 0.019647833 0.11883754
000110 df 44 f5 bd 86 47 eb bc cc c3 16 be 93 e7 8d bd
       -0.11976027 -0.028720628 -0.14723128 -0.06928935
000120 e9 5e 0a 3e 1c 02 9f bd 90 db fa bd f9 19 07 3e
       0.13512768 -0.07764074 -0.122489095 0.13193502
000130 3b 02 af 3d d1 b8 0c 3e 40 93 82 bd 0e 35 d0 3d
       0.08545347 0.13742377 -0.06375742 0.101663694
000140 08 d4 12 be dd a4 63 3d e6 0f b1 3d ba 21 3b bc
       -0.14338696 0.055577148 0.086456105 -0.011421615
000150 c2 73 af bd ec 02 24 bc c8 4c d7 3c 99 34 a2 bd
       -0.08567001 -0.010010462 0.02628173 -0.079201885
000160 ea 58 a4 bd 94 79 fb 3c 9f 45 91 bd ce ca 08 be
       -0.080247715 0.030697621 -0.07093357 -0.13358614
000170 d4 2a d5 3d 58 fb a0 3d 00 a4 28 bb 29 c0 00 3e
       0.104085594 0.0786044 -0.0025732517 0.12573303
000180 6b 9c 3e bc f6 fb ee 3c 7c 5f 8d bd e9 2d c7 3d
       -0.011633973 0.029172879 -0.06902978 0.097255535
000190 b7 85 2d 3e 34 a6 a8 3c d9 5a 63 bd ac 00 5a 3c
       0.1694554 0.020587064 -0.05550656 0.013305824
0001a0 06 22 16 3d e5 a4 9e 3d 29 d7 8e 3c a9 74 e6 bd
       0.03665354 0.07746295 0.01743658 -0.1125272
0001b0 00 9a b8 bd 07 7e 31 3d b4 b9 6c bd b8 56 b1 3d
       -0.09013748 0.04333308 -0.057794288 0.086591184
0001c0 8a e9 84 bd e0 92 a8 3d ad a6 6e 3d 8b 48 36 3e
       -0.064898565 0.08231139 0.058264423 0.1780111
0001d0 f4 81 c8 bd c4 56 53 bd 4d 89 15 3e 8e 68 01 3d
       -0.097904116 -0.051596418 0.14603157 0.03159385
0001e0 f5 30 ae bd f6 a4 7c bd 98 dc e5 3c 18 85 bf 3c
       -0.085054316 -0.061680757 0.028059289 0.023378894
0001f0 32 ff ef bd 73 28 4c 3d 36 5e 3e bd c2 98 bc bc
       -0.117185965 0.049843263 -0.046476565 -0.02302206

model.1.running_var f4 [128]
000000 4b 25 07 3f 08 98 27 3f 6f 17 55 3f 1f a7 2c 3f
       0.5279128 0.65466356 0.8323888 0.67442507
000010 ea 4e 86 3f d6 d5 31 3f 80 c5 25 3f fe 89 82 3f
       1.0492833 0.6946691 0.64754486 1.0198362
000020 10 76 46 3f 70 8d 6d 3f 01 74 3d 3f a3 bd 30 3f
       0.775239 0.9279394 0.7400513 0.6903936
000030 26 39 18 3f 7b db 9a 3f 5d ff 32 3f e2 43 80 3f
       0.594622 1.209823 0.69920903 1.0020716
000040 74 c7 8e 3f fc 37 4b 3f e8 e4 89 3f c8 9e 52 3f
       1.1154618 0.793823 1.0772982 0.8227353
000050 fa da 1f 3f b3 03 83 3f d6 4f 9a 3f 34 8d 56 3f
       0.62443507 1.0235504 1.2055614 0.8380921
000060 49 0f 2e 3f a7 8f 51 3f 06 6d 26 3f 58 ae 10 3f
       0.67992073 0.8185982 0.65010107 0.5651603
000070 7d 21 31 3f cd cf a3 3f 38 44 11 3f 80 40 12 3f
       0.69191724 1.2797791 0.5674472 0.5712967
000080 73 e7 1c 3f 8f db 8f 3f b1 5e 08 3f 4c 48 bf 3f
       0.61290663 1.1238879 0.5326949 1.4943938
000090 e4 d3 64 3f 68 35 42 3f 06 40 f3 3e af 34 91 3f
       0.8938582 0.7586274 0.47509784 1.1344203
0000a0 8b 4e 5d 3f 0f 2f 71 3f d0 1f 2d 3f ce 80 2c 3f
       0.8644797 0.9421243 0.6762667 0.6738404
0000b0 05 90 89 3f 5b 95 25 3f b9 10 48 3f 6a 44 3d 3f
       1.0747076 0.64681023 0.78150517 0.73932517
0000c0 64 c3 ba 3f f7 57 ea 3e 54 9a ee 3e 5f 2b 3f 3f
       1.4590878 0.45770237 0.46602118 0.74675554
0000d0 25 74 6a 3f 39 15 c0 3f 22 08 42 3f bc 99 40 3f
       0.9158347 1.5006477 0.7579366 0.7523458
0000e0 89 c8 09 3f 06 81 9b 3f c9 8a 3c 3f 08 57 13 3f
       0.5382162 1.214875 0.7364927 0.57554674
0000f0 f5 47 f3 3e a0 8a 71 3f b7 59 80 3f bf 41 89 3f
       0.47515836 0.9435215 1.0027379 1.0723189
000100 4d 2b 86 3f ac d4 06 40 a1 39 92 3f 78 b4 5e 3f
       1.0481964 2.1067305 1.1423837 0.86994123
000110 0e 8b 3c 3f 89 06 37 3f 9c df 61 3f 2f be 64 3f
       0.7364968 0.71494347 0.88231826 0.893527
000120 80 08 50 3f 6d 87 84 3f bb 35 51 3f 44 17 37 3f
       0.8126297 1.0353829 0.8172261 0.71519876
000130 f5 7e 82 3f c0 ff 00 3f 0b 14 74 3f 96 09 80 3f
       1.0194994 0.50390244 0.95343083 1.0002925
000140 57 26 30 3f f2 e9 19 3f 18 64 16 3f d9 09 37 3f
       0.688085 0.601226 0.5874648 0.714994
000150 03 12 74 3f 34 bb 1a 3f 13 1e 66 3f 97 9c 20 3f
       0.95339984 0.604419 0.8988964 0.6273894
000160 66 1c 3c 3f 6e 96 63 3f ee d4 4c 3f 4f 42 82 3f
       0.7348083 0.8890141 0.80012405 1.0176486
000170 f1 ef 4a 3f a6 eb 28 3f 13 2d 3e 3f fb 67 18 3f
       0.7927237 0.6598457 0.7428753 0.5953366
000180 89 8c 36 3f 9d 92 71 3f bf 6f 07 3f e7 09 15 3f
       0.7130819 0.9436434 0.52904886 0.58218235
000190 01 9b 7b 3f 16 7c e9 3f 86 e6 2d 3f 39 1f 44 3f
       0.9828339 1.8240993 0.67929876 0.7661014
0001a0 96 63 54 3f 26 0a 3a 3f 7a 68 a8 3f 58 a3 91 3f
       0.82964456 0.72671735 1.3156884 1.1377974
0001b0 3f bc 52 3f ad f0 12 3f 14 f8 38 3f d6 36 b1 3f
       0.8231849 0.5739849 0.7225354 1.384486
0001c0 82 0f 1e 3f 7b 23 ee 3e c2 23 35 3f 27 2e 53 3f
       0.61742413 0.46511444 0.7075769 0.824923
0001d0 11 40 15 3f 46 24 17 3f fb 60 61 3f 99 52 4c 3f
       0.5830088 0.59039724 0.88038605 0.79813534
0001e0 b5 c1 01 3f 76 1d 32 3f c4 1a 4d 3f 20 77 f8 3e
       0.506862 0.69576204 0.80118966 0.48528385
0001f0 bf 1b a0 3f bd bc 0e 3f 98 8d 54 3f d9 c3 1b 3f
       1.2508467 0.5575674 0.83028555 0.60845715

model.4.weight f4 [64, 128]
000000 c0 a4 92 bd 0d f8 6c 3d d4 e8 f7 3d 76 d3 73 be
       -0.0716033 0.057853747 0.12104955 -0.23811135
000010 e0 fb a5 bc 7c 04 ea 3d 79 4a 27 be 61 01 65 be
       -0.020261705 0.114266366 -0.16337003 -0.22363807
000020 bf d1 26 3c d0 b0 35 3c 01 fe cb 3d 9f 28 be bc
       0.010181843 0.011089519 0.09960557 -0.023212729
000030 5f a5 03 be 91 43 ac bd c5 f6 18 bd 01 4d f9 3d
       -0.12856053 -0.08411325 -0.037344713 0.121728905
000040 8c f5 be 3d 3d ef b1 bd ca 76 7e bd c2 fa 14 3d
       0.09324178 -0.08688209 -0.062125005 0.036371954
000050 7d 5b d0 bd 79 bd 24 bd e3 a1 07 3c 72 75 15 3c
       -0.101737 -0.040219758 0.008278343 0.009122239
000060 ad 0c 98 bd eb 0c 80 bd c9 60 f9 3d 8d cb b7 3c
       -0.07424293 -0.06252464 0.121766634 0.022435928
000070 d1 6e 04 be ef c1 d9 bc 53 92 99 bd ed f8 f0 bd
       -0.12932898 -0.026581733 -0.07498612 -0.11766229
000080 81 53 0b be ea d6 be bd 29 82 e4 3d aa 28 66 be
       -0.13606073 -0.09318335 0.111576386 -0.2247645
000090 ae be ed bd 43 3c b7 bc 30 b3 80 bc 36 67 96 3c
       -0.11608635 -0.022367602 -0.015710443 0.018359762
0000a0 e3 13 46 3d 16 36 0d be db 96 34 bd bb 50 34 3d
       0.04835881 -0.13790163 -0.04408918 0.044022303
0000b0 2e 5c 64 be bb 76 ea bd 44 67 ec bd af 8d 72 bd
       -0.22300789 -0.11448427 -0.11543134 -0.05921715
0000c0 c4 0a a6 3d 60 7d c8 3d bd 2d 05 be 72 77 dc 3d
       0.08107522 0.097895384 -0.13005729 0.1076497
0000d0 14 15 5f bd 83 99 7e 3d 62 03 10 be e6 7f 31 bd
       -0.05446346 0.06215812 -0.1406379 -0.043334864
0000e0 c4 4f 0a be 4d 8c ac 3c 19 4f af bd 22 9a 9f 3b
       -0.1350699 0.021062994 -0.085600086 0.004870669
0000f0 6a 2f 9d 3c 0a 5a 4e 3d 6b 8b ce 3d 92 3a 1f be
       0.019187648 0.050378837 0.100851856 -0.15549687
000100 bd a6 16 bd 83 88 7a bd 6a 52 f1 3c ec 1c 00 be
       -0.036780108 -0.061165344 0.029458243 -0.12511033
000110 63 5f ed 3c 82 51 a8 bd 88 56 07 be 84 b0 26 be
       0.028976148 -0.082186714 -0.13216603 -0.16278273
000120 5c 1f 40 be fc a4 51 3d 75 bc 76 bd 33 b3 f5 3c
       -0.18761963 0.051182732 -0.06023832 0.029992675
000130 c6 65 55 bd 9b 34 e0 3d ca a7 50 bc 4e 2e 84 be
       -0.05209901 0.10947534 -0.0127353165 -0.25816578
000140 56 26 52 be b2 13 46 3b 2f 6b b4 bd 3b d0 92 bd
       -0.20522436 0.0030224142 -0.08809506 -0.07168623
000150 42 c6 99 3c e0 02 33 be 94 0a 56 3c f3 4e 87 3d
       0.018771295 -0.17481565 0.013064045 0.06606855
000160 94 1b af bd 92 39 c5 3d b6 91 a3 bd 6c 75 73 3d
       -0.08550182 0.09630121 -0.079867765 0.059438154
000170 12 9a 16 3e 3d f4 db bc 93 31 5d bd c3 5f d6 bd
       0.1470721 -0.02684986 -0.054002356 -0.10467484
000180 6c c1 5c 3d ea 86 b0 3c fe 9e aa 3d d7 6f a9 bc
       0.0538954 0.021548707 0.083311066 -0.020683212
000190 09 16 ba bd b6 98 52 bc 51 2c c5 bd 23 26 b7 bd
       -0.09086234 -0.012853792 -0.09627593 -0.08942821
0001a0 1c e8 38 bd ef 3e 01 be 44 6a db 3d 0d 82 01 3e
       -0.04514323 -0.12621664 0.10713628 0.12647267
0001b0 ef d6 1e be e8 8c a7 3c 99 4e 28 3e 74 34 66 bd
       -0.15511678 0.020452932 0.16436233 -0.056202367
0001c0 8d 80 28 bc 71 74 21 be 48 b9 46 bb 47 3a 3e be
       -0.010284555 -0.15767075 -0.0030322839 -0.18576919
0001d0 cb 19 b8 bd 31 a6 42 bb 85 82 26 be d7 b5 23 3e
       -0.089892946 -0.0029701109 -0.16260727 0.15987335
0001e0 04 0b ee 36 20 1d c5 3d 84 f3 ec 3d 5d 1a 77 bd
       7.094235e-06 0.09624696 0.115698844 -0.060327876
0001f0 f8 be a9 3c 11 d1 0a bd 0b 7d 72 bc 70 4f 50 3d
       0.020720944 -0.033890788 -0.01480032 0.050857008
000200 cd bc bb bd 5f 24 01 bd ad 88 fb bc 39 1b 02 3a
       -0.0916687 -0.031528827 -0.03070482 0.0004963163
000210 8d 48 ae 3b 6c 5b 03 3d 77 7c 07 bc 87 35 26 3d
       0.0053187073 0.03206961 -0.008269421 0.04057839
000220 38 b2 56 bd 6a 7e be bc 59 a6 4d 3d d8 96 fc 3d
       -0.052416056 -0.023253638 0.05020747 0.12333459
000230 5c e5 14 3e e4 b7 4c 3d 5f f2 82 bd da 0b 44 3d
       0.14540619 0.04998006 -0.06393885 0.047862865
000240 e1 87 0a 3d 99 8c b8 3d 16 31 e9 3c ef 5b 2b bd
       0.03382099 0.09011192 0.028465789 -0.04183572
000250 44 51 03 3d ac 0b 0d bd 10 30 07 be 35 49 25 be
       0.032059923 -0.03443496 -0.13201928 -0.16141208
000260 26 b6 82 bd 55 8f a7 bd 07 54 8c 3d df 94 01 be
       -0.06382398 -0.08181635 0.068519644 -0.12654446
000270 2c b3 64 3c 0b df bc 3d 28 0b 27 be a1 a9 bc bd
       0.0139587335 0.092222296 -0.1631285 -0.09212042
000280 b5 42 d6 bd e8 86 82 3c c4 7f 4a bd 01 6b 66 bd
       -0.10461942 0.015933469 -0.049438253 -0.05625439
000290 5b d5 5e 3c c3 a5 2f 3d 6a 08 a4 3d a7 5e a7 bb
       0.013600673 0.042882692 0.08009417 -0.005107719
0002a0 6f ab 6b 3d f1 a3 a9 bc 78 8a ff bd 1c 41 fa bd
       0.05753654 -0.020708056 -0.12477583 -0.1221945
0002b0 83 0a d9 3d f7 69 20 bd cf 9a ea bd 70 03 43 3d
       0.10597708 -0.039163556 -0.11455309 0.0476107
0002c0 fd c7 a9 3d f4 d6 03 be 6e ce 03 be 8f 83 9b bd
       0.08290098 -0.12874967 -0.12871715 -0.07593452
0002d0 44 ff 65 3d 23 2e f9 bb 4f 89 e4 3c d0 35 20 ba
       0.056151643 -0.007604377 0.027897505 -0.00061115343
0002e0 69 37 9d bc 13 7d 4f bc 67 8e 9b bd f0 6d 97 3d
       -0.01919146 -0.012664097 -0.075955205 0.07394016
0002f0 a8 a3 91 bd 49 57 82 bd 17 32 96 bc b1 aa 10 3e
       -0.07111293 -0.063643046 -0.018334432 0.14127614
000300 d7 69 8d 3c e9 7a 0d 3c 8f f0 66 bd bb d1 c1 bd
       0.017262382 0.008635261 -0.05638176 -0.09463831
000310 5c e9 b2 bd 90 41 c5 3c 5c bc 14 be e6 d1 fd 3d
       -0.08735916 0.024079114 -0.14524978 0.123935506
000320 08 82 aa bd ee 86 f5 3d 37 57 19 bd 5e 93 67 bd
       -0.08325583 0.119886264 -0.03743669 -0.056537025
000330 ae 94 06 3d 1c 69 8b bd 68 c0 e1 bd 6b d0 d3 bc
       0.032856636 -0.068071574 -0.11023027 -0.025856217
000340 d8 ee cb bd 90 52 cd 3d bd 39 d6 3b 0a 4a 6d 3d
       -0.09957665 0.10025513 0.0065376447 0.057931937
000350 2b 70 db 3c 39 2f 90 bd 52 4f 11 3c 14 38 09 3d
       0.026786884 -0.07040257 0.008869009 0.033500746
000360 4e 4f 0b bc 21 4a 09 3d aa c5 f2 3d ed a8 3b bd
       -0.008502794 0.03351796 0.11854108 -0.045815397
000370 52 1e 31 3e 7e 9b 62 3b 52 e7 68 bc 9e 17 c0 3d
       0.17296723 0.0034577544 -0.014215307 0.093795046
000380 6c d2 9e bc af f3 da 3c 0c 8a 90 bc e2 94 2e bd
       -0.019387446 0.026727526 -0.01764395 -0.042622454
000390 61 e1 88 bd f2 19 fe 3d e8 90 df 3d d0 7c be 3d
       -0.066836126 0.124072924 0.109163105 0.0930115
0003a0 3d bf 00 3c 33 a6 7d 3d a2 3e d6 3d eb fa bc 3d
       0.007858095 0.061926078 0.10461165 0.09227546
0003b0 e3 43 80 3d 72 a1 b4 bc 0b c0 d3 3d 3e fb 9b bc
       0.06262948 -0.02204964 0.10339364 -0.0190407
0003c0 66 42 db 3d 14 70 f2 bc d4 30 d2 38 82 b4 7e 3d
       0.10706024 -0.029594459 0.00010022675 0.062183864
0003d0 b9 bc 84 3d ae 07 33 bd 7c 70 82 bd 00 b1 4c bd
       0.064813085 -0.043708496 -0.06369111 -0.049973488
0003e0 4d 6e dd 3d 57 cc 03 3d ac 0d 9e bd 34 3b f1 bd
       0.10812054 0.032177296 -0.077174515 -0.1177887
0003f0 86 e1 3f 3b 77 9d ed bb ca bc 9c 3c 41 ae bd 3b
       0.002927871 -0.0072514373 0.01913299 0.005788595

model.4.bias f4 [64]
000000 da 7e b8 3c fa 6f c1 3c d8 92 a4 bd 07 16 03 bc
       0.022521425 0.023612965 -0.08035821 -0.008000857
000010 55 3f 85 3c 1c a4 11 bc bb b2 9a bd 82 9b 8c bd
       0.01626555 -0.008889224 -0.075536214 -0.06865598
000020 c4 c7 90 3c 05 1a 4f bb e3 88 10 bd 28 e3 86 bd
       0.01767338 -0.0031601202 -0.035286795 -0.06586295
000030 72 1e aa bb 3e db 5b 3d 1c c6 53 bd 79 58 1e bd
       -0.0051916176 0.053675883 -0.051702604 -0.038658593
000040 b7 92 d8 3c bd f0 46 bd a2 7b 9e 3c 86 ab 8e 3d
       0.026437147 -0.04856943 0.019346062 0.06966309
000050 02 0e 38 bd 40 fb 7f bc 7f bd 23 bc 9d 94 2e bc
       -0.044935234 -0.0156238675 -0.00999391 -0.010655549
000060 3f 07 88 bc 51 f9 db 3c 5b 3c b6 bd f6 16 64 3d
       -0.016605018 0.026852282 -0.08898231 0.05568596
000070 b7 c0 5d bd c8 c5 35 3d c9 ea ee 3c 9e e9 80 bd
       -0.054138865 0.044378072 0.029164689 -0.06294559
000080 e2 d5 d0 bc 69 42 b4 bd fe 19 ad 3c a3 58 4f bd
       -0.025492612 -0.08801729 0.021130558 -0.05062164
000090 87 45 f3 bc 05 cf 02 bd ee 36 26 bd ed b8 f6 bc
       -0.02969624 -0.03193571 -0.04057973 -0.030117476
0000a0 6d b5 41 bc 23 bb 53 bd 04 1e d2 3b ba d9 a7 bb
       -0.01182304 -0.05169214 0.0064122695 -0.0051223906
0000b0 0b 57 d2 3b a5 73 92 bb b6 0b 8e bd 52 36 0c bd
       0.0064190677 -0.0044693523 -0.069358274 -0.03423149
0000c0 5a 30 80 bd d9 15 d6 bb 97 a2 a0 3d c5 75 90 bd
       -0.06259222 -0.006533366 0.078435116 -0.07053713
0000d0 f7 e1 81 3c bc 12 84 3d 32 d5 36 bd 0e 51 a1 3c
       0.015854819 0.06448886 -0.044636913 0.01969197
0000e0 96 41 07 bd 4a fe e4 bc 2f 46 36 3c b9 fb 43 3c
       -0.033021532 -0.027953286 0.0111251315 0.011961871
0000f0 83 7c 8a bc 2f 1d 74 bd 75 f4 2b bd b8 50 ab bd
       -0.016905075 -0.059598144 -0.04198118 -0.08365005

model.5.weight f4 [64]
000000 02 8b 46 3f d7 43 42 3f 27 11 59 3f 5f 94 59 3f
       0.7755586 0.75884765 0.847918 0.8499202
000010 f4 cf 49 3f 00 20 48 3f ce 45 54 3f c3 1e 39 3f
       0.78832936 0.7817383 0.82919014 0.72312564
000020 d6 50 60 3f f6 59 58 3f 9b fb 4f 3f 08 7b 5d 3f
       0.87623346 0.8451227 0.81243294 0.86515856
000030 68 7f 59 3f 67 c3 4e 3f 1c 23 5d 3f 11 44 3b 3f
       0.8496003 0.8076691 0.863817 0.73150736
000040 13 bb 57 3f 33 d2 54 3f 6c 88 55 3f 10 ce 45 3f
       0.8426983 0.8313324 0.8341129 0.7726755
000050 6e d5 52 3f 79 61 4a 3f fa 72 60 3f 00 c1 55 3f
       0.8235692 0.7905498 0.8767544 0.8349762
000060 29 01 55 3f cb 56 2d 3f 8c 3a 5f 3f ae c2 51 3f
       0.83204895 0.6771056 0.8719871 0.8193768
000070 4c 4b 33 3f 90 4c 63 3f a6 58 48 3f 8b 8d 47 3f
       0.7003677 0.887887 0.78260267 0.7795035
000080 4e b4 5d 3f 48 20 65 3f 9a 4a 64 3f 20 c6 67 3f
       0.8660325 0.8950238 0.8917633 0.9053669
000090 ef ce 57 3f ae 5f 3c 3f 01 39 5d 3f d4 9e 66 3f
       0.8430013 0.73583496 0.86415106 0.900861
0000a0 7d d6 64 3f a7 9d 5b 3f 79 e6 40 3f 2b d7 46 3f
       0.89389783 0.85787433 0.75351673 0.7767207
0000b0 21 fe 59 3f 7b 64 60 3f b8 b4 5c 3f d9 ea 54 3f
       0.85153395 0.8765332 0.86213255 0.8317085
0000c0 26 86 5a 3f 34 31 67 3f 2a 7b 5f 3f 47 b0 4c 3f
       0.85360944 0.90309453 0.8729731 0.7995648
0000d0 25 bd 48 3f 0c 4b 4b 3f ab a8 53 3f ba 7b 4f 3f
       0.7841361 0.7941139 0.8267924 0.81048167
0000e0 2b 17 63 3f 74 c6 65 3f 08 28 67 3f 9e af 50 3f
       0.88707227 0.8975594 0.9029546 0.8151797
0000f0 16 d6 4f 3f bf 85 63 3f e4 43 5b 3f 7e 8b 60 3f
       0.81186044 0.88875955 0.8565047 0.8771285

model.5.bias f4 [64]
000000 ff 66 25 be 5d 02 48 be e2 1e 35 be f0 c1 71 be
       -0.16152571 -0.19532152 -0.17687562 -0.23609138
000010 fd 83 19 be c0 d4 00 be 4f 94 08 be 16 07 74 be
       -0.14991756 -0.12581158 -0.13337825 -0.23830828
000020 99 19 66 be e4 44 1b be 83 1e e2 bd aa c7 58 be
       -0.22470702 -0.15162998 -0.11040976 -0.21169916
000030 88 14 11 be 0f c0 22 be 87 71 55 be 2c b0 6c be
       -0.14167988 -0.15893577 -0.20844088 -0.23114079
000040 8c c1 82 be 06 6c 69 be e0 32 4f be 12 29 60 be
       -0.2553829 -0.22795114 -0.20234251 -0.21890667
000050 73 c3 57 be 4e 5d 39 be 83 e3 53 be 96 ae 39 be
       -0.21070652 -0.18101999 -0.20692258 -0.18133005
000060 ee ad f5 bd 16 9a a1 be d1 04 79 be 31 c9 33 be
       -0.11996065 -0.3156287 -0.24318244 -0.17557217
000070 d8 4c 7f be ed 83 02 be bc 0e 54 be 67 b3 37 be
       -0.24931657 -0.12745638 -0.20708746 -0.1793953
000080 bf 35 85 be 3e bd 21 be f4 40 41 be c0 20 5f be
       -0.26017568 -0.15794846 -0.18872434 -0.21789837
000090 6d 49 54 be 11 b7 3c be fa 39 25 be 01 8f 15 be
       -0.20731135 -0.1842921 -0.16135398 -0.14605333
0000a0 68 30 51 be e3 84 47 be 20 65 63 be d2 fc 82 be
       -0.20428622 -0.19484286 -0.22206545 -0.25583512
0000b0 9f d0 5a be 3a 92 36 be 1e 26 0e be 35 89 7f be
       -0.21368645 -0.17829219 -0.13881728 -0.24954684
0000c0 2f 25 5b be 7e 3a 38 be 99 94 72 be ba 85 89 be
       -0.21400903 -0.17991063 -0.23689498 -0.26859838
0000d0 03 13 71 be ff 9e 75 be 5d 27 31 be 24 16 69 be
       -0.23542409 -0.23986433 -0.17300172 -0.22762352
0000e0 e8 06 5e be 49 00 1b be cf 5f 31 be 5b 19 9e be
       -0.21682322 -0.15136828 -0.17321704 -0.3087872
0000f0 aa f1 5c be 74 f9 59 be 21 81 0b be 4a 5d 2e be
       -0.21576563 -0.21286565 -0.13623478 -0.17027774

model.5.running_mean f4 [64]
000000 09 98 ba bf 2e 0c 26 be dc 24 f5 be 95 10 4c be
       -1.4577647 -0.16215584 -0.47879684 -0.199282
000010 b3 17 b1 bf 9f 4a 52 bf ea 5d 42 bf ff 94 86 be
       -1.3835357 -0.8214511 -0.7592455 -0.2628555
000020 7d 68 67 bf cc 97 e8 bf d1 fc ac be e1 66 5f bf
       -0.9039381 -1.8171325 -0.33786634 -0.87266356
000030 82 4a 8e bf 98 2f dc be d1 b9 29 bf 2c 4e f9 be
       -1.1116488 -0.4300506 -0.6629916 -0.48692453
000040 25 bb 0c bf e0 61 01 bf 13 b8 d5 be 96 19 61 3f
       -0.5497306 -0.5053997 -0.41742 0.87929666
000050 7c 00 80 3e ff 8c 76 bd e5 03 8f bf 6d ef 80 bf
       0.2500037 -0.060193058 -1.1173064 -1.0073067
000060 dc f2 88 bf c0 f0 3c bf 22 c5 92 bf f4 d1 ab be
       -1.0699115 -0.73804855 -1.146641 -0.3355862
000070 3c 16 44 bf 83 1c af be c6 2e 23 3e 99 72 9c bf
       -0.76596427 -0.3420144 0.15935811 -1.2222472
000080 0c b0 ac bf b6 37 2f bf cf 73 3b bf 0f db 9a bf
       -1.3491225 -0.68444383 -0.73223585 -1.2098101
000090 02 e0 16 be 6e 17 25 bf d6 30 9d bf d9 2e 7e bf
       -0.1473389 -0.64488876 -1.2280529 -0.99290234
0000a0 5c 07 53 bf 17 5a 90 bf 81 41 92 3e 14 c7 a7 bf
       -0.82433105 -1.1277493 0.285656 -1.3107629
0000b0 44 ee 27 bf fe c4 6e bf 0d 16 31 bf e1 f2 35 bf
       -0.6559794 -0.93269336 -0.6917427 -0.7107373
0000c0 8c 4b 13 bf 94 47 8e bf 25 c9 83 bf 06 11 2d bf
       -0.5753715 -1.1115594 -1.029576 -0.676041
0000d0 a7 48 b1 be ba e0 99 bf 39 0d 0c bf a9 85 4b bf
       -0.34625742 -1.2021706 -0.54707676 -0.79500824
0000e0 a8 08 8c be 34 78 67 bf bd 0a 80 bf 86 05 d7 3e
       -0.27350354 -0.9041779 -1.0003277 0.41996402
0000f0 fc 08 2b bf 55 3e 28 bf 48 b7 53 bf 2c 7d a1 bf
       -0.66810584 -0.6572011 -0.8270154 -1.2616324

model.5.running_var f4 [64]
000000 72 23 c4 3f 9a 52 d6 3e 28 c7 3d 3f 29 42 25 3f
       1.5323317 0.41859895 0.74132013 0.6455408
000010 44 86 86 3f 8c a4 55 3f fa b9 98 3f a6 6b b8 3e
       1.0509725 0.83454204 1.1931756 0.3601963
000020 a9 8f 24 3f 07 12 8d 3f 64 25 81 3f fd 4f 31 3f
       0.6428171 1.1021127 1.0089536 0.6926268
000030 88 52 c7 3f d9 fd 31 3f 44 15 2d 3f c0 49 6a 3f
       1.5572062 0.69527966 0.67610574 0.91518784
000040 70 81 7c 3f 4a f9 4e 3f 0f 49 33 3f de f1 31 3f
       0.98635006 0.80849135 0.70033354 0.69509685
000050 bb 13 13 3f 4d ea 15 3f a0 ef 3c 3f f7 19 6a 3f
       0.5745198 0.5856064 0.7380314 0.9144587
000060 04 4e 49 3f 9a a0 7a 3f 5b 61 a2 3f 3f 12 0c 3f
       0.7863467 0.9790131 1.268596 0.5471534
000070 49 4c c6 3e 90 d1 3e 3f db 58 fc 3e 89 e4 26 3f
       0.38730076 0.74538517 0.4928654 0.65192467
000080 c5 27 65 3f 5b e0 33 3f d8 cc 21 3f be ff 71 3f
       0.8951381 0.70264214 0.6320319 0.94530857
000090 6e df 73 3f 1d 75 3e 3f 51 1f 8a 3f 1b 7c 96 3f
       0.952628 0.7439745 1.0790807 1.1756624
0000a0 5e b4 6e 3f 20 88 a3 3f 7d 06 d3 3e 65 bd 8b 3f
       0.9324397 1.2775917 0.41215888 1.0917174
0000b0 d8 a6 42 3f ec ec 57 3f 16 d4 3b 3f d0 40 4f 3f
       0.76035833 0.8434589 0.7337049 0.8095827
0000c0 71 d9 50 3f d2 e3 70 3f 74 56 71 3f bf ae 59 3f
       0.8158179 0.94097626 0.9427254 0.85032266
0000d0 0c bb 13 3f a4 b0 8a 3f 55 17 35 3f b6 9e 3f 3f
       0.57707286 1.0835156 0.70738727 0.7485155
0000e0 61 33 5c 3f 31 dc 1c 3f bd 8a 68 3f f1 d1 3f 3f
       0.860159 0.61273485 0.908367 0.7492972
0000f0 f1 98 89 3f 6a 20 6d 3f 35 de 4d 3f 06 ae 44 3f
       1.0749799 0.92627585 0.80417186 0.7682804

model.8.weight f4 [2, 64]
000000 32 52 b2 bd 20 1d 7f bb 0c d5 a6 bc c9 70 3e bd
       -0.08707084 -0.0038927272 -0.02036526 -0.04649428
000010 d3 4e 67 bd 2e be a8 bd 05 ee b6 bd a9 df 7e bd
       -0.056471657 -0.08239399 -0.089321174 -0.062225018
000020 d7 e8 11 bd af 1e 12 3d d5 53 b3 bd 5f 6e 76 bc
       -0.035622444 0.035673793 -0.08756224 -0.015040963
000030 86 ce c6 bd 77 bc 50 bd 55 7b a1 bd a0 e3 ec 3d
       -0.0970736 -0.050960984 -0.07884852 0.115668535
000040 4e a3 d7 bd 4b e7 8c bd ee 5a 1f 3d a2 1f 05 3b
       -0.10529195 -0.06880053 0.038905077 0.0020313044
000050 68 9e 26 bc 30 e5 b3 bc 4c a1 1c bd 68 01 1f bb
       -0.010169603 -0.021959871 -0.038239762 -0.0024262313
000060 62 6f 86 3b cf a2 e6 3c 46 a4 cf bd 50 4b 01 3d
       0.0041026333 0.028153805 -0.101387545 0.031565964
000070 35 4d b0 3c 51 a5 e3 3c 63 03 30 bc 0e fc 32 bc
       0.02152119 0.02778879 -0.010742995 -0.010924352
000080 9e 07 10 bd bc 77 8c 3c 51 08 86 bd 98 d1 83 ba
       -0.035163514 0.017146938 -0.06544555 -0.0010056971
000090 a2 f4 68 3d 88 bb 4b 3c d9 40 86 bb 75 f1 06 3e
       0.056873925 0.012434848 -0.004097086 0.13178046
0000a0 e5 36 3c 3d 6a 60 55 bd 26 26 0e bd 4f 72 05 3d
       0.04595079 -0.0520939 -0.03470435 0.032579716
0000b0 33 af 7a bd a0 eb 49 bc 52 f3 ce 3d 8f 9a 1e bd
       -0.06120224 -0.012324244 0.101050034 -0.038721617
0000c0 99 65 83 bd 4c 6b ad 3d 4c b2 59 bd bc fa 89 3c
       -0.064158626 0.08467731 -0.053148553 0.016843192
0000d0 b1 f5 89 3d 13 ba c3 bd 5c 60 34 bd ee 4e 94 3d
       0.06736315 -0.09556975 -0.044037208 0.07241617
0000e0 16 95 51 bc 85 73 3c bd 5c 22 1d 3d be 92 04 bd
       -0.0127918925 -0.046008606 0.038362846 -0.032366507
0000f0 f8 63 d3 3d 98 ce 18 3d 21 28 cb 3c b6 62 74 bd
       0.10321802 0.0373064 0.024799408 -0.05966445
000100 1d c8 28 bd 18 f5 df bc 11 f9 4d 3c 43 2c ca bd
       -0.041206468 -0.02733855 0.012571589 -0.098717235
000110 35 06 c9 bb 9d f3 98 bc fa 4e 3c bd 7e bb 98 bd
       -0.006134773 -0.018670851 -0.045973755 -0.07457636
000120 e5 c1 2c 3c c8 47 81 bc ae 4a f5 bd 01 58 bd 3c
       0.010544275 -0.015781298 -0.11977135 0.023113253
000130 4e b7 55 bd 98 1b a7 bc 28 27 fe bc 6a 69 ba 3d
       -0.052176766 -0.0203989 -0.03102453 0.091021374
000140 c0 5d 89 bc 4f 38 e4 bc 8e 35 04 bd 9d 2e 4c 3d
       -0.016768336 -0.027858881 -0.032277636 0.04984914
000150 cc 82 19 3c 5a a7 fc b9 96 c4 50 3d ec ac 19 3d
       0.009369563 -0.00048189872 0.05096873 0.037518427
000160 49 20 96 3c 02 83 1c 3d 36 49 2d bd f2 05 5f 3c
       0.018325942 0.038210876 -0.042306148 0.013612257
000170 5f 66 5e 3c bf da b2 3d 6a 94 55 bd 2a e5 ee bc
       0.013574212 0.08733129 -0.05214349 -0.029162008
000180 68 c7 a6 bd 95 fc b4 3d 43 a0 99 3c 1f 2f 7d 3d
       -0.081435025 0.08837239 0.018753177 0.061812516
000190 15 01 1b 3c c8 1e 99 ba a8 fe 8d bd e3 e1 3d 3d
       0.009460707 -0.0011682147 -0.069333375 0.046358
0001a0 f5 0a bd 3d 88 bb 2b bc 02 22 3c bd e6 28 37 bd
       0.092306055 -0.010481723 -0.04593087 -0.04471674
0001b0 83 c1 6e bc 09 4c 5c 3d 72 8a 86 3d c6 b0 f2 bb
       -0.014572504 0.05378345 0.06569375 -0.007406327
0001c0 83 0c 72 bc 49 6a 82 3c 6b 7d 2f 3c e0 71 09 3e
       -0.014773491 0.015919821 0.010711054 0.13422346
0001d0 79 3c 07 3d 28 c6 2a bd 37 26 01 bd 88 a4 76 3b
       0.033016656 -0.041692883 -0.031530585 0.003763469
0001e0 a4 6f a0 3d 39 95 9e 3c c9 05 b4 3b 9f 9a a4 bd
       0.07833794 0.019358264 0.0054938537 -0.08037304
0001f0 b5 3c 5e 3d 56 41 40 bd 03 c1 ab bc 51 cf d9 3a
       0.054257113 -0.04693731 -0.020966059 0.0016617571

model.8.bias f4 [2]
000000 01 dd ad 3d 5a 32 02 3c
       0.08489419 0.007946575
