src/modelDevelopment/training/model_files/deep_mlp_model_diff.pt (torch, 24635 bytes, 14 tensors)

model.0.weight f4 [64, 32]
-0.18977877 -0.06316583 -0.048054736 -0.1566433 0.08593928 -0.16113621 -0.08007953 0.10849381
0.044767637 0.05921943 0.01900324 0.20300066 0.022442771 0.0011992869 0.16907994 -0.14227691
-0.12730768 0.08500716 0.05448689 -0.07079236 -0.112417035 -0.20941143 0.04276071 -0.12211965
0.071563385 -0.17704648 0.01959797 -0.13196391 -0.12130065 -0.015496791 0.013075572 -0.059743326
-0.15323134 0.017513452 -0.085983895 0.09744827 0.15855744 0.00048338517 -0.054922696 -0.052608144
0.19681829 -0.108804055 0.14834836 0.13624696 0.040633045 0.08625531 0.055510875 0.10874795
0.08000466 -0.28121442 -0.042907566 0.19108492 0.022827227 0.16707614 0.04337347 0.055069234
-0.1474467 -0.12001174 -0.026610132 -0.28974873 -0.038552318 0.0055284966 0.065326504 -0.19182497
0.0018387688 -0.15395811 0.035856035 -0.16740833 0.09317407 -0.05623601 0.12747198 0.15314943
-0.008675605 0.043756664 -0.08908032 0.067930534 -0.20280983 -0.07705638 -0.12387929 0.049707495
-0.06269852 0.10096553 -0.09062258 -0.09793357 0.021262279 0.1870876 -0.027954243 0.0057026204
0.14038637 0.15724638 -0.07486337 -0.05723426 0.015318501 -0.20920956 0.22692566 -0.026376128
-0.03090257 0.18719989 0.1218968 0.10916072 -0.18546034 -0.1647075 -0.04369486 -0.21341297
-0.08546285 -0.18573475 0.009772765 -0.10291514 -0.089787774 -0.1209812 0.1311402 -0.14039889
0.15907364 -0.10759809 -0.047745496 0.07104044 -0.003397104 -0.08022039 0.07868786 0.073550805
0.090636835 -0.049189653 -0.22222286 -0.18207893 -0.027882213 0.11997934 -0.029953448 -0.14349121
-0.12604363 0.1436598 -0.043278147 -0.06427486 -0.14429663 0.10854302 0.12181075 0.10275144
-0.08264143 -0.1547461 -0.12776339 -0.1446135 -0.1881133 0.034248643 0.046049464 -0.25449896
-0.057888024 0.02653565 -0.0034093307 -0.055143263 0.040887102 0.01767065 0.115357615 -0.11299946
0.07200361 0.115932 -0.014043611 -0.002831513 0.21460693 0.043272503 -0.15161474 -0.067113176
-0.061622642 -0.032725126 -0.2937352 0.10773359 0.17207727 -0.15051964 -0.06352429 -0.11574662
0.1576254 0.20658307 -0.13587083 -0.043480042 -0.10916116 0.080792636 -0.031126272 0.12916194
0.0234975 0.040383793 0.04634807 0.018769845 -0.0978661 0.26973578 -0.06520605 -0.051793147
0.10890394 -0.12372185 0.07296887 -0.00012215058 -0.060052276 -0.0012004015 0.097573325 0.09868726
-0.12750648 -0.036818136 -0.118853845 0.07768521 -0.07300296 0.083127454 -0.18750618 -0.020674447
0.117286146 -0.08912782 0.09881697 -0.22770715 0.12277303 0.11326932 -0.08190618 -0.11837102
-0.15750611 0.080542564 0.08935882 -0.13588426 -0.02417336 -0.026322598 -0.05859564 0.22641738
0.0025806702 0.13040447 0.06594036 0.0023010198 -0.008129614 -0.09988829 -0.051298376 -0.07673733
0.069479644 0.0032331697 0.020879583 -0.036666 -0.1309722 0.19286166 0.011816242 0.04484953
-0.18854631 -0.19483827 0.02191398 -0.10747104 0.13515893 0.074323684 -0.028206974 -0.057204243
0.061565794 0.011932674 -0.07793335 -0.10522981 0.045175903 -0.052740738 0.021705966 0.057225022
-0.18585688 -0.109054536 -0.12067908 0.14171089 0.12724566 -0.15777647 -0.21495071 0.16320316
00000000: 5e55 42be 165d 81bd 0bd5 44bd 1a67 20be
00000010: ef00 b03d e400 25be bd00 a4bd 0132 de3d
00000020: 455e 373d 1390 723d afac 9b3c 68df 4f3e
00000030: e7d9 b73c 6431 9d3a 4b23 2d3e 0ab1 11be
00000040: f25c 02be 3c18 ae3d a52d 5f3d 96fb 90bd
00000050: e73a e6bd f36f 56be db25 2f3d de19 fabd
00000060: d38f 923d ac4b 35be ec8b a03c 8c21 07be
00000070: 7a6c f8bd 41e6 7dbc ed3a 563c 6bb5 74bd
00000080: ade8 1cbe 5f78 8f3c 5318 b0bd f592 c73d
00000090: e25c 223e dc6e fd39 9ff6 60bd a37b 57bd
000000a0: bc8a 493e a9d4 debd a2e8 173e 5384 0b3e
000000b0: d66e 263d a0a6 b03d 5f5f 633d 3fb7 de3d
000000c0: 7cd9 a33d 56fb 8fbe d8bf 2fbd c4ab 433e
000000d0: 2a00 bb3c 0216 2b3e 61a8 313d 4790 613d
000000e0: 45fc 16be b7c8 f5bd 7efd d9bc f259 94be
000000f0: 09e9 1dbd 6428 b53b e7c9 853d c46d 44be
00000100: d802 f13a 32a7 1dbe c7dd 123d 176d 2bbe
00000110: 0cd2 be3d bb57 66bd 0488 023e 34d3 1c3e
00000120: 2024 0ebc 303a 333d be6f b6bd 2a1f 8b3d
00000130: 61ad 4fbe bccf 9dbd 6db4 fdbd 169a 4b3d
00000140: 1568 80bd 04c7 ce3d 5598 b9bd 6591 c8bd
00000150: 3b2e ae3c e493 3f3e 4c00 e5bc 0cdd ba3b
00000160: 72c1 0f3e 3205 213e f751 99bd 796e 6abd
00000170: 73fa 7a3c 083b 56be 335f 683e c012 d8bc
00000180: 6327 fdbc 54b1 3f3e 08a5 f93d a88f df3d
00000190: 51e9 3dbe 15a9 28be 62f9 32bd ee88 5abe
000001a0: 2607 afbd 4031 3ebe f31d 203c 2cc5 d2bd
000001b0: a7e2 b7bd fec4 f7bd 9e49 063e bac4 0fbe
000001c0: 33e4 223e 635c dcbd c890 43bd a67d 913d
000001d0: f3a1 5ebb 964a a4bd 1a27 a13d cea1 963d
000001e0: ce9f b93d 177b 49bd 648e 63be e672 3abe
000001f0: 3d69 e4bc bab7 f53d ef60 f5bc 5cef 12be
00000200: 9511 01be 8e1b 133e 6d44 31bd 8aa2 83bd
00000210: 7fc2 13be ce4b de3d ea77 f93d 596f d23d
00000220: e93f a9bd c375 1ebe 68d4 02be 9015 14be
00000230: c6a0 40be 4e48 0c3d 5d9e 3c3d b04d 82be
00000240: fe1b 6dbd 4b61 d93c 146f 5fbb e7dd 61bd
00000250: 3c79 273d 0ac2 903c 9d40 ec3d 436c e7bd
00000260: a176 933d c26d ed3d 2c17 66bc e890 39bb
00000270: ebc1 5b3e 823e 313d e540 1bbe a272 89bd
00000280: 0668 7cbd c80a 06bd 7664 96be 6ea3 dc3d
00000290: 0635 303e d221 1abe 0619 82bd 900c edbd
000002a0: 8e68 213e 838a 533e b921 0bbe 2118 32bd
000002b0: e38f dfbd 9c76 a53d 86fc febc 0743 043e
000002c0: d47d c03c 7a69 253d 79d7 3d3d 38c3 993c
000002d0: 066e c8bd cf1a 8a3e c08a 85bd 0d25 54bd
000002e0: 0709 df3d e261 fdbd b470 953d 8c15 00b9
000002f0: 60f9 75bd ca56 9dba 86d4 c73d 8c1c ca3d
00000300: 0f91 02be 9dce 16bd a569 f3bd 6c19 9f3d
00000310: 9382 95bd ba3e aa3d 9f01 40be 755d a9bc
00000320: b833 f03d a688 b6bd 8d60 ca3d 102c 69be
00000330: 6d70 fb3d bff9 e73d 6dbe a7bd 816c f2bd
00000340: 4849 21be 80f3 a43d c201 b73d 3e25 0bbe
00000350: 3607 c6bc 7da2 d7bc fb01 70bd f5d9 673e
00000360: 7620 293b c088 053e bd0b 873d b5cc 163b
00000370: 1332 05bc 3b92 ccbd 3f1e 52bd 7628 9dbd
00000380: 584b 8e3d 96e3 533b a90b ab3c 162f 16bd
00000390: 941d 06be 877d 453e e998 413c 24b4 373d
000003a0: 4912 41be af83 47be f284 b33c c719 dcbd
000003b0: 1a67 0a3e 0437 983d 5012 e7bc ff4e 6abd
000003c0: 6a2c 7c3d 4381 433c 859b 9fbd ba82 d7bd
000003d0: 5e0a 393d ac06 58bd b6d0 b13c c964 6a3d
000003e0: 4451 3ebe fc57 dfbd 9826 f7bd a91c 113e
000003f0: b04c 023e 2890 21be 0a1c 5cbe bb1e 273e

model.0.bias f4 [64]
0.104999095 -0.045641564 0.12890884 -0.026939563 0.15106738 -0.0622936 -0.099558055 0.061853673
0.07025847 -0.06252545 0.095727645 -0.017005105 0.15102826 0.065045565 -0.035365812 0.06020454
0.136648 0.12580273 0.13593969 -0.09261141 0.11247051 -0.034530167 -0.11991213 -0.0295387
-0.15809722 -0.120102175 -0.0393312 0.03739577 0.10421757 -0.024448667 -0.088573344 0.114682674
-0.039193504 0.054204676 -0.042765114 -0.17690489 0.018303147 -0.07396259 0.13266651 0.17530414
-0.16560069 0.15223771 -0.108301915 0.05260602 0.15785842 -0.08833732 -0.12712516 0.14692679
0.014850428 -0.080603845 0.031895734 -0.037710696 0.13595365 -0.13484652 -0.15728799 -0.10050131
-0.11084589 -0.009455409 -0.02584708 -0.011914544 -0.0034552682 0.116184525 -0.024724904 0.1312376
00000000: c409 d73d a6f2 3abd ae00 043e 5cb0 dcbc
00000010: 68b1 1a3e 9327 7fbd 18e5 cbbd 475a 7d3d
00000020: ace3 8f3d 580d 80bd db0c c43d 4a4e 8bbc
00000030: 27a7 1a3e 9c36 853d bedb 10bd 0999 763d
00000040: 74ed 0b3e 6ed2 003e c633 0b3e 0dab bdbd
00000050: f056 e63d 816f 0dbd 7e94 f5bd 25fb f1bc
00000060: 3de4 21be 21f8 f5bd c119 21bd 4f2c 193d
00000070: 0570 d53d 9248 c8bc f165 b5bd c0de ea3d
00000080: 5e89 20bd b905 5e3d 792a 2fbd 8e26 35be
00000090: 7bf0 953c b379 97bd bbd9 073e ee82 333e
000000a0: 3a93 29be 34e4 1b3e 65cd ddbd 6979 573d
000000b0: a3a5 213e 32ea b4bd 192d 02be fa73 163e
000000c0: 364f 733c a113 a5bd 1aa5 023d 8876 1abd
000000d0: 6f37 0b3e 3515 0abe 1a10 21be a1d3 cdbd
000000e0: 2c03 e3bd dcea 1abc 41bd d3bc 3835 43bc
000000f0: c871 62bb 27f2 ed3d e28b cabc 2663 063e

model.1.weight f4 [64]
0.96882635 0.99160975 1.0747554 0.9007619 0.8528265 0.9858445 1.0554578 0.9689403
1.0641778 0.9677681 0.974773 0.99741924 1.0160787 0.9975803 0.9580393 0.9144097
0.98860717 1.0781229 1.056798 1.1263082 0.97531605 1.0244614 1.1103845 1.1448436
0.8892612 1.0526751 0.92135143 0.98887366 1.0621852 0.95177555 0.97417796 0.9258397
1.0486951 0.934028 0.9111155 1.0167994 0.9619841 1.0286872 1.0606321 1.0809871
1.0368557 1.0305476 0.8812361 0.9621974 1.0767796 1.1037571 0.96127594 0.9534621
0.9465902 0.9921806 0.9411709 0.9983288 0.8958201 1.019278 0.98502797 1.1010109
0.98102933 0.8908753 0.9866444 0.9893844 1.0297338 1.0001018 1.0020154 1.0317043
00000000: 0105 783f 23da 7d3f 9691 893f 5598 663f
00000010: d652 5a3f 4e60 7c3f 3e19 873f 790c 783f
00000020: fa36 883f a6bf 773f b98a 793f de56 7f3f
00000030: de0e 823f 6c61 7f3f 1042 753f c116 6a3f
00000040: 5c15 7d3f eeff 893f 2845 873f de2a 903f
00000050: 50ae 793f 8d21 833f 1421 8e3f 3c8a 923f
00000060: 9fa6 633f 0fbe 863f b0dd 6b3f d326 7d3f
00000070: aff5 873f 90a7 733f ba63 793f d503 6d3f
00000080: a43b 863f 761c 6f3f de3e 693f 7c26 823f
00000090: 9744 763f 06ac 833f cbc2 873f c95d 8a3f
000000a0: b0b7 843f fce8 833f b098 613f 9252 763f
000000b0: ead3 893f ea47 8d3f 2e16 763f 1816 743f
000000c0: bc53 723f 8cff 7d3f 93f0 703f 7a92 7f3f
000000d0: 7754 653f b477 823f cb2a 7c3f eded 8c3f
000000e0: bd24 7b3f 6710 643f ba94 7c3f 4c48 7d3f
000000f0: 51ce 833f 5603 803f 0a42 803f e30e 843f

model.1.bias f4 [64]
-0.019692538 0.0349408 -0.025482036 -0.08833058 -0.017480025 -0.03677902 -0.107442856 0.042323213
0.067769855 -0.097172506 -0.14000435 -0.0995561 -0.041923806 -0.09496981 0.006678761 -0.08926216
-0.08725989 -0.0247937 -0.061408725 0.124559626 -0.06978666 0.014192472 0.071428746 -0.013528924
-0.12318953 -0.027736923 -0.11330514 -0.023642652 -0.024052538 0.04389637 -0.059117112 -0.09263865
-0.10816349 -0.049334574 -0.0504077 -0.059971943 0.0033193324 0.08083339 -0.03387903 -0.0619222
-0.09602839 -0.25818452 -0.050647404 -0.19394411 0.018707214 -0.14027713 -0.07823942 -0.09218189
-0.05110447 -0.02955414 -0.19274329 -0.032303836 -0.07885203 0.04971487 -0.028169936 -0.15307148
0.08888633 -0.10242776 -0.12420838 -0.07456778 -0.06525568 -0.055181343 -0.07355923 -0.035717994
00000000: 3f52 a1bc 161e 0f3d b4bf d0bc aae6 b4bd
00000010: 4532 8fbc 99a5 16bd 000b dcbd 1b5b 2d3d
00000020: ecca 8a3d 6102 c7bd 4d5d 0fbe 12e4 cbbd
00000030: 4cb8 2bbd 887f c2bd 82d9 da3b 14cf b6bd
00000040: 50b5 b2bd 281c cbbc b787 7bbd 1e19 ff3d
00000050: 4fec 8ebd 8b87 683c 3c49 923d 6ca8 5dbc
00000060: cb4a fcbd 8b38 e3bc 860c e8bd 3cae c1bc
00000070: d409 c5bc aecc 333d c924 72bd 55b9 bdbd
00000080: d284 ddbd 0d13 4abd 4e78 4ebd 24a5 75bd
00000090: 2889 593b fa8b a53d bdc4 0abd 22a2 7dbd
000000a0: 88aa c4bd c330 84be a773 4fbd 4999 46be
000000b0: df3f 993c cfa4 0fbe fd3b a0bd dcc9 bcbd
000000c0: ec52 51bd 861b f2bc 7f5e 45be 0751 04bd
000000d0: 2c7d a1bd d2a1 4b3d a3c4 e6bc c5be 1cbe
000000e0: 090a b63d a5c5 d1bd f760 febd feb6 98bd
000000f0: c5a4 85bd d505 62bd 39a6 96bd 084d 12bd

model.1.running_mean f4 [64]
0.12547122 -0.05487589 0.13991706 -0.080918185 0.11542848 -0.044300098 -0.093555 0.045037307
0.068903536 -0.025761422 0.11667945 0.01725324 0.12405934 0.04376341 -0.044625722 0.06699979
0.15144262 0.13882166 0.17923506 -0.08187792 0.13943136 -0.0027198114 -0.07522078 -0.0483781
-0.1581067 -0.093568936 -0.03929246 0.020198092 0.13655776 -0.033776093 -0.071425974 0.095178515
-0.039319567 0.095125295 -0.048250385 -0.17830066 0.0064878296 -0.06795573 0.15307969 0.19199625
-0.17746724 0.13081156 -0.10375155 0.051038355 0.14390744 -0.051667135 -0.11827329 0.15558508
0.066333495 -0.092373095 0.021547586 -0.034904826 0.17917846 -0.1269406 -0.15841635 -0.0789429
-0.12545757 -0.032616004 -0.054511577 -0.039491147 0.024120986 0.09511608 -0.05354119 0.14645448
00000000: 877b 003e 8bc5 60bd 6b46 0f3e 6fb8 a5bd
00000010: c465 ec3d 0574 35bd c499 bfbd 0a79 383d
00000020: 4c1d 8d3d 9e09 d3bc a3f5 ee3d ab56 8d3c
00000030: d312 fe3d 4341 333d 76c9 36bd 3037 893d
00000040: c613 1b3e 4427 0e3e 6589 373e 9caf a7bd
00000050: 18c7 0e3e dd3e 32bb 5a0d 9abd 1d28 46bd
00000060: b9e6 21be 12a1 bfbd 21f1 20bd 7876 a53c
00000070: ccd5 0b3e cd58 0abd c847 92bd f4ec c23d
00000080: 8e0d 21bd 0dd1 c23d 32a2 45bd 7394 36be
00000090: dc97 d43b 602c 8bbd ecc0 1c3e aa9a 443e
000000a0: f9b9 35be 77f3 053e b17b d4bd 980d 513d
000000b0: 795c 133e eba0 53bd 4439 f2bd b251 1f3e
000000c0: dbd9 873d 1b2e bdbd 9084 b03c 5df8 0ebd
000000d0: 8f7a 373e b7fc 01be e537 22be d1ac a1bd
000000e0: f377 00be 5c98 05bd 8847 5fbd 78c1 21bd
000000f0: 6099 c53c 38cc c23d 024e 5bbd 2af8 153e

model.1.running_var f4 [64]
0.75015396 0.49806663 0.6583271 0.9866548 0.5104112 0.3237439 0.3968974 0.80023724
0.8985477 0.92374885 0.42575786 1.196193 0.35256287 0.4530252 0.30880213 0.67512023
0.61407846 0.61988264 0.9961259 0.40723523 0.6650159 1.6017357 0.50060284 0.30388644
0.55084264 0.9070672 0.5272264 0.7069872 0.38269064 0.7035865 0.4662354 0.41024008
0.36272302 0.5026529 0.635489 0.6800614 0.8885327 0.6133187 0.3253774 0.8503711
0.43864778 0.33780974 0.39823362 0.31332326 0.30593908 0.37458843 0.43357977 0.674695
0.7133825 0.33368677 0.3044834 0.30141804 0.74776894 0.7431753 0.41725123 0.4926178
0.36937004 1.1269766 0.5162815 0.3142728 0.5354078 0.46377477 0.4413133 0.31877652
00000000: 170a 403f 9702 ff3e 2088 283f 6995 7c3f
00000010: 4faa 023f c3c1 a53e 2336 cb3e 59dc 4c3f
00000020: 3907 663f ce7a 6c3f effc d93e da1c 993f
00000030: 1f83 b43e ebf2 e73e 501b 9e3e aed4 2c3f
00000040: 3f34 1d3f a1b0 1e3f 1b02 7f3f 2381 d03e
00000050: 7b3e 2a3f ad05 cd3f 8227 003f 0197 9b3e
00000060: 0604 0d3f 8e35 683f 4ff8 063f 1dfd 343f
00000070: 07f0 c33e 3f1e 343f 68b6 ee3e fd0a d23e
00000080: d5b6 b93e dcad 003f 68af 223f 8118 2e3f
00000090: e176 633f 7402 1d3f de97 a63e ecb1 593f
000000a0: 7196 e03e 66f5 ac3e 47e5 cb3e e86b a03e
000000b0: 0ca4 9c3e 0eca bf3e 2bfe dd3e d0b8 2c3f
000000c0: 3ca0 363f fed8 aa3e 40e5 9b3e 7753 9a3e
000000d0: c96d 3f3f bd40 3e3f f4a1 d53e 6638 fc3e
000000e0: 121e bd3e c540 903f 062b 043f 5de8 a03e
000000f0: 7c10 093f e373 ed3e d1f3 e13e ad36 a33e

model.4.weight f4 [32, 64]
0.10628334 0.09340187 -0.10250578 -0.009568084 -0.062689684 -0.0046341633 -0.122651644 -0.057490263
0.046590913 -0.029795567 -0.017130287 -0.018102193 -0.12798458 -0.15825059 0.010169649 0.055113934
-0.017230663 -0.032224253 -0.037204295 -0.18277274 0.030324668 0.069448344 0.09905404 -0.16718708
0.0028231407 0.012158208 0.07714707 0.014193986 0.026703158 0.05251592 -0.09264246 0.03220757
0.11544128 -0.028438274 0.07051428 0.10088466 -0.10438565 0.1132685 0.12457956 0.04550567
-0.024677401 -0.16345403 0.0058804527 -0.14605142 -0.23824224 0.091248155 0.06417985 -0.103498556
0.0074109174 0.09876076 0.0865952 0.046981 0.07969962 0.12308633 0.041190173 -0.05169499
-0.12210428 0.037338834 -0.109806366 -0.12529193 0.06690822 0.090592206 -0.020425461 -0.16522892
-0.11365793 0.09882384 -0.09090641 -0.0145593975 0.049421825 -0.16739452 0.08124046 -0.1262964
0.0735742 -0.16566925 0.07222692 -0.20883429 -0.036959473 0.076553985 0.034754775 -0.006079578
0.023766238 0.019780012 -0.20389235 0.0694347 0.04211481 -0.025645638 -0.0038136956 -0.08048143
-0.035605095 -0.1179393 0.08806154 -0.08015695 0.06545247 -0.027580317 0.0856902 0.04519422
-0.06410726 0.034890465 0.00990349 -0.115972385 -0.026775567 -0.09197492 0.014404579 -0.20601733
-0.25572547 -0.07696006 0.055901628 -0.07226412 -0.08776669 -0.06853083 -0.17830367 -0.103924006
0.0428696 0.028407408 -0.19048083 -0.1922126 0.07020777 -0.14522526 0.085335925 -0.07440336
-0.04189759 0.04193264 -0.011049113 0.024279958 0.035137862 -0.008705347 0.004498569 0.02030602
-0.0577119 -0.08921213 -0.118923984 0.006713115 0.05479373 -0.034237348 0.12852791 0.11161891
-0.100071885 -0.00415696 -0.053045586 0.036629267 -0.15049292 -0.15676606 0.06107596 0.0009741236
-0.05789782 -0.14521806 -0.013437885 -0.01386346 -0.011249811 0.07014946 0.04584197 -0.14504844
-0.026427174 -0.092141874 0.10014876 -0.13198304 -0.19403388 0.03242408 -0.043143827 -0.010727178
0.16387784 -0.0044187 -0.023874212 0.030561468 0.06916766 -0.12828253 -0.024588251 -0.11211083
-0.16233626 -0.116865225 0.055800375 0.0928218 0.11440416 -0.038204566 -0.07337264 0.044283833
0.002482985 0.06809047 0.009875913 0.07550863 -0.034986116 0.019091288 -0.11511127 0.008196335
0.10052715 -0.12807803 0.057005946 -0.06294785 -0.1199822 0.112583965 -0.05504563 -0.15601501
-0.033728752 -0.20917009 0.11643145 0.10858822 0.0012049802 -0.15428588 -0.05881172 -0.058206018
0.12673506 0.08695961 -0.0261565 0.075487696 0.09729902 -0.0019394247 0.021354364 -0.05332693
-0.11088738 -0.019965649 -0.032800175 0.049212873 0.01820197 -0.059976522 0.11489417 0.07796966
-0.056969427 -0.067015536 -0.08953921 0.12609819 -0.024719777 -0.31237707 -0.05992735 -0.05812381
-0.033647124 0.062016245 0.13155246 0.23213474 -0.026783008 0.019987829 -0.051470574 0.021800052
-0.0655424 -0.18835716 -0.08734128 -0.079184964 -0.16416906 0.0001911509 0.0657857 0.09933509
-0.17709418 -0.02929417 -0.074647225 -0.0818228 -0.08597679 -0.015602378 -0.21596417 -0.03667412
0.041886497 0.028294101 -0.20896946 -0.023454351 -0.039342437 -0.044702355 0.00908466 -0.120195
00000000: 14ab d93d 7b49 bf3d 8dee d1bd 74c3 1cbc
00000010: 7363 80bd 2eda 97bb c930 fbbd e97a 6bbd
00000020: 1dd6 3e3d d515 f4bc d154 8cbc 0d4b 94bc
00000030: 640e 03be 710c 22be 999e 263c 26bf 613d
00000040: 5227 8dbc 94fd 03bd 8863 18bd c728 3bbe
00000050: 706b f83c ef3a 8e3d d8dc ca3d 1733 2bbe
00000060: 7104 393b 3833 473c 48ff 9d3d e48d 683c
00000070: 95c0 da3c ef1a 573d 54bb bdbd 16ec 033d
00000080: 7a6c ec3d 62f7 e8bc ca69 903d 9e9c ce3d
00000090: 25c8 d5bd 51f9 e73d 9123 ff3d 2764 3a3d
000000a0: 4328 cabc 7e60 27be d0b0 c03b 818e 15be
000000b0: c6f5 73be 50e0 ba3d ba70 833d 0df7 d3bd
000000c0: 48d7 f23b 1543 ca3d d358 b13d 266f 403d
000000d0: 8e39 a33d b014 fc3d 07b7 283d 20be 53bd
000000e0: cf11 fabd 9bf0 183d 29e2 e0bd 874c 00be
000000f0: 2d07 893d 6888 b93d 4c53 a7bc c531 29be
00000100: 7dc5 e8bd 2764 ca3d 242d babd 8a8a 6ebc
00000110: 8a6e 4a3d 7869 2bbe 6661 a63d d853 01be
00000120: 12ae 963d 33a5 29be b5eb 933d a8d8 55be
00000130: d162 17bd 56c8 9c3d 065b 0e3d 3237 c7bb
00000140: 6ab1 c23c b109 a23c 28c9 50be c833 8e3d
00000150: 9480 2c3d cd16 d2bc 32ef 79bb 73d3 a4bd
00000160: a6d6 11bd 298a f1bd 9c59 b43d 5429 a4bd
00000170: f20b 863d 1ef0 e1bc 587e af3d 931d 393d
00000180: ab4a 83bd 4ee9 0e3d 3f42 223c ee82 edbd
00000190: 6f58 dbbc 595d bcbd 2f01 6c3c 35f6 52be
000001a0: 73ee 82be 3c9d 9dbd 1bf9 643d 36ff 93bd
000001b0: 06bf b3bd e459 8cbd 3d95 36be 1cd6 d4bd
000001c0: 0998 2f3d a7b6 e83c 680d 43be 61d3 44be
000001d0: 17c9 8f3d eeb5 14be 9ac4 ae3d ca60 98bd
000001e0: cf9c 2bbd 8fc1 2b3d 5707 35bc c3e6 c63c
000001f0: b8ec 0f3d dfa0 0ebc bb68 933b cf58 a63c
00000200: 5063 6cbd d9b4 b6bd 6b8e f3bd b1f9 db3b
00000210: 646f 603d 763c 0cbd d29c 033e 7598 e43d
00000220: 7df2 ccbd 1c37 88bb 5446 59bd 9208 163d
00000230: d11a 1abe 4887 20be c92a 7a3d 545c 7f3a
00000240: 4426 6dbd 0bb4 14be 932a 5cbc 9123 63bc
00000250: 2151 38bc 85aa 8f3d cac4 3b3d 9487 14be
00000260: cd7d d8bc e1b4 bcbd cb1a cd3d 9026 07be
00000270: d1b0 46be 1dcf 043d 95b7 30bd 0cc1 2fbc
00000280: 98cf 273e beca 90bb da93 c3bc 0b5c fa3c
00000290: c6a7 8d3d 7f5c 03be 4d6d c9bc 5d9a e5bd
000002a0: 7a3b 26be 0957 efbd ef8e 643d 5b19 be3d
000002b0: ba4c ea3d 647c 1cbd 6544 96bd f762 353d
000002c0: 93b9 223b 0473 8b3d 95ce 213c 45a4 9a3d
000002d0: 9a4d 0fbd 5565 9c3c 75bf ebbd ec49 063c
000002e0: 2ee1 cd3d e326 03be 117f 693d cdea 80bd
000002f0: 3ab9 f5bd 6c92 e63d 8777 61bd 66c2 1fbe
00000300: 2927 0abd af30 56be 9d73 ee3d 8063 de3d
00000310: 6df0 9d3a 1efd 1dbe 8fe4 70bd 6f69 6ebd
00000320: d6c6 013e e117 b23d 2846 d6bc 4b99 9a3d
00000330: b544 c73d 4b34 feba 59ef ae3c 576d 5abd
00000340: ec18 e3bd 008f a3bc 7a59 06bd 7093 493d
00000350: 4c1c 953c f1a9 75bd a24d eb3d 8fae 9f3d
00000360: c658 69bd 713f 89bd 5560 b7bd e21f 013e
00000370: 2181 cabc e3ef 9fbe 6276 75bd 3b13 6ebd
00000380: 91d1 09bd bf04 7e3d b0b5 063e bbb4 6d3e
00000390: 0a68 dbbc 84bd a33c cfd2 52bd 0696 b23c
000003a0: 183b 86bd b3e0 40be fcdf b2bd ba2b a2bd
000003b0: ef1b 28be ae6f 4839 a7ba 863d 3270 cb3d
000003c0: 2d58 35be 54fa efbc a5e0 98bd b692 a7bd
000003d0: 9914 b0bd 1ea1 7fbc b625 5dbe 9a37 16bd
000003e0: 2d91 2b3d 08c9 e73c 17fc 55be 5723 c0bc
000003f0: 8925 21bd d119 37bd d3d7 143c cc28 f6bd

model.4.bias f4 [32]
-0.05256318 0.101122126 -0.0030749526 0.09766573 0.03128166 -0.10568044 0.10343957 0.122488335
0.04832479 0.09163903 -0.09151852 0.06302025 -0.058289174 -0.099799246 -0.12024825 0.037592735
-0.09199827 0.00061079557 -0.028316053 0.016052103 0.07680103 -0.04713573 -0.036780536 0.0891781
0.006121183 -0.12597705 -0.10351418 0.056846328 -0.063005306 0.10357523 0.048046753 0.09748308
00000000: 7d4c 57bd 1e19 cf3d 2585 49bb f804 c83d
00000010: 3321 003d fd6e d8bd 20d8 d33d 2adb fa3d
00000020: 37f0 453d 3ead bb3d 106e bbbd c310 813d
00000030: a1c0 6ebd 8c63 ccbd b744 f6bd d7fa 193d
00000040: 9769 bcbd cc1d 203a 11f7 e7bc b37f 833c
00000050: dc49 9d3d 6511 41bd 30a7 16bd 02a3 b63d
00000060: 3494 c83b 2100 01be 3eff d3bd b2d7 683d
00000070: ed08 81bd 401f d43d accc 443d 36a5 c73d

model.5.weight f4 [32]
0.8561219 0.86914766 0.86500365 0.84376544 0.78121954 0.8535343 0.8870932 0.89999956
0.92659634 0.9095871 0.83302534 0.8625424 0.8358312 0.7487832 0.8716767 0.8361779
0.8478631 0.8767166 0.785308 0.85023147 0.9237544 0.8276441 0.8864533 0.75674266
0.87186277 0.8758353 0.87529975 0.86077714 0.8299906 0.94136846 0.91983473 0.8928958
00000000: ce2a 5b3f 7680 5e3f e170 5d3f 0301 583f
00000010: 01fe 473f 3981 5a3f 8a18 633f 5f66 663f
00000020: 6b35 6d3f b3da 683f 2641 553f 94cf 5c3f
00000030: 09f9 553f 41b0 3f3f 3426 5f3f c10f 563f
00000040: 8e0d 593f 8070 603f f209 493f c5a8 593f
00000050: 2b7b 6c3f 7ce0 533f 9aee 623f e3b9 413f
00000060: 6632 5f3f be36 603f a513 603f e45b 5c3f
00000070: 447a 543f 86fd 703f 4a7a 6b3f d294 643f

model.5.bias f4 [32]
-0.077359974 0.017791761 -0.09930422 -0.1375516 -0.22348092 -0.051808223 -0.10472163 -0.1072514
-0.074505635 -0.06973446 -0.10682835 -0.11399016 -0.13472633 -0.24996585 -0.06470753 -0.18868782
-0.036511485 -0.035782203 -0.1294007 -0.10121436 -0.04392575 -0.05077898 -0.14524913 -0.16669711
-0.07461738 -0.086295396 -0.073975965 -0.027612267 -0.16444616 -0.0736853 -0.042433586 -0.10074981
00000000: e86e 9ebd 07c0 913c 0360 cbbd 54da 0cbe
00000010: 2fd8 64be dc34 54bd 4b78 d6bd 9fa6 dbbd
00000020: 6996 98bd f1d0 8ebd d2c8 dabd ac73 e9bd
00000030: b3f5 09be 0cf7 7fbe 6285 84bd 6137 41be
00000040: 118d 15bd 5c90 12bd 9e81 04be 7949 cfbd
00000050: 7deb 33bd 9ffd 4fbd 30bc 14be a6b2 2abe
00000060: ffd0 98bd a4bb b0bd b680 97bd 1f33 e2bc
00000070: 9364 28be 52e8 96bd d7ce 2dbd eb55 cebd

model.5.running_mean f4 [32]
-0.24694523 -0.6965386 -0.525468 -0.45503753 0.40186724 -0.91791993 -0.9286901 -0.4688024
-0.46197614 -0.075670145 -1.1244193 -0.55997443 -0.13424787 -0.7435187 -0.54528445 0.98544466
-0.30492496 -0.37300563 0.008316086 -0.1328725 -0.5817761 -0.5774516 -0.8635799 0.0060307533
-0.7048413 -0.9037386 -1.4159912 -0.73223037 -1.0177066 -0.384706 -0.8082514 -0.6002492
00000000: 36df 7cbe 5b50 32bf 1285 06bf aefa e8be
00000010: 8bc1 cd3e cdfc 6abf a2be 6dbf de06 f0be
00000020: 2388 ecbe f3f8 9abd f9ec 8fbf 7c5a 0fbf
00000030: 4678 09be 3e57 3ebf c397 0bbf 1a46 7c3f
00000040: 201f 9cbe 98fa bebe 3140 083c bb0f 08be
00000050: 47ef 14bf ded3 13bf 9313 5dbf a09d c53b
00000060: 7b70 34bf 6a5b 67bf 333f b5bf 7373 3bbf
00000070: 3644 82bf 2ff8 c4be 90e9 4ebf eea9 19bf

model.5.running_var f4 [32]
0.65528077 0.89918745 0.58580357 0.5864441 0.38151348 1.0644362 0.98066616 0.6770177
1.1008506 0.54933083 0.54122716 0.67381185 0.60318696 0.54619706 0.9059584 0.57605535
0.9977812 0.4453157 0.7106154 0.46774563 1.1914183 0.544795 0.7888943 1.2265339
0.88714325 0.9665841 1.7855877 0.86350554 1.1692666 0.47875044 0.6222851 0.86299294
00000000: 7bc0 273f 2631 663f 39f7 153f 3321 163f
00000010: bc55 c33e 723f 883f f00c 7b3f 0851 2d3f
00000020: ace8 8c3f f2a0 0c3f dd8d 0a3f ef7e 2c3f
00000030: 766a 1a3f 92d3 0b3f e4ec 673f 5d78 133f
00000040: 976e 7f3f 6b00 e43e e4ea 353f 5b7c ef3e
00000050: 6580 983f af77 0b3f faf4 493f 10ff 9c3f
00000060: d21b 633f 0e72 773f 238e e43f b30e 5d3f
00000070: 87aa 953f c71e f53e 144e 1f3f 1bed 5c3f

model.8.weight f4 [2, 32]
0.074421346 -0.06198088 0.02056225 0.1127944 0.014979358 -0.028162058 0.03919045 0.108791836
0.08608671 -0.14930621 0.11219505 -0.06492619 0.05054772 0.07768371 0.0031154861 0.008322146
0.06919882 0.015079311 -0.11728983 -0.102915674 -0.13697985 0.09999227 -0.028960506 0.0022071053
-0.09999758 0.07807026 0.006902648 -0.06450625 -0.07309052 -0.18466453 -0.13766141 -0.061062235
0.046185203 -0.011291168 0.05174571 0.08374375 0.007901719 0.017492881 -0.003954138 0.150858
0.14035124 -0.09883967 0.039460268 -0.030014751 -0.011367654 0.05934418 -0.045310013 -0.048085608
0.09004731 0.054742675 -0.13048692 -0.06432826 -0.12846145 0.14614098 -0.10027774 0.0010845631
-0.08989253 0.115865834 0.06721262 -0.062295392 -0.034839332 -0.11503119 -0.10079739 -0.08938079
00000000: 386a 983d aadf 7dbd 2a72 a83c c000 e73d
00000010: fb6b 753c 1eb4 e6bc 2a86 203d 41ce de3d
00000020: 3b4e b03d bae3 18be 85c6 e53d 06f8 84bd
00000030: 200b 4f3d a318 9f3d 2f2d 4c3b 9c59 083c
00000040: 1cb8 8d3d 370f 773c a735 f0bd 74c5 d2bd
00000050: 7244 0cbe bfc8 cc3d 953e edbc 15a5 103b
00000060: 88cb ccbd 4de3 9f3d 9c2f e23b da1b 84bd
00000070: 7cb0 95bd b318 3dbe 1df7 0cbe 651c 7abd
00000080: b22c 3d3d 97fe 38bc 4ff3 533d d881 ab3d
00000090: 3676 013c 3b4d 8f3c b791 81bb 857a 1a3e
000000a0: 3cb8 0f3e 746c cabd 17a1 213d 7fe1 f5bc
000000b0: 663f 3abc e212 733d fe96 39bd 6af5 44bd
000000c0: b96a b83d db39 603d 5d9e 05be 89be 83bd
000000d0: 668b 03be fba5 153e 6a5e cdbd e627 8e3a
000000e0: 9319 b8bd 114b ed3d c5a6 893d 7429 7fbd
000000f0: b0b3 0ebd 7995 ebbd dd6e cebd 470d b7bd

model.8.bias f4 [2]
0.033736214 0.05972114
00000000: fc2e 0a3d 279e 743d
