src/modelDevelopment/training/model_files/deep_mlp_model_diff.pt (torch, 24635 bytes, 14 tensors)

model.0.weight f4 [64, 32]
0	0x3ce29bd3	0.027662193
1	0xbe589693	-0.2115119
2	0x3d45eeaa	0.04832331
3	0xbd02ea35	-0.03196164
4	0x3e0940a5	0.13403566
5	0xbe0b6643	-0.13613228
6	0xbe1c1426	-0.15242061
7	0x3e46847c	0.19386476
8	0xbd6f2444	-0.058384195
9	0xbdb24b56	-0.087057754
10	0xbd90c320	-0.07068467
11	0xbdd98e8a	-0.1062289
12	0x3e43836a	0.19093099
13	0x3da3ad8d	0.079920866
14	0x3c201c10	0.009772316
15	0x3e1795c3	0.14803223
16	0x3d765861	0.06014288
17	0xbe0f5c74	-0.14000112
18	0xbe3e23d1	-0.1856835
19	0xbde492b7	-0.11160796
20	0xbc415786	-0.011800652
21	0x3df228a0	0.11824155
22	0xbe2875bc	-0.16451162
23	0xbdfd5491	-0.123696454
24	0xbda3690c	-0.079790205
25	0x3e3c362f	0.18380044
26	0xbd69e487	-0.057102706
27	0x3d2897f4	0.04116054
28	0x3d71477d	0.058906067
29	0x3e0c8095	0.13720925
30	0xbce93de4	-0.028471895
31	0xbd8afd57	-0.06786602
32	0x3e223f5b	0.1584448
33	0x3d8150cf	0.06314241
34	0x3e5d6da9	0.21623863
35	0x3d0c9b99	0.034328077
36	0x3d72af42	0.05924917
37	0x3e020b35	0.12699588
38	0xbcaeb5d2	-0.021326933
39	0xbd0bdc24	-0.03414549
40	0xbdbcb2a7	-0.09213763
41	0x3d0030b7	0.031296458
42	0x3e4f37d5	0.20236142
43	0xbce3f645	-0.027827391
44	0xbe1e7b0b	-0.15476625
45	0x3dcb7b84	0.09935668
46	0x3dac9c10	0.08428204
47	0x3c883010	0.01662448
48	0xbd26d55f	-0.04073083
49	0xbc7deb9f	-0.015498071
50	0xbd82977a	-0.06376548
51	0x3b8163db	0.0039486713
52	0xbdd7c989	-0.10536487
53	0x3deedd5a	0.11663313
54	0xbe1d709b	-0.15374987
55	0xbe611ce0	-0.21983671
56	0xbe0647a6	-0.13113269
57	0x3e4079c9	0.18796457
58	0x3d0959a8	0.03353277
59	0xbd937c31	-0.07201422
60	0x3e60a44b	0.21937673
61	0xbdb03222	-0.08603312
62	0x3d8bb4df	0.06821608
63	0xbe4ec713	-0.20193128
64	0xbd5097cc	-0.050926015
65	0xbd085b53	-0.03329022
66	0xbd176cc0	-0.036968946
67	0xbc9eb7c3	-0.019374734
68	0xbdb86e26	-0.09005384
69	0xbdfa5287	-0.12222772
70	0x3d245bb7	0.04012653
71	0x3e16315b	0.14667265
72	0x3db8e3c1	0.090278156
73	0xbe731960	-0.23740149
74	0xbcbc535e	-0.022988971
75	0x3e181aa2	0.1485391
76	0x3e434e18	0.19072759
77	0x3e1a3043	0.15057473
78	0xbc0b0f12	-0.00848748
79	0x3e55b29c	0.20868915
80	0x3de4ee71	0.111782916
81	0xbda5851b	-0.080820285
82	0x3cf9f6ca	0.030513186
83	0xbd909553	-0.07059731
84	0xbe3d0128	-0.18457472
85	0x3e34162f	0.17586587
86	0xbb8fa78d	-0.0043839873
87	0x3a82c6a0	0.0009977408
88	0xbe388d51	-0.18022658
89	0x3cec4174	0.028839804
90	0x3e0cd61e	0.13753554
91	0xbde2cab3	-0.11073818
92	0xbe3fe792	-0.18740681
93	0x3d10e4b7	0.03537437
94	0x3c3a95fb	0.011388297
95	0xbc38b12d	-0.011272711
96	0xbd59e13e	-0.053193323
97	0x3d22604a	0.03964261
98	0xbe544a1b	-0.20731394
99	0xbe11ddfa	-0.14244834
100	0x3d99c506	0.07508282
101	0xbe3dd1ef	-0.18537115
102	0xbe2badbe	-0.16765496
103	0xbdc72508	-0.0972386
104	0x3d68e555	0.056859333
105	0xbe18627f	-0.14881323
106	0x3d8ffb85	0.070303954
107	0x3cf438d7	0.02981226
108	0x3dd2e5e0	0.102977514
109	0x3e4261a2	0.18982556
110	0x399636cb	0.00028651053
111	0xbdddc149	-0.10827882
112	0xbdc47254	-0.09592119
113	0xbd965a8a	-0.07341488
114	0xbe0001f7	-0.1250075
115	0x3dd31ec4	0.103086025
116	0x3d9604f7	0.07325166
117	0x3c85edbb	0.01634871
118	0xbe2b577f	-0.16732596
119	0x3dc2a84a	0.09504755
120	0xbdf26ae7	-0.11836796
121	0xbe0fbc6a	-0.14036718
122	0x3d08ce36	0.033399783
123	0x3c746cfc	0.014918562
124	0x3d506278	0.050875157
125	0x3d88cbbb	0.066794835
126	0xbd9ec1a4	-0.07751778
127	0x3e2156bd	0.15755744
128	0x3dcbb6a3	0.099469446
129	0x3e3fa355	0.1871465
130	0x3dac192d	0.084032394
131	0xbd134226	-0.035951756
132	0xbb3ba294	-0.002863084
133	0x3d3c8671	0.04602665
134	0xbd31f5f2	-0.043447442
135	0xbd497dea	-0.049192347
136	0xbdb6709d	-0.08908198
137	0x3dac2993	0.08406367
138	0xbbd69348	-0.006548319
139	0xbccc5de5	-0.024947116
140	0x3e578619	0.21047248
141	0xbdf64ec5	-0.12026743
142	0x3d41b7e3	0.04729451
143	0x3e0ea1ea	0.13928953
144	0xbe1daf43	-0.15398888
145	0xbd7d76ce	-0.06188088
146	0x3df41e7e	0.119198784
147	0xbe549c6b	-0.20762794
148	0x3e75f11c	0.24017757
149	0x3d494f70	0.049148023
150	0xbcf3778e	-0.029720094
151	0xbe121b05	-0.1426812
152	0xbe21dffe	-0.15808102
153	0xbdf42d23	-0.11922672
154	0x3bf0abf9	0.0073447195
155	0xbc839a3b	-0.016064754
156	0xbe0ab9fd	-0.13547511
157	0xbd096bbe	-0.033550017
158	0xbe5e0917	-0.21683155
159	0x3e559d0b	0.20860688
160	0x3e617b7f	0.22019766
161	0x3e07de78	0.13268459
162	0x3e1680e7	0.1469761
163	0x3e71d694	0.23617011
164	0x3e1239e3	0.14279895
165	0x3df40f7d	0.11917017
166	0xbd558226	-0.052126072
167	0x3dbef21e	0.09323524
168	0xbdc9ac47	-0.098473124
169	0x3dbaeeae	0.09127556
170	0xbd4ebf3d	-0.050475348
171	0x3cecda69	0.02891274
172	0xbc427d16	-0.011870643
173	0xbd5e8470	-0.05432552
174	0x3e1b144e	0.15144464
175	0xbe02b3cb	-0.12763898
176	0xbd3e4d6a	-0.046460547
177	0x3d82b37f	0.063818924
178	0xbdfaa3db	-0.12238284
179	0x3d81e835	0.06343118
180	0xbca36a97	-0.019948287
181	0xbd67e712	-0.05661685
182	0x3d880f4e	0.06643544
183	0x3d3619a3	0.044458043
184	0x3d4c4db6	0.0498788
185	0x3cf01ad0	0.02930966
186	0x3dedf166	0.11618309
187	0x3dc42d62	0.095789686
188	0xbe6f545b	-0.23372023
189	0xbdd3fab5	-0.10350553
190	0x3d6e96f7	0.05824944
191	0xbdba6e81	-0.09103108
192	0x3cf57f04	0.029967792
193	0xbb8bfd48	-0.004272137
194	0x3e40a044	0.18811136
195	0x3e4810b3	0.1953762
196	0x3e65ebd4	0.22453243
197	0x3e2b4c28	0.1672827
198	0x3b33649d	0.0027373203
199	0xbd5c77a0	-0.05382502
200	0x3dd1efb8	0.10250801
201	0xbe19bc41	-0.1501322
202	0x3d2f5cad	0.042812992
203	0xbca26590	-0.01982382
204	0x3e61d36a	0.22053304
205	0xb961a35a	-0.00021518525
206	0x3d17d46f	0.037067827
207	0xbded1def	-0.11577975
208	0xbd100325	-0.03515925
209	0x3d3caaea	0.046061434
210	0xbd4e4016	-0.050354086
211	0x3c87be23	0.016570156
212	0x3e15a0e9	0.14612164
213	0x3ccd5fa7	0.025070025
214	0x3bd8a033	0.006610894
215	0xbd601b54	-0.054713562
216	0x3b46269a	0.003023541
217	0xbe161276	-0.1465548
218	0x3e19f819	0.15036048
219	0x3b9ec766	0.0048455475
220	0xbd76ee60	-0.060285926
221	0xbdc655ce	-0.09684335
222	0xbe9e6bb3	-0.30941543
223	0xbdd9d0d7	-0.10635536
224	0xbcfbfc70	-0.03076002
225	0xbcd710ab	-0.026253065
226	0xbdc784ed	-0.097421505
227	0xbe8bdc8e	-0.27316707
228	0x3c008a47	0.007845468
229	0xbe19e59e	-0.15028998
230	0x3e3e98be	0.18612954
231	0x3dfd8c8a	0.12380321
232	0x3c8dada4	0.017294712
233	0xbd9d368e	-0.07676421
234	0x3ce06d5c	0.027395897
235	0x3d1e3d60	0.03863275
236	0xbe4fcc9d	-0.20292898
237	0x3d0356cc	0.032065198
238	0xbd51ec2e	-0.05125063
239	0x3e400ab5	0.18754084
240	0x3d222313	0.03958423
241	0x3df5fd1f	0.1201117
242	0xbdaf9e77	-0.08575147
243	0xbded1fd8	-0.11578339
244	0xbe8bd0db	-0.27307782
245	0x3e1e2d6f	0.15447019
246	0x3de1ab37	0.11018985
247	0x3c8d6f77	0.017265065
248	0x3dd775f4	0.10520545
249	0xbd21af5f	-0.039473888
250	0xbe7979a5	-0.2436281
251	0xbe640344	-0.2226687
252	0x3d46ac4a	0.04850415
253	0xbdcd0e1b	-0.10012456
254	0x3dff9481	0.12479497
255	0xbdd8ac40	-0.10579729

model.0.bias f4 [64]
0	0x3e0d4a2b	0.13797824
1	0xbbf59251	-0.007494249
2	0xbdf77e9a	-0.12084694
3	0xbd926df6	-0.0714988
4	0x3daa6c36	0.08321421
5	0xbdf2f693	-0.118634365
6	0xbda90917	-0.08253687
7	0xbb1a0ecd	-0.0023507357
8	0x3dc018a2	0.09379698
9	0x3d89cf28	0.06728965
10	0xbdc459a1	-0.09587408
11	0xbe07aa3c	-0.13248533
12	0xbdf04b40	-0.11733103
13	0xbd410ea5	-0.047133107
14	0x3d0630ad	0.032761265
15	0xbd43aa36	-0.047769748
16	0x3d6f9061	0.0584873
17	0x3d13fdf2	0.036130853
18	0xbd8fdb58	-0.070242584
19	0xbd18f04c	-0.03733854
20	0x3d2b1273	0.04176564
21	0x3e1f0fea	0.15533414
22	0xbe3184a2	-0.17335752
23	0x3d7b3b13	0.061335634
24	0xbd209d80	-0.039212704
25	0x3d73051b	0.05933104
26	0xbe097d76	-0.13426766
27	0x3e263c84	0.16234022
28	0x3cc63265	0.024193952
29	0xbdd5adbc	-0.10433528
30	0x3e0dc658	0.13845193
31	0xbdc3819a	-0.09546204
32	0xbd05edf7	-0.032697644
33	0x3cd75834	0.026287176
34	0x3dec9b5d	0.11553071
35	0x3d3a2630	0.045446575
36	0xbdd7be49	-0.10534341
37	0xbcfea28c	-0.031083368
38	0x3cdf4f4d	0.027259493
39	0xbdb867d3	-0.09004178
40	0xbdebcda6	-0.11513834
41	0xbe03688c	-0.1283285
42	0xbd8f3170	-0.06991851
43	0xbd1e65c0	-0.038671255
44	0x3db28a33	0.08717766
45	0xbc98eb33	-0.01866684
46	0xbd7e461c	-0.06207858
47	0x3da4c25f	0.08044886
48	0x3d410205	0.047121067
49	0x3e082556	0.13295493
50	0x3dc8dd05	0.09807781
51	0x3d9fbca1	0.0779965
52	0x3da57bdf	0.08080267
53	0x3e12e191	0.1434386
54	0x3c1cd3df	0.009571998
55	0x3d301755	0.042991
56	0xbd040da9	-0.03223959
57	0x3db14bac	0.086570114
58	0xbd5a6d2d	-0.053326774
59	0x3dfe3dbc	0.12414119
60	0xbdd664b7	-0.104684286
61	0x3e008b70	0.12553191
62	0xbe2e70b5	-0.17035182
63	0xbd4d7f26	-0.050170086

model.1.weight f4 [64]
0	0x3f726a9d	0.9469393
1	0x3f7e59f7	0.99356025
2	0x3f8d5f84	1.1044774
3	0x3f8315b6	1.0241001
4	0x3f80815f	1.0039481
5	0x3f85057c	1.0392299
6	0x3f8055b2	1.0026152
7	0x3f8c10d3	1.0942634
8	0x3f879fdc	1.059566
9	0x3f84e97e	1.0383756
10	0x3f8afd26	1.0858505
11	0x3f775484	0.96613336
12	0x3f8283f7	1.0196522
13	0x3f7fc023	0.9990255
14	0x3f823cba	1.0174782
15	0x3f64e24d	0.8940781
16	0x3f7d1438	0.98858976
17	0x3f7a04c0	0.976635
18	0x3f7f9a94	0.9984524
19	0x3f58ab28	0.84636164
20	0x3f7bfd0c	0.98432994
21	0x3f7619f0	0.9613333
22	0x3f8070a0	1.003437
23	0x3f7780aa	0.966807
24	0x3f79ddfa	0.97604334
25	0x3f8aab97	1.0833615
26	0x3f6e538f	0.9309625
27	0x3f7138eb	0.94227475
28	0x3f8821ab	1.0635275
29	0x3f8087bc	1.0041423
30	0x3f85b456	1.0445659
31	0x3f9099e3	1.1296962
32	0x3f79a62b	0.9751918
33	0x3f806e02	1.0033572
34	0x3f7fe0bf	0.9995231
35	0x3f6fba32	0.93643486
36	0x3f6a7838	0.9158969
37	0x3f8068d7	1.0031995
38	0x3f866d38	1.0502081
39	0x3f93e856	1.1555278
40	0x3f8549d8	1.041316
41	0x3f825e52	1.0185034
42	0x3f89cdde	1.0765951
43	0x3f5c4ca0	0.8605442
44	0x3f855b68	1.041852
45	0x3f680f45	0.906483
46	0x3f70f4d6	0.9412359
47	0x3f831ff1	1.0244123
48	0x3f6529a0	0.8951664
49	0x3f6ae8b0	0.917613
50	0x3f8e9ca9	1.1141559
51	0x3f69a866	0.9127258
52	0x3f86b9b9	1.0525428
53	0x3f61be1b	0.881807
54	0x3f8b007e	1.0859525
55	0x3f7fd740	0.9993782
56	0x3f72f826	0.94909894
57	0x3f70f29b	0.94120187
58	0x3f65e5ce	0.8980378
59	0x3f80fbb6	1.0076816
60	0x3f881c4e	1.0633638
61	0x3f7d16f5	0.98863155
62	0x3f7e1739	0.99254185
63	0x3f7c712b	0.9861018

model.1.bias f4 [64]
0	0xbdd26776	-0.1027364
1	0xbe05282c	-0.13003606
2	0xbc6458d7	-0.013937197
3	0xbdf47bcf	-0.11937677
4	0xbdab97f5	-0.08378593
5	0xbdd60167	-0.10449486
6	0xbd4b2470	-0.049595296
7	0xbd1c2626	-0.03812232
8	0xbdfb1a86	-0.12260918
9	0xbcc93148	-0.024559632
10	0xbced3e61	-0.028960409
11	0xbd4b0c4e	-0.04957228
12	0xbdc86460	-0.0978477
13	0x3c3453ce	0.011006309
14	0xbd212ec8	-0.039351255
15	0xbb01f912	-0.0019832295
16	0xbe4bec16	-0.19914278
17	0xbe3c0d67	-0.18364488
18	0xbe743096	-0.23846659
19	0xbd4db9fb	-0.050226193
20	0x3bcd49a6	0.006264883
21	0xbd9f41e5	-0.0777624
22	0xbe180a46	-0.14847669
23	0xbdeb3d2a	-0.114862755
24	0xbd0ff3c3	-0.03514458
25	0xbcd460c0	-0.02592504
26	0xbdb48346	-0.08814101
27	0xbd9fb54e	-0.07798253
28	0x3d15d6a9	0.03658167
29	0xbd185006	-0.03718569
30	0xbde9133a	-0.1138062
31	0xbd3c81f4	-0.04602237
32	0xbd42dfab	-0.047576588
33	0x3db1794b	0.08665713
34	0xbe06fa35	-0.13181384
35	0xbdb47f1d	-0.088133074
36	0xbcb5deca	-0.02220096
37	0xbd32a817	-0.043617334
38	0xbd71a066	-0.05899086
39	0x3d825bbd	0.06365154
40	0xbc929690	-0.01789406
41	0xbd918f1f	-0.07107376
42	0xbd49d09b	-0.049271207
43	0xbda65419	-0.08121509
44	0xbd8c7427	-0.06858092
45	0xbe13d234	-0.14435655
46	0xbe2c9079	-0.16851987
47	0xbddd8bc2	-0.10817672
48	0xbd54a293	-0.051912855
49	0xbdea29f5	-0.11433784
50	0x3cfe9369	0.03107615
51	0xbdde5331	-0.10855711
52	0x3d052bca	0.032512464
53	0xbdc80da1	-0.097682245
54	0xbd6ea077	-0.0582585
55	0xbd972d86	-0.0738173
56	0xbdcbb811	-0.09947217
57	0xbd179573	-0.03700776
58	0xbe0b45ee	-0.13600895
59	0x3de75242	0.11294986
60	0xbdf37549	-0.11887605
61	0xbd2888e5	-0.041146178
62	0xbca372b6	-0.01995216
63	0xbe5bfac0	-0.21482372

model.1.running_mean f4 [64]
0	0x3e27ff19	0.16405906
1	0xbcadc2d3	-0.021211063
2	0xbdd257b8	-0.10270637
3	0xbd7e56ee	-0.06209462
4	0x3def4563	0.11683156
5	0xbe065193	-0.13117056
6	0xbd8f90ac	-0.07010016
7	0xbc77fac0	-0.015135467
8	0x3dc6b966	0.09703331
9	0x3d1be089	0.03805593
10	0xbdb26f57	-0.08712643
11	0xbdd20909	-0.102556296
12	0xbd9beb46	-0.07613234
13	0xbc204ee6	-0.009784436
14	0xbc1cf551	-0.009579972
15	0xbd664b15	-0.056223948
16	0x3d842df4	0.06454077
17	0x3d462071	0.048370782
18	0xbddf28a5	-0.10896424
19	0xbd055066	-0.032547377
20	0x3cab9813	0.020946538
21	0x3e34b3cb	0.1764671
22	0xbe44efa4	-0.1923204
23	0x3d399a9c	0.045313463
24	0xbce3c825	-0.027805397
25	0x3d140da8	0.036145836
26	0xbde5278f	-0.11189186
27	0x3e20efd2	0.15716484
28	0x3d38a7e2	0.04508198
29	0xbdd7d86c	-0.10539326
30	0x3e2e61f7	0.17029558
31	0xbe1265a0	-0.1429658
32	0xbce4a82d	-0.027912224
33	0x3cd972ea	0.026544053
34	0x3e17f46f	0.14839338
35	0x3d3c1bad	0.04592483
36	0xbe097131	-0.13422085
37	0xbd3fe69f	-0.046850797
38	0x3d037147	0.03209045
39	0xbd736a50	-0.05942756
40	0xbe034445	-0.12819012
41	0xbdb94eaf	-0.09048211
42	0xbd4cd4f4	-0.050007775
43	0xbd09455e	-0.03351342
44	0x3d9e3077	0.07724088
45	0xbd529377	-0.051410165
46	0xbd0f0222	-0.034914143
47	0x3d7753ef	0.06038278
48	0x3ce278df	0.027645526
49	0x3e0115e4	0.12606007
50	0x3d2e185d	0.042503703
51	0x3db91e6b	0.09039005
52	0x3d80b8e6	0.062852666
53	0x3de29a22	0.11064555
54	0xbbb9e372	-0.0056728655
55	0x3cf0e818	0.029407546
56	0xbd187354	-0.03721936
57	0x3dd839b6	0.105578825
58	0xbc8f2509	-0.017473714
59	0x3daf9056	0.08572452
60	0xbdff3947	-0.12462097
61	0x3e0a2252	0.13489655
62	0xbe42c5c4	-0.19020754
63	0xbd7398b2	-0.059471793

model.1.running_var f4 [64]
0	0x3f2fb449	0.6863447
1	0x3f016285	0.50540954
2	0x3e8b4804	0.2720338
3	0x3f34ad7c	0.70577216
4	0x3ed1e8a7	0.40997812
5	0x3f29d43a	0.6633946
6	0x3f187747	0.59557
7	0x3ee8a996	0.45441884
8	0x3f756706	0.95860326
9	0x3f71629e	0.942911
10	0x3e940da8	0.2891667
11	0x3f9d9179	1.231002
12	0x3ed1bd00	0.40964508
13	0x3ee2461f	0.44194123
14	0x3ed7561e	0.4205789
15	0x3f3d3c9b	0.739206
16	0x3eca7b17	0.39547035
17	0x3f87007e	1.0547025
18	0x3f2eb7cc	0.682492
19	0x3f2e1a04	0.68008447
20	0x3f507f74	0.8144448
21	0x3e214f44	0.15752894
22	0x3f134b3d	0.5753668
23	0x3f27944b	0.6546065
24	0x3ef3ec61	0.4764128
25	0x3eae35a5	0.34025303
26	0x3f32aaf1	0.69792086
27	0x3f926cb2	1.1439421
28	0x3ef12854	0.4710108
29	0x3f5f9037	0.8732943
30	0x3f8c288b	1.0949873
31	0x3f030e8a	0.5119406
32	0x3f2bc616	0.6709913
33	0x3efc1a40	0.49238777
34	0x3ed5ad2d	0.41733685
35	0x3eb699d9	0.3566425
36	0x3f1f9a58	0.62344885
37	0x3ecfa1fc	0.40553272
38	0x3f2c5f8a	0.6733328
39	0x3f141e7b	0.5785901
40	0x3f3d4620	0.7393513
41	0x3f351084	0.70728326
42	0x3ee1bff1	0.44091752
43	0x3e740a6d	0.23832102
44	0x3ed68a5d	0.41902438
45	0x3f2cd3e2	0.6751081
46	0x3eb99a9d	0.36250773
47	0x3ef87ff4	0.4853512
48	0x3f96ec40	1.1790848
49	0x3ea46a17	0.3211219
50	0x3f0c5104	0.5481112
51	0x3ea0d5d1	0.3141313
52	0x3f0c8719	0.5489364
53	0x3eab64af	0.33475253
54	0x3e9b4412	0.3032537
55	0x3f4d6a14	0.8023999
56	0x3e9f689f	0.31134507
57	0x3f94762d	1.1598564
58	0x3f0ef197	0.55837387
59	0x3ec74460	0.38919353
60	0x3eebb10f	0.46033522
61	0x3f21f3e1	0.63262755
62	0x3f488956	0.7833456
63	0x3e993d79	0.29929712

model.4.weight f4 [32, 64]
0	0x3d866d7f	0.065638535
1	0x3df38592	0.11890711
2	0x3d84ab26	0.064779565
3	0xbc98166e	-0.018565383
4	0x3d17b138	0.037034243
5	0xbdaf4ff7	-0.08560174
6	0xbda9b837	-0.08287089
7	0x3cf4e857	0.029895945
8	0xbd209af0	-0.03921026
9	0xbd7478f6	-0.05968567
10	0xbe1be210	-0.15222955
11	0x3d748e99	0.059706304
12	0xbc0fbad4	-0.008772571
13	0x3d84eced	0.064905025
14	0xbdbecc20	-0.093162775
15	0xbdb23555	-0.087015785
16	0xbd644b47	-0.055735853
17	0xbcc265a7	-0.023730112
18	0xbc1ecd9d	-0.009692577
19	0x3db1544e	0.08658658
20	0x3def3b6f	0.11681258
21	0x3df57a7a	0.11986251
22	0x3c91af8b	0.0177839
23	0x3dda49f3	0.10658636
24	0xbdbfa538	-0.09357685
25	0xbe01fc07	-0.12693797
26	0xbd640fde	-0.055679195
27	0xbe5d4b51	-0.21610762
28	0xbce71cf8	-0.028212056
29	0xbcafffe5	-0.021484325
30	0xbdf084d8	-0.11744088
31	0xbdc3172b	-0.09525903
32	0x3d47923e	0.04872345
33	0xbc9a0351	-0.01880041
34	0x3d9cfe3f	0.07665681
35	0xbd5cd7cf	-0.05391675
36	0x3c6b5b6f	0.014365061
37	0xbe4b6de4	-0.19866139
38	0x3d3d23d5	0.04617675
39	0x3e186bf9	0.14884938
40	0xbda6e5d8	-0.08149308
41	0xbab8d5b2	-0.0014101772
42	0x3d9892c4	0.07449868
43	0x3df1ef88	0.11813265
44	0xbd3ba156	-0.04580816
45	0x3d34e4e5	0.044163603
46	0xbd8f05c6	-0.06983523
47	0xbe0b6f5d	-0.136167
48	0xbdfb48e3	-0.122697614
49	0xbdac688a	-0.08418377
50	0x3bd974f9	0.0066362587
51	0xbd9cf358	-0.07663602
52	0xbe16aa39	-0.14713372
53	0x3d1a4074	0.037659124
54	0xbe532d9b	-0.20622866
55	0xbe162bf0	-0.14665198
56	0xbca58fcc	-0.02021017
57	0xbd86a5fb	-0.06574627
58	0x3da6ae33	0.081386946
59	0xbe8043d1	-0.2505174
60	0xbe2f6c77	-0.1713122
61	0xbe27f97a	-0.16403762
62	0xbc9f5083	-0.01944757
63	0xbdbc9cdb	-0.09209605
64	0x3d91981d	0.071090914
65	0xbd795965	-0.06087627
66	0x3d654122	0.05597032
67	0xbe1bc6e8	-0.15212595
68	0xbce15fcd	-0.027511502
69	0xbdcbd9db	-0.09953662
70	0x3dec690a	0.11543472
71	0xbe624e5c	-0.22100204
72	0xbe77f251	-0.2421353
73	0x3cc6f6d8	0.024287626
74	0xbd8bc6df	-0.06825041
75	0x3d8cb91e	0.06871246
76	0xbde8dd0c	-0.11370286
77	0x3d52a844	0.05143
78	0x3d9623b7	0.07331031
79	0xbd8b1861	-0.06791759
80	0x3dc10ff7	0.09426873
81	0xbd611878	-0.054954976
82	0xbe049fbf	-0.12951563
83	0x3db4a148	0.088198245
84	0x3daf0823	0.08546474
85	0x3d8be7df	0.06831335
86	0x3d7fdcf8	0.06246659
87	0xbdb60e83	-0.08889487
88	0xbdf0ad29	-0.11751778
89	0x3d83504b	0.06411799
90	0x3db6c34c	0.08923969
91	0x3de550dd	0.11197064
92	0xbbb2543a	-0.0054421695
93	0x3cc70794	0.024295606
94	0xbdc7635c	-0.09735748
95	0xbd06036b	-0.032718103
96	0xbdb34dfc	-0.08755109
97	0xbde3d21f	-0.11124062
98	0x3e0ca567	0.13734971
99	0xbe1ba379	-0.15199079
100	0x3d4e59f8	0.05037877
101	0xbd0e45e0	-0.034734607
102	0x3d3f88d1	0.046761338
103	0x3d60ba19	0.054864977
104	0xbe650bed	-0.2236783
105	0xbcf2b3ef	-0.029626815
106	0x3d2c6133	0.042084884
107	0xbd9976d7	-0.0749337
108	0x3c1ddc56	0.009635052
109	0xbd8da269	-0.06915743
110	0xbdc3665a	-0.095410064
111	0xbe191a4c	-0.14951438
112	0xbd5118eb	-0.051049154
113	0xbd8265c3	-0.06367066
114	0xbd42979e	-0.047507875
115	0xbdc81b57	-0.0977084
116	0xbe462000	-0.19348145
117	0xbd7394fa	-0.059468247
118	0xbd190e9f	-0.03736746
119	0x3d35afe3	0.04435719
120	0xbd4c9bd3	-0.049953293
121	0xbdcf2917	-0.10115259
122	0x3db92c89	0.090416975
123	0xbe54f880	-0.2079792
124	0xbe1833b3	-0.14863472
125	0xbd9fd594	-0.07804409
126	0xbd0e9c1a	-0.03481684
127	0x3d5cce38	0.053907603
128	0xbd2bdc4d	-0.041958142
129	0xbdb3b870	-0.08775413
130	0x3dcdb9c6	0.10045199
131	0xbe2b752c	-0.16743916
132	0xbdcb7dd7	-0.099361114
133	0x3e0d1164	0.13776165
134	0xbdd7bd73	-0.105341814
135	0xbe13a429	-0.14418091
136	0xbdf2a6b7	-0.118482046
137	0xbd93a229	-0.07208664
138	0xbd163c20	-0.036678433
139	0x3d7e68f5	0.062111814
140	0xbc2486ac	-0.010041874
141	0xbd1a1c4b	-0.03762464
142	0x3d0802dd	0.033205856
143	0xbda5861c	-0.0808222
144	0xbe0fc156	-0.14038596
145	0xbe4c2ecd	-0.19939728
146	0xbcf3bdd9	-0.029753612
147	0x3da8ed29	0.0824836
148	0xbdaa2202	-0.08307268
149	0x3d718ff4	0.058975175
150	0x3c948e3b	0.018134227
151	0x3a1e29fc	0.0006033478
152	0x3dbdfd65	0.09276847
153	0xbc36b81f	-0.011152296
154	0xbc288362	-0.01028523
155	0x3d7fd124	0.06245531
156	0x3e00447d	0.12526126
157	0x3e632544	0.22182184
158	0xbd2add37	-0.041714873
159	0xbe110e76	-0.14165673
160	0x3de9a6f2	0.114087954
161	0xbcb2335c	-0.021753006
162	0x3d3e2fd5	0.046432335
163	0xbcb9c4fe	-0.022676941
164	0xbdc05004	-0.09390262
165	0xbe3ad751	-0.18246199
166	0xbd1f6b53	-0.03892071
167	0xbe0d8a15	-0.13822205
168	0xbe4c321e	-0.19940993
169	0x3b1d4eb0	0.00240032
170	0x3e154889	0.14578451
171	0xbdca1785	-0.09867767
172	0xbe108d9f	-0.14116524
173	0xbe246e26	-0.16057643
174	0x3d2922b1	0.04129285
175	0x3da85da0	0.082209826
176	0xbcbbfb24	-0.022946902
177	0x3de89643	0.11356785
178	0xbdbe5605	-0.09293751
179	0xbd074cae	-0.03303211
180	0x3d9e3557	0.077250175
181	0xbe56e1b1	-0.20984532
182	0xbc7fc40b	-0.015610705
183	0xbc492754	-0.012277443
184	0x3de4124a	0.11136301
185	0xbdf04353	-0.11731591
186	0x3def6388	0.11688906
187	0xbde52e5b	-0.11190482
188	0x3d1cd95a	0.03829322
189	0xbd0fa249	-0.035066877
190	0x3d67d44d	0.05659895
191	0x3bbd58da	0.005778414
192	0x3d9ba559	0.07599897
193	0xbdfb221e	-0.12262367
194	0xbe555df4	-0.20836622
195	0x3c631840	0.013860762
196	0x3e1ce218	0.15320623
197	0xbd9c4d1d	-0.07631896
198	0xbdfadfc1	-0.12249709
199	0x3daa5601	0.08317185
200	0xbe3cb631	-0.18428876
201	0x3c8eaf5a	0.017417599
202	0xbdfd27bf	-0.123610966
203	0x3d577398	0.052600473
204	0xbbff2f6b	-0.007787635
205	0xbd3c1f67	-0.045928385
206	0xbd8c2ffd	-0.068450905
207	0xbd73a9f4	-0.05948825
208	0x3d8c2c59	0.06844396
209	0xbd12e182	-0.035859592
210	0xbd0b248a	-0.033970393
211	0x3df58944	0.11989072
212	0x3d468f0b	0.04847626
213	0x3c997a65	0.01873512
214	0xbd90254b	-0.07038363
215	0xbd50c156	-0.05096563
216	0xbd9c58ec	-0.07634148
217	0x3c9c3786	0.019069444
218	0x3dbc897a	0.09205909
219	0xbe13411d	-0.14380307
220	0x3d6e4097	0.058167066
221	0xbcdf7b87	-0.027280582
222	0xbe3a15ff	-0.18172453
223	0x3df5d023	0.120025896
224	0x3d12cae4	0.035838023
225	0x3dfc047f	0.12305545
226	0x3da93c70	0.08263481
227	0xbd900c3a	-0.07033582
228	0xbcf52587	-0.029925121
229	0xbdd682b0	-0.104741454
230	0x3da0cfb3	0.078521155
231	0x3d977c3d	0.073967434
232	0x3e148b99	0.14506377
233	0xbdc8ae28	-0.09798843
234	0x3c0da7ec	0.008645993
235	0xbca8784e	-0.020565178
236	0x3dbb4a15	0.091449894
237	0xbe442d73	-0.19157963
238	0xbe0bcc29	-0.136521
239	0xbe36ca8e	-0.17850706
240	0xbe11aa90	-0.1422522
241	0x3d53581f	0.05159771
242	0xbdb0ebb3	-0.08638706
243	0x3d3b9c29	0.045803223
244	0xbde61d59	-0.11236066
245	0xbde88373	-0.11353197
246	0xbe309d5a	-0.17247525
247	0xbe3a7831	-0.18209912
248	0x3b933f9b	0.0044936663
249	0xbdb8288f	-0.08992111
250	0x3dbf2edf	0.09335112
251	0xbdc4ea91	-0.096150525
252	0x3d10094c	0.035165116
253	0xbe208649	-0.15676226
254	0x3cfc31b5	0.03078542
255	0x3d905709	0.07047851

model.4.bias f4 [32]
0	0xbcd77aea	-0.026303727
1	0xbd5d17e3	-0.05397786
2	0xbdde2a4e	-0.10847913
3	0xbd9de9e6	-0.07710628
4	0xbca998ee	-0.020702805
5	0xbd88ab78	-0.0667333
6	0x3dae92f2	0.08524121
7	0xbc8fc84d	-0.017551566
8	0xbd12f506	-0.035878204
9	0x3dabd803	0.0839081
10	0xbdeb4944	-0.11488584
11	0x3d217dda	0.039426662
12	0xbc4c9017	-0.012485526
13	0x3ddef9d2	0.10887493
14	0x3c8363d2	0.016038809
15	0xbd40d90a	-0.047081985
16	0xbd9b9edd	-0.0759866
17	0xbdab5aaf	-0.08366906
18	0xbd6d32a8	-0.057909638
19	0x3de0d296	0.10977666
20	0x3dbdfec5	0.09277109
21	0x3e0113e3	0.12605242
22	0xbd3a187d	-0.04543351
23	0x3d276d5f	0.04087579
24	0xbdb78025	-0.089599885
25	0xbd12c122	-0.035828717
26	0x3dde194e	0.1084467
27	0xbdb11282	-0.08646108
28	0xbdfef6a5	-0.124493875
29	0x3bbc7a13	0.005751857
30	0x3cc90f27	0.024543358
31	0x3dc71908	0.09721571

model.5.weight f4 [32]
0	0x3f628db7	0.8849749
1	0x3f5df0c1	0.86695486
2	0x3f4a1214	0.78933835
3	0x3f4c1f90	0.7973566
4	0x3f67fae2	0.9061719
5	0x3f52715b	0.82204217
6	0x3f508aa0	0.81461525
7	0x3f5d840b	0.86529607
8	0x3f6166e4	0.88047624
9	0x3f6628a3	0.89905757
10	0x3f5cc295	0.8623441
11	0x3f5fa3c6	0.87359273
12	0x3f6897e5	0.9085677
13	0x3f6c643f	0.92340463
14	0x3f69be79	0.91306263
15	0x3f54a65a	0.8306633
16	0x3f606b6f	0.8766393
17	0x3f625c42	0.88422024
18	0x3f5e849f	0.86921114
19	0x3f660789	0.8985525
20	0x3f6082bc	0.87699485
21	0x3f58486f	0.84485525
22	0x3f578dd7	0.84200805
23	0x3f6251e4	0.88406205
24	0x3f642d52	0.89131653
25	0x3f4f4e2b	0.8097865
26	0x3f521257	0.82059234
27	0x3f61ee31	0.88254076
28	0x3f63377b	0.8875653
29	0x3f62c327	0.8857903
30	0x3f619603	0.88119525
31	0x3f61b8da	0.88172686

model.5.bias f4 [32]
0	0xbce7d49f	-0.028299628
1	0xbe17d1d1	-0.14826132
2	0xbe32a98e	-0.17447492
3	0xbe3b8674	-0.18313009
4	0xbdef32f4	-0.116796404
5	0xbdce1570	-0.10062683
6	0xbe15b675	-0.14620383
7	0xbd8ce3a3	-0.06879356
8	0xbe020503	-0.12697224
9	0xbd92064f	-0.071301095
10	0xbe34b93e	-0.1764879
11	0xbde67d5f	-0.112543814
12	0xbe0fee4b	-0.14055745
13	0xbc9a071c	-0.018802218
14	0xbd9c7e16	-0.076412365
15	0xbe0684ae	-0.13136551
16	0xbe27537e	-0.16340443
17	0xbe016f07	-0.1264001
18	0xbd8ef6d6	-0.06980674
19	0xbdbf419b	-0.09338685
20	0xbd408da3	-0.047010075
21	0xbdf797bc	-0.12089488
22	0xbddfff84	-0.109374076
23	0xbe2169c1	-0.15762998
24	0xbdcf35f4	-0.101177126
25	0xbe21ec34	-0.1581276
26	0xbdcfafbf	-0.10140943
27	0xbde146d5	-0.10999838
28	0xbdf48a94	-0.11940494
29	0xbd5ff558	-0.054677337
30	0xbdbe8b6f	-0.093039386
31	0xbe375ecf	-0.1790726

model.5.running_mean f4 [32]
0	0xbf4dc31c	-0.8037584
1	0xbf562902	-0.8365632
2	0xbf2427a3	-0.6412298
3	0xbf2b57e0	-0.6693096
4	0xbf38f717	-0.7225203
5	0xbc0728b2	-0.008249449
6	0x3dff799e	0.124743685
7	0xbf96802c	-1.1757865
8	0xbf9d6ab4	-1.2298188
9	0xbf1c8234	-0.61136174
10	0xbf1123a3	-0.56695
11	0xbf659704	-0.89683557
12	0xbf20fae8	-0.6288285
13	0xbf390beb	-0.7228381
14	0xbf24be24	-0.6435263
15	0xbe81c348	-0.253443
16	0xbf6593b1	-0.89678484
17	0xbf8fe14a	-1.1240628
18	0xbf3aa349	-0.72905403
19	0xbf56eeb2	-0.8395797
20	0xbe72337f	-0.23652457
21	0x3e6a6022	0.22888234
22	0xbe085d1b	-0.13316767
23	0xbf4449f0	-0.7667532
24	0xbf178f31	-0.5920287
25	0x3e049b46	0.12949857
26	0x3e8a08fa	0.26959974
27	0xbfbea956	-1.4895427
28	0xbf18a55d	-0.59627324
29	0xbedd43fa	-0.43215925
30	0xbf36f8be	-0.714733
31	0xbf33b9a4	-0.7020514

model.5.running_var f4 [32]
0	0x3f71ca48	0.9444928
1	0x3f23262a	0.6373011
2	0x3ed7a517	0.4211814
3	0x3f495abd	0.7865408
4	0x3f762a6d	0.96158487
5	0x3f37ecec	0.7184589
6	0x3ec67fdf	0.38769433
7	0x3f707bbf	0.9393882
8	0x3f497691	0.7869654
9	0x3f440305	0.7656711
10	0x3eff5f39	0.49877337
11	0x3f33c972	0.70229256
12	0x3f669a3e	0.90079105
13	0x3f85a486	1.0440834
14	0x3fa98954	1.3245034
15	0x3eca68d3	0.395331
16	0x3f5fdec7	0.87449306
17	0x3fcb62b7	1.58895
18	0x3f902c38	1.1263494
19	0x3f863da6	1.0487564
20	0x3f478545	0.7793773
21	0x3f15a304	0.5845187
22	0x3f1a8d51	0.6037188
23	0x3f291bfe	0.6605834
24	0x3f5f7ab8	0.8729663
25	0x3edfebc7	0.4373457
26	0x3f34588e	0.70447624
27	0x3f88a449	1.0675136
28	0x3f520ca0	0.82050514
29	0x3f050123	0.5195486
30	0x3f5061bd	0.81399137
31	0x3f079651	0.5296374

model.8.weight f4 [2, 32]
0	0x3d882773	0.06648149
1	0x3d472aaf	0.04862469
2	0x3dca2496	0.098702595
3	0x3d99b47e	0.07505129
4	0xbdf8e28e	-0.12152587
5	0xbe0e238b	-0.13880746
6	0xbe1c9466	-0.15290985
7	0x3d0245cc	0.031804845
8	0xbc5f9672	-0.013646709
9	0xbd96d94b	-0.07365664
10	0x3da290ad	0.07937751
11	0xbd0d871e	-0.034552686
12	0x3d8508cc	0.064958185
13	0xbd083865	-0.033256907
14	0x3da9049d	0.08252833
15	0xbccd48b4	-0.025059082
16	0xbd301419	-0.042987917
17	0xbdc6d1a8	-0.097079575
18	0x3dc60ba7	0.09670191
19	0x3d9b6782	0.07588102
20	0x3cd3b13c	0.025841348
21	0x3d298ff6	0.041397057
22	0x3d528d40	0.051404238
23	0xbded7178	-0.11593908
24	0x3e0b07cb	0.13577192
25	0x3ced7a92	0.02898911
26	0x3e06b4aa	0.13154855
27	0xbda20a83	-0.07912161
28	0x3d99263e	0.07477997
29	0xbd77bc9d	-0.06048261
30	0x3ce1af24	0.027549334
31	0xbd0ae1c8	-0.033906728
32	0x3dc91582	0.098185554
33	0x3dc67476	0.09690182
34	0x3e0b2e61	0.13591911
35	0x3dff4ff3	0.12466421
36	0xbd77352d	-0.060353447
37	0xbe235e6b	-0.15953986
38	0xbe10a5c2	-0.14125732
39	0xbce99a2d	-0.0285159
40	0xbda55b77	-0.08074086
41	0xbccc3501	-0.024927618
42	0x3d1ebe82	0.0387559
43	0xbdc8e7c8	-0.09809834
44	0x3e01cbb1	0.12675358
45	0x3cc25b70	0.023725241
46	0x3e078b5f	0.1323676
47	0xbd86ec4e	-0.0658804
48	0x3cdccaef	0.026952235
49	0xbd53d337	-0.051715102
50	0x3ccd46cb	0.02505817
51	0x3df09fe1	0.117492445
52	0x3da9bb05	0.08287624
53	0xbd1d9688	-0.038473636
54	0x3cbf2e5b	0.023337534
55	0xbd2db6d4	-0.042410687
56	0x3d923a8e	0.07140075
57	0x3bd956af	0.006632648
58	0x3de83c28	0.11339599
59	0xbdd6ff21	-0.10497881
60	0x3c0d709d	0.008632806
61	0xbcb54cc8	-0.022131339
62	0xbd460391	-0.048343245
63	0x3cb1145a	0.02161615

model.8.bias f4 [2]
0	0xbe35dae2	-0.17759278
1	0xbd7e7dfe	-0.062131874
