src/modelDevelopment/training/model_files/mlp_model_diff.pt (torch, 11080 bytes, 4 tensors)

fc1.weight f4 [64, 32]
0	0xbd88c618	-0.066784084
1	0x3e324725	0.17409952
2	0xbddb0406	-0.10694127
3	0xbe758a40	-0.2397852
4	0xbdd8c626	-0.10584669
5	0x3e364c9a	0.17802659
6	0x3e47006e	0.19433758
7	0xbe0cbbf6	-0.13743576
8	0x3d02fe87	0.031981017
9	0x3e13e93c	0.1444444
10	0x3e2094b2	0.15681723
11	0x3e27e934	0.16397554
12	0x3d89da18	0.06731051
13	0x3d782340	0.060580492
14	0x3a8b6df2	0.0010637625
15	0x3e0519e6	0.1299816
16	0x3d9a2fbe	0.07528637
17	0x3e3a6fcb	0.18206708
18	0x3e255e6e	0.16149303
19	0xbd707b8b	-0.05871157
20	0x3c089663	0.008336636
21	0x3db90999	0.09035034
22	0x3dda7b97	0.10668104
23	0x3da70d95	0.081568874
24	0x3d9ac5d9	0.07557268
25	0xbd3a51ae	-0.045488052
26	0x3d311f55	0.04324277
27	0x3d2dc11f	0.042420503
28	0xbdff81a2	-0.12475897
29	0xbd9574b8	-0.07297653
30	0x3dde899b	0.1086609
31	0xbd83c334	-0.064337164
32	0xbd5851f1	-0.05281252
33	0xbe3432f3	-0.1759756
34	0xbdac1cd7	-0.08403938
35	0x3d980d9a	0.07424469
36	0x3d8ec9a8	0.069720566
37	0x3c3c9664	0.011510465
38	0x3d3f70df	0.0467385
39	0xbd1174a9	-0.035511646
40	0x3e2adb40	0.166852
41	0xbe3ac6d4	-0.1823991
42	0x3d70d196	0.058793627
43	0xbcac9609	-0.021067636
44	0x3da81bb1	0.08208407
45	0xbd9da308	-0.07697111
46	0xbd0e94bc	-0.034809813
47	0xbda2362d	-0.079204895
48	0xbd9c68ac	-0.07637152
49	0xbd40def6	-0.047087632
50	0x3d914ccb	0.07094725
51	0xbde79656	-0.11307971
52	0xbe233feb	-0.15942352
53	0xbdb0c8dd	-0.08632062
54	0x3db6049b	0.08887597
55	0x3d291f70	0.041289747
56	0x3c7a6c43	0.015284601
57	0x3e36954b	0.17830388
58	0x3dd5f246	0.104466006
59	0xbdec3e44	-0.11535314
60	0x3d56bc78	0.05242583
61	0xbc245b26	-0.010031497
62	0xbe44cd67	-0.1921898
63	0x3e28c5fb	0.16481774
64	0xbdd0989b	-0.10185357
65	0x3d8b071e	0.06788467
66	0x3e13fef9	0.14452733
67	0x3d3340d0	0.043762982
68	0xbd81b1ec	-0.06332764
69	0xbdd59456	-0.104286835
70	0xbd1ff366	-0.039050482
71	0xbcfe7009	-0.031059282
72	0xbd032c9d	-0.03202497
73	0x3cc4bd58	0.024016067
74	0x3ddc5f10	0.10760319
75	0x3d9ecebf	0.077542774
76	0x3d038a54	0.03211434
77	0x3d9ca49a	0.07648583
78	0xbe3c3403	-0.18379216
79	0x3cc1d46e	0.023660865
80	0xbe21ebc4	-0.15812594
81	0xbe2fb3e0	-0.1715846
82	0x3e34cdf3	0.17656688
83	0x3d42e03e	0.047577135
84	0x3d81c5e6	0.06336574
85	0xbd9a946b	-0.0754784
86	0x3da16c45	0.07881979
87	0xbe405bc3	-0.18785004
88	0xbdcddd9b	-0.100520335
89	0xbd0ddd83	-0.03463508
90	0x3d5310ca	0.051529683
91	0xbd867523	-0.06565311
92	0xba4975bd	-0.0007685086
93	0x3dcfefba	0.10153146
94	0x3e14d45b	0.14534132
95	0xbe66ea46	-0.22550306
96	0x3e0f296a	0.13980642
97	0xbdca7e60	-0.09887385
98	0xbdce84eb	-0.10083946
99	0xbd8cf232	-0.068821326
100	0xbd4bd661	-0.049764995
101	0xbdc2d7a9	-0.0951379
102	0xbd89e8d9	-0.06733865
103	0x3cd6391b	0.026150277
104	0x3cdda4b1	0.02705607
105	0xbdfe2774	-0.12409869
106	0x3c3a13db	0.011357273
107	0xbd18bc25	-0.037288804
108	0xbd93e1cf	-0.07220804
109	0xbbfbe800	-0.0076875687
110	0xbd8de793	-0.06928935
111	0xbe31c01b	-0.17358439
112	0xbe190d67	-0.14946519
113	0x3e046b26	0.12931499
114	0x3db8b7f8	0.09019464
115	0x3e1c183c	0.1524362
116	0xbd8b2efe	-0.067960724
117	0xbe599dbb	-0.21251576
118	0xbe01552b	-0.12630145
119	0xbe0d5143	-0.1380053
120	0x3da8ba98	0.08238715
121	0xbdb25efa	-0.087095216
122	0xbd35280e	-0.044227652
123	0x3d13f3b2	0.036121078
124	0x3e28cf54	0.1648534
125	0x3cb25482	0.021768812
126	0x3c7201e1	0.014770956
127	0xbe11cc24	-0.1423803
128	0xbcd6f545	-0.02624
129	0x3d025620	0.031820416
130	0xbda4c16c	-0.08044705
131	0xbd63e1f0	-0.055635393
132	0x3d23d8c2	0.04000164
133	0xbdcf7142	-0.10129024
134	0x3c306cb1	0.010768102
135	0xbdfffbb9	-0.12499184
136	0xbd3d4a4c	-0.046213433
137	0x3e03c17d	0.12866779
138	0x3d918de4	0.071071416
139	0x3ddf049d	0.10889552
140	0x3c8aca14	0.016942061
141	0x3de94615	0.1139032
142	0xbd9ee5d8	-0.07758683
143	0xbe0ab1aa	-0.13544336
144	0x3e507b7d	0.20359607
145	0x3e2c1ca8	0.16807806
146	0x3dc04abb	0.09389254
147	0xbdf7a9e0	-0.12092948
148	0x3d5ac5a9	0.05341116
149	0xbdada21d	-0.08478186
150	0xbe22d178	-0.15900218
151	0x3e17d36a	0.14826742
152	0xbe272fef	-0.16326879
153	0xbd9b1a61	-0.07573391
154	0xbd65083d	-0.05591606
155	0x3db9246b	0.09040149
156	0x3c44a1f0	0.0120014995
157	0x3e0f4ffc	0.13995355
158	0x3dd4f9c0	0.103991985
159	0x3d272647	0.04080799
160	0x3e38cc54	0.18046695
161	0xbdad7f67	-0.08471566
162	0xbd1113cc	-0.03541927
163	0x3e06d13e	0.13165757
164	0x3d47977f	0.048728462
165	0x3e0c37f3	0.13693218
166	0x3e35f40e	0.1776888
167	0x3dc869b7	0.097857885
168	0xbcc2afae	-0.023765411
169	0x3c400735	0.011720468
170	0xbe031cdd	-0.12803979
171	0xbcdd7dc7	-0.027037514
172	0xbc21bcc0	-0.009871662
173	0x3d237e2a	0.03991524
174	0x3e1c4631	0.15261151
175	0x3e11d7aa	0.14242426
176	0x3e0cabf4	0.1373747
177	0x3d4569e0	0.048196673
178	0xbde05eb3	-0.109555624
179	0xbe0da392	-0.13831928
180	0x3dca8c7f	0.09890079
181	0xbd4cab70	-0.049968183
182	0x3e367d74	0.17821294
183	0xbe1f1b99	-0.15537871
184	0x3e14f555	0.14546712
185	0xbe01698e	-0.12637922
186	0xbdf1bdd5	-0.11803786
187	0x3e1b8b75	0.15189917
188	0xbe4a5d71	-0.19762208
189	0x3c366e7c	0.01113474
190	0x3dbb07a8	0.0913232
191	0x3e56164b	0.20906942
192	0xbc9ff37e	-0.019525286
193	0x3d3fc277	0.046816316
194	0xbd8b304b	-0.067963205
195	0xbe41bbfb	-0.18919365
196	0xbe0bd6fd	-0.1365623
197	0x3e3bd4be	0.18342873
198	0x3e244011	0.16040064
199	0x3e0859b1	0.13315465
200	0x3e25c161	0.1618705
201	0xbd9c3b0c	-0.0762845
202	0x3dca97af	0.098922126
203	0x3e14d1ef	0.14533208
204	0xbce86f25	-0.02837331
205	0x3e13d530	0.14436793
206	0x3d22350d	0.039601374
207	0x3e3a1cf3	0.18175106
208	0x3dcf83c0	0.10132551
209	0xbe36cc13	-0.17851286
210	0x3db7efa1	0.089812525
211	0xbe351c95	-0.17686684
212	0xbe11b6f8	-0.14229953
213	0xbe364f38	-0.17803657
214	0x3d8009e7	0.06251889
215	0xbd0d8c25	-0.03455748
216	0xbe4001cd	-0.18750687
217	0xbe438a6e	-0.19095775
218	0x3e02970c	0.12752932
219	0xbde55ad5	-0.111989655
220	0x3df6577f	0.12028407
221	0xbdd512cd	-0.104039766
222	0xbdfe92b3	-0.124303244
223	0x3da8e515	0.08246819
224	0xbaeec70e	-0.0018217282
225	0xbdb4673b	-0.08808752
226	0x3e10a38c	0.14124888
227	0x3dd03f82	0.10168363
228	0x3e282dc5	0.1642371
229	0xbcb4689f	-0.022022543
230	0xbc0400a6	-0.008056795
231	0x3dd6fccc	0.10497436
232	0xbe01da06	-0.12680826
233	0x3c8f0ce2	0.017462198
234	0xbd1d8210	-0.038454115
235	0x3e2034b6	0.15645108
236	0xbd3b9f83	-0.04580642
237	0x3c016bd9	0.007899248
238	0xbd0e44af	-0.03473347
239	0x3d168b84	0.036754146
240	0x3e468f14	0.19390517
241	0xbdb3a5ac	-0.08771834
242	0x3d2c576a	0.042075552
243	0xbdec80a3	-0.11547973
244	0xbe032270	-0.12806106
245	0x3d80b011	0.06283582
246	0x3c1cbeb4	0.009566952
247	0x3d9015b5	0.0703539
248	0xbd497b12	-0.049189635
249	0xbd551622	-0.05202306
250	0x3dbe82f2	0.093023196
251	0xbd1ef076	-0.03880354
252	0x3cdd0979	0.026982056
253	0xbd81be5b	-0.063351355
254	0x3e49a29b	0.19690935
255	0xbe05bd7b	-0.13060562

fc1.bias f4 [64]
0	0x3dd3024e	0.10303174
1	0x3d3e6c9c	0.046490297
2	0x3d5325cc	0.051549718
3	0xbdb60c66	-0.088890836
4	0xbe5cf038	-0.21576011
5	0xbe3c76ec	-0.1840474
6	0x3e232227	0.15930997
7	0xbe06ad14	-0.13151962
8	0x3e3d4b5d	0.1848578
9	0xbdb58291	-0.08862794
10	0xbe3cbd3b	-0.1843156
11	0x3e0450f7	0.1292151
12	0xbd9f615d	-0.077822424
13	0x3bd3bacc	0.006461477
14	0xbdc3ca97	-0.09560125
15	0xbe78a8ec	-0.24283189
16	0xbe56c32e	-0.20972893
17	0xbe441e16	-0.19152102
18	0xbe28001f	-0.16406296
19	0x3dd86da7	0.105677895
20	0x3d814509	0.063119955
21	0xbe081a5f	-0.1329131
22	0x3d6b0a56	0.057382904
23	0x3d8ab076	0.067719385
24	0x3e1181f3	0.14209728
25	0xbbee7f69	-0.007278372
26	0xbd5de246	-0.05417087
27	0xbbbf81bf	-0.0058443244
28	0x3e07ba7e	0.13254735
29	0xbc04f310	-0.008114591
30	0xbd8da755	-0.06916682
31	0x3d3ed24c	0.046587273
32	0xbd618841	-0.055061582
33	0xbdfc06e4	-0.12306002
34	0xbcbeb5f6	-0.023280125
35	0x3bb1527b	0.0054114438
36	0xbe4167e3	-0.18887286
37	0xbecb336e	-0.39687675
38	0x3d929bc4	0.07158616
39	0x3d0d19d5	0.034448463
40	0xbe03cd99	-0.12871398
41	0x3e060d32	0.13090971
42	0xbe35d71c	-0.17757839
43	0x3e3f42f8	0.1867789
44	0x3cd2644a	0.025682587
45	0x3baf6ab4	0.005353296
46	0xbd7596be	-0.059958212
47	0x3ce5607f	0.028000114
48	0x3d3493bc	0.044086203
49	0xbe38e7c5	-0.18057163
50	0xbdefecb3	-0.11715069
51	0xbd7b5f7e	-0.061370365
52	0xbd722ebe	-0.059126608
53	0xbca43579	-0.020045029
54	0x3e21a089	0.15783896
55	0xbe954c55	-0.291598
56	0xbd4cda30	-0.050012767
57	0xbe9d4aed	-0.30721226
58	0xbe7c8e51	-0.24663664
59	0x3db37983	0.08763411
60	0x3e4507ba	0.19241229
61	0xbd32a7fa	-0.043617226
62	0xbc933078	-0.017967448
63	0xbdfe808a	-0.12426861

fc2.weight f4 [2, 64]
0	0x3d2d78b9	0.04235146
1	0xbd95341b	-0.07285329
2	0xbd1863a9	-0.03720442
3	0xbd854103	-0.065065406
4	0x3d41a2a7	0.047274258
5	0xbe01882b	-0.126496
6	0xbd5c5206	-0.05378916
7	0xbd89a475	-0.06720821
8	0xbc85dce4	-0.01634068
9	0x3c09bab9	0.008406335
10	0xbdfb6d85	-0.122767486
11	0xbde7661f	-0.11298775
12	0x3d515b44	0.05111243
13	0xbd4c4f34	-0.04988022
14	0xbca51ad4	-0.020154394
15	0x3e0cfb06	0.13767633
16	0x3dc3040d	0.09522257
17	0xbdada066	-0.08477859
18	0xbbaa618e	-0.0051996177
19	0xbccd484f	-0.025058893
20	0x3b808633	0.003922248
21	0xbdb451aa	-0.08804639
22	0x3d4cb423	0.04997648
23	0xbd9ab329	-0.07553703
24	0xbdb287d6	-0.08717315
25	0xbdaf055a	-0.085459426
26	0xbe125227	-0.14289151
27	0xbda933bf	-0.08261823
28	0xbca10d15	-0.019659558
29	0x3c97b478	0.018518671
30	0x3ddb4e92	0.107083455
31	0x3c99e49f	0.018785773
32	0x3d9e1738	0.077192724
33	0xbd84a84d	-0.06477413
34	0xbcc9df3b	-0.024642577
35	0xbc84d2ea	-0.016213853
36	0x3ccb0bd7	0.02478592
37	0xbaf89cfc	-0.0018967683
38	0xbdb431c9	-0.08798558
39	0x3bef2990	0.007298656
40	0x3d02db7d	0.0319476
41	0xbd4958e7	-0.04915705
42	0xbda7ff34	-0.08202973
43	0xbdf2a1b3	-0.11847248
44	0x3dda98f5	0.106737055
45	0x3c517ab8	0.012785606
46	0x3d3c0d4b	0.045911115
47	0x3c9c916d	0.019112313
48	0x3c3377e0	0.010953873
49	0xbd33a9b7	-0.043863025
50	0x3d038464	0.03210868
51	0x3d1583c2	0.036502607
52	0xbd97a2c6	-0.074040934
53	0x3d30b904	0.043145195
54	0x3c8014c8	0.01563491
55	0x3e064c32	0.13115004
56	0x3d823d15	0.06359307
57	0xbdbbda8e	-0.091725454
58	0x3d1146fd	0.03546809
59	0x3d4ed41f	0.050495263
60	0x3d42e980	0.047585964
61	0x3d41aef1	0.047285978
62	0x3d85f2c9	0.06540448
63	0xbd44cfe9	-0.04804984
64	0xbd9fcafd	-0.07802389
65	0x3c6572c7	0.014004416
66	0x3d345958	0.044030517
67	0xbbde9a62	-0.006793306
68	0x3d2d9b42	0.042384394
69	0x3d37941a	0.044818975
70	0xbe0dbffb	-0.13842766
71	0xbcfde597	-0.030993266
72	0xbdad37f7	-0.0845794
73	0xbdd3ac82	-0.10335638
74	0x3d31d6a3	0.043417584
75	0x3bd84618	0.0066001527
76	0x3ba2f019	0.0049724695
77	0x3c8bb5da	0.017054487
78	0xbcf91503	-0.030405527
79	0xbd2b83d2	-0.04187376
80	0xbddeaa6d	-0.1087235
81	0x3dc63066	0.096772
82	0x3d973c02	0.073844925
83	0x3da0da31	0.07854117
84	0xbcef90c4	-0.029243834
85	0x3b32560f	0.002721194
86	0x3ddd4a96	0.10805242
87	0xbcea7901	-0.028622152
88	0xbb9cbf3d	-0.0047835396
89	0xbd9e68d7	-0.0773484
90	0x3c446e1a	0.011989141
91	0xbdee60d7	-0.116395645
92	0xbddb426a	-0.10706027
93	0x3e03556b	0.12825553
94	0xbd4a493f	-0.04938626
95	0xbda71819	-0.08158893
96	0xbc7bf792	-0.01537885
97	0xbd9ce02b	-0.07659944
98	0x3d3ef297	0.04661807
99	0x3da8134f	0.08206808
100	0x3c94fbbc	0.018186443
101	0xbe3f3945	-0.1867419
102	0x3d9e4b08	0.07729155
103	0x3a521b53	0.0008014936
104	0xbc61aa2d	-0.013773483
105	0xbc9d148b	-0.019174835
106	0xbdf02414	-0.11725631
107	0x3b320e54	0.0027169185
108	0x3d35206f	0.044220384
109	0xbe0717ed	-0.1319272
110	0xbd7dcb19	-0.061961267
111	0xbd3b85d7	-0.045781936
112	0x3d0c033f	0.034182783
113	0xbd4e90f0	-0.050431192
114	0x3db7f35e	0.089819655
115	0xbc1b2251	-0.009468631
116	0x3d9fd650	0.07804549
117	0xbd15c41e	-0.036563985
118	0xbcfea100	-0.03108263
119	0xbd2a1735	-0.04152604
120	0x3d9bdec8	0.076108515
121	0xbe19836d	-0.14991541
122	0xbd7279a0	-0.059198022
123	0xbd80dba1	-0.06291891
124	0x3e16a8ac	0.1471278
125	0xbe12b418	-0.14326513
126	0x3dcfafb9	0.10140938
127	0xbd6a4c2c	-0.05720155

fc2.bias f4 [2]
0	0xbe13a2d9	-0.1441759
1	0xbcd16728	-0.025561884
