src/modelDevelopment/training/model_files/mlp_model_raw.pt (torch, 19264 bytes, 4 tensors)

fc1.weight f4 [64, 64]
00000000: 8152 ae3a 7e69 eebd 9bb6 a8bc daef a5bd
00000010: 5131 05be 8ab0 f1bd dac6 7ebd 586d d53c
00000020: 8340 c0bc c3d8 17be f572 2cbe 3d9e 8bbc
00000030: d881 abbc 671d 02be 7401 87be b896 ca3d
00000040: 0e69 c83d 2e92 fc3d 8add c1bd 7641 5c3d
00000050: 10b4 5f3d cbc3 42be 9fe7 4e3d bb9d 17bd
00000060: e45a eebc 4144 093e 19dc 48bd 64fc 7ebc
00000070: aeba e43d aff5 403d 5089 02be cdc9 abbc
00000080: 781e e7bc c7cd 233b de6e b9bd 2417 fa3d
00000090: f84a 053d 0394 213e 999e 8bbd 3d4d f7bd
000000a0: 4a35 99bd e6e3 743d a887 5fbc d3ee cebc
000000b0: 864a f6bd 34dd 4ebd 13fa 1d3e 4868 82bd
000000c0: d1a3 eb3d 9ec9 c0bd d523 0c3d d629 863d
000000d0: 80d1 e33a 96c4 a23c 140f b0bd 955a 913d
000000e0: 7b2d 05be a463 99bc 5158 bfbd f9cf c4bd
000000f0: 2e29 843c b99a 9e3d cb2b 84bd 08c5 7c3d
00000100: a22d 833c d458 913d 706f 10bd f38e 44ba
00000110: 04b6 b5bd 2bcd c2bd a60b 2d3c ad56 56bd
00000120: 71ef 9d3d 8eb5 89bd af4c 643d 2567 08bd
00000130: 8612 413d ee05 2bbb 2238 e83a a895 82bd
00000140: c9bf e73b 872e 2dbe 09ec 393d fc59 1b3e
00000150: 75a0 b9bd c886 163d e5aa 2fbd d8ac 54bd
00000160: 7910 eabd 0f8c 95bb 3aba eb3d 3552 033c
00000170: f7da e1bc 12a1 493d d3fd e63d e1e0 613d
00000180: 56d3 1e3d fd3b d8bc e31e c0bb b6da 51bd
00000190: 2cc9 58bc c9c1 2fbe 295f 013e 0b1c d4bb
000001a0: 40e0 26be ccb7 6bbd cdcd dfbd d8d4 32bb
000001b0: 326d 063e 2c81 b53b 4908 1b3d 27f6 8a3d
000001c0: 854f 9dbd bc14 75bd dc4c 853d 7c29 0ebe
000001d0: 3da2 59bd 3632 94bc bcf2 153d 4c84 1a3e
000001e0: 419f d03d a712 b0bd 8306 093e 074a 733d
000001f0: a350 61bd e4ce 0abe b084 953c 6a9e 8d3d
00000200: c363 eebc 8af0 3b3b 07f4 833c 5b03 13bd
00000210: 7627 61bd 5548 ed3c c498 523a 29fe 1c3c
00000220: 79e6 12bd 32a2 53bd eb56 c93d 84df 92bb
00000230: f707 863c 2417 3f3d cb17 9bbc 8eee f33c
00000240: dd7a d53d 1395 273d 4e88 89bd d35a a0bd
00000250: ae22 eebd 4397 a13d dcb3 f0bb 6c54 df3c
00000260: ab93 283b 6bda 51bd ffd3 8bbd 7c73 863d
00000270: f80c 163c 70a7 33bd c8be 713c 3b81 04be
00000280: b728 21be 8f47 d03c 1a89 283d 0d5d 023e
00000290: f359 83bd 8172 143d 9216 9fbd 9cb8 86bd
000002a0: bb32 6f3d da47 2f3d 0270 e4bc 750c bdbd
000002b0: a0d4 48bd a33d 7a3d ec16 debc 89d0 c03c
000002c0: 07fd a0bc 71a3 50bd f93b 46bc 9a24 fb3d
000002d0: fbf3 18bd 5cf5 0b3d 0abb a0bd 52e9 75bd
000002e0: cf88 eebd d401 953d cc92 4f3d 7c46 d53b
000002f0: b7b3 5a3d 3d4d 6ebd 77a3 03be 4e24 c2bc
00000300: a572 babd 350e ff3d 1009 733e fa59 d93c
00000310: 252b b03d b504 713e 4198 623e 8ac5 a43d
00000320: 7682 0e3e b195 9e3c 0dfb 923d 745c 263d
00000330: a4e2 1dbd 0522 7ebd ef81 febd 7b85 083e
00000340: 27c8 93bd 79a9 c6bd d483 38be f3bf 8d3d
00000350: 131c 8c3c e9a8 09be 8644 e9ba 7d46 313d
00000360: 1c11 0ebd 9600 f53d 3059 23bd 4c00 82bc
00000370: dc9e 5c3d a15f 04bd 9164 efbd e44d df3b
00000380: d601 ed3d f0b6 90bd adbd 40bc 9260 02be
00000390: 40e7 9a3c 8f3a 5d3d 75a8 163d 96d2 b5bd
000003a0: bba4 7ebd c289 30bd 3528 00bc d547 ccbd
000003b0: 737f b0bd 32d2 cf3d 0f70 ca3c cad3 30bd
000003c0: 2e10 12bd b4f4 9a3b 3ddf 24be cdb5 2cbd
000003d0: e1be 473d 6945 7fbd 5bc9 c2bd 604a 083d
000003e0: d3b4 c8bd 099a ff3c 3e04 833c 2d68 bbbd
000003f0: 5ec6 92bd 8f38 a53c 99c4 ee3d 714e 8b3c
0.0013299735 -0.11641215 -0.020594886 -0.08102389 -0.13007094 -0.1180125 -0.06220136 0.026053116
-0.023468262 -0.14828782 -0.16840728 -0.017043227 -0.020935938 -0.12706529 -0.26368296 0.098920286
0.097856626 0.12332569 -0.09466083 0.053773366 0.05461508 -0.19020002 0.05051386 -0.037015658
-0.029096074 0.13404943 -0.049038026 -0.015563104 0.11168419 0.047109302 -0.12747693 -0.02097025
-0.02821277 0.002499448 -0.09054349 0.12211445 0.0325422 0.15779118 -0.068173595 -0.12075279
-0.07480867 0.059787653 -0.013643183 -0.025260365 -0.12025933 -0.050503924 0.15427427 -0.06367546
0.11505855 -0.094134554 0.03421386 0.06550948 0.0017381161 0.01986913 -0.08596626 0.07097355
-0.1300563 -0.01872427 -0.09343017 -0.0960998 0.016132917 0.07744355 -0.06453665 0.06171134
0.01601297 0.07097021 -0.035262525 -0.0007498108 -0.08872607 -0.09511789 0.010561859 -0.052328754
0.077116854 -0.06724082 0.055737194 -0.03330149 0.047136806 -0.0026096064 0.0017716924 -0.06376201
0.007072423 -0.1691228 0.045391116 0.15171045 -0.09063808 0.03674963 -0.042887587 -0.05192265
-0.11428923 -0.0045638154 0.11510129 0.008015205 -0.02757023 0.049225874 0.11278882 0.0551461
0.038775764 -0.026395792 -0.005863057 -0.05123397 -0.013231557 -0.17163767 0.12633957 -0.0064730695
-0.16296482 -0.05754833 -0.10927925 -0.002728751 0.13127592 0.00553908 0.0378497 0.06785231
-0.07681183 -0.059834227 0.065088004 -0.13883013 -0.053133238 -0.018090349 0.036608443 0.1508953
0.10186625 -0.08597308 0.1338139 0.05939677 -0.05500854 -0.13555485 0.018251747 0.06914981
-0.029100304 0.0028677308 0.016107572 -0.035891872 -0.054969274 0.028965155 0.0008033628 0.009582081
-0.035864327 -0.051668353 0.098310314 -0.0044822115 0.01636122 0.046652928 -0.018932244 0.029776838
0.10423825 0.040913653 -0.06715451 -0.07829823 -0.116277084 0.07890179 -0.0073456597 0.027261935
0.0025722783 -0.05123369 -0.068275444 0.06564996 0.009158365 -0.043860853 0.014754958 -0.12939923
-0.15738188 0.025424747 0.041146375 0.12730809 -0.06413641 0.036242012 -0.07767977 -0.0657818
0.05839799 0.042793132 -0.02788544 -0.092308916 -0.0490309 0.061093938 -0.02711054 0.023536937
-0.019651903 -0.05093712 -0.0120992595 0.122628406 -0.037342053 0.03416954 -0.07848175 -0.060036965
-0.11647188 0.07275739 0.050677106 0.0065086465 0.053394046 -0.05817913 -0.12855326 -0.023698952
-0.09103898 0.12453882 0.23733926 0.026532162 0.08601979 0.23536952 0.22128393 0.0804549
0.13916954 0.019358488 0.071767904 0.040615514 -0.03854622 -0.062044162 -0.124271266 0.13332169
-0.072159104 -0.09700293 -0.18019038 0.06921377 0.01710323 -0.1344334 -0.0017796911 0.043280113
-0.034684286 0.119630024 -0.039879978 -0.015869282 0.053862438 -0.03231776 -0.116891034 0.006814705
0.11572616 -0.070661426 -0.011763972 -0.12732151 0.018909097 0.054010924 0.036781747 -0.08878057
-0.062168818 -0.043100126 -0.007822086 -0.099746384 -0.08618059 0.101475134 0.024711637 -0.043170728
-0.03565996 0.004728878 -0.16100784 -0.042165566 0.04876602 -0.062322054 -0.09511062 0.033274055
-0.098001145 0.03120138 0.015993234 -0.09150729 -0.07166742 0.02016857 0.11658592 0.017005177

fc1.bias f4 [64]
00000000: 6422 90bc 2f00 e8bd d1bf 4cbe d1d0 16bd
00000010: e12c 53be e943 52be 58a5 e5bd 796b b1bd
00000020: d41c b93d 9abf 133d 8eec 34be d6c1 e6bd
00000030: 519e c7bd 44c5 7c3c 82e7 2cbe 627b eabc
00000040: d2ae afbd 1adf 6dbd 30e4 66be 2830 58bd
00000050: ee71 3fbd 7857 b2be 341f 2abe ccae dc3c
00000060: 0181 12be dde7 9abd 9a68 85be b3d2 b1bd
00000070: 293a 3abb 4209 90bc 7c88 07be f1d6 573d
00000080: 0600 5fbe 70b0 7fbe 0711 55bd d7ad c23c
00000090: 29c0 35bd 1d86 0fbe f696 bcbd cb6b be3c
000000a0: d2ce 61bc b657 85bd f190 ddbd 9d59 963d
000000b0: 26b0 963d 910b 52be a9a4 10be 7113 2dbd
000000c0: 3ce3 05bd 1031 be3b 9665 d4bd 7abb cabd
000000d0: 91f3 a7be bb2b 773c 922b 77bd b25d 18be
000000e0: 641c 08bd 0866 b8bd 201a 773d 6e30 73be
000000f0: 5c77 b5bd 480a 103e 06d7 8dbd 12c9 43be
-0.017594524 -0.1132816 -0.19995047 -0.036820237 -0.20622589 -0.20533718 -0.112131774 -0.08663077
0.09038702 0.036071397 -0.17668363 -0.1126744 -0.09746993 0.015427891 -0.16885188 -0.028623287
-0.08578266 -0.058074094 -0.22547984 -0.0527803 -0.04673951 -0.34832358 -0.16613466 0.026938818
-0.14307024 -0.07563756 -0.26056367 -0.08682766 -0.0028416014 -0.01758254 -0.13235658 0.05269522
-0.21777353 -0.2496965 -0.05201819 0.023764534 -0.04437271 -0.14016004 -0.09208481 0.023244759
-0.01378222 -0.0651087 -0.10818661 0.07341311 0.073578164 -0.20512225 -0.14125313 -0.04225487
-0.03268741 0.0058041885 -0.103709385 -0.098990396 -0.32803014 0.01508611 -0.060344286 -0.14879492
-0.0332302 -0.09003836 0.06032765 -0.23748943 -0.088606566 0.14066422 -0.06925778 -0.19119671

fc2.weight f4 [2, 64]
00000000: 8b84 b53b 4f6b 9abd c9d2 a83d 72c1 ce3d
00000010: 825f 9a3d 0c6f bf3d 5f3d cb39 4b10 8c3d
00000020: 059d 6c3d ff3d f9ba acb1 073e cfd2 b7bd
00000030: b901 923d e974 49bc 29a2 9dbc 4260 debd
00000040: 9f6a a3bd 8553 c23d 1e54 cd3a 1c80 b3bd
00000050: 1efc b33c 16a9 1f3e d22a 86bd 04a6 3f3d
00000060: af2e 5c3d aecf e7bd ad07 6ebd a527 d2bb
00000070: 7cf7 04bd 11b1 29be 3de5 ed3b 77d8 f23d
00000080: 008e 973c fb22 ea3d fe8d b6bd c110 debd
00000090: 795b e1bc d2d6 03be c3bc c3bd 7141 f93c
000000a0: 4a05 b33c b8f8 f23d 1918 023e 33ca 8f3d
000000b0: b323 973d bdb6 9ebd 2b34 fc3c 0bdc ea3b
000000c0: e94f c8bd b471 81bd 2cf0 b5bd 96a1 033e
000000d0: dc4d 3c3e 8d97 fabd 1ab0 bf3a a3c2 c53d
000000e0: aad2 93bd 68c1 abbd a7dc 9c3b 6fac 0d3d
000000f0: 0b67 b9bd df11 fdbd 8d4a 273d bad3 0abd
00000100: ec10 033e d323 62bd d80c a43d 1c98 88bd
00000110: 1014 143d b95a af3c ebf4 0dbe 09d5 b63c
00000120: a61f babd 5ca3 e5bd 0a4b 263d f8a0 e8bd
00000130: ab49 f2bc fc56 f7bd 3bbd 323d d3be cc3d
00000140: 41fa 2c3d df42 363c 7a65 2f3d d96e fc3d
00000150: 52cb 29bd d434 533d 9852 003e c604 86bd
00000160: db88 143c 7134 ce3d 76a4 873d e135 c5bd
00000170: 4218 683d 2c93 6bbc 97e8 0cbe 8c59 ae3b
00000180: a723 01be 8dc2 07bd daaa 30bb 093d 82bc
00000190: be4d 9c3d ffa0 81bc 31ea b63d 6bf4 a93d
000001a0: 2ab7 ccbd ce25 e73c d3df 1c3d 54d7 293c
000001b0: cae8 90bd ce5b a43d 70f1 3c3d 2eab b0bd
000001c0: 418f c13d 91b9 a5bd bf73 5d3c 5a2e a43d
000001d0: d148 513c 9037 2dbd afb9 33bc ad29 0a3d
000001e0: 154a 653d 8139 003d 331a 8c3d fa29 6b3c
000001f0: 45bd 863d 5fd5 c43b 9ad4 bfbd 7f74 563d
0.005539482 -0.07539999 0.08243329 0.100954905 0.07537748 0.093473524 0.00038764902 0.06839045
0.057766933 -0.0019015669 0.1325137 -0.089757554 0.07129235 -0.01229594 -0.019242363 -0.108582035
-0.07979321 0.09488586 0.0015665328 -0.08764669 0.021970805 0.15591845 -0.06551136 0.046789184
0.05375546 -0.11318909 -0.05811279 -0.0064134174 -0.032462582 -0.16571452 0.0072599933 0.11857694
0.018500328 0.11432453 -0.089138016 -0.10843039 -0.027509438 -0.12874916 -0.09557488 0.030426713
0.021853108 0.118638456 0.12704505 0.07020988 0.07379856 -0.07749698 0.030786594 0.0071673444
-0.09780867 -0.06320515 -0.088837 0.12854609 0.18389076 -0.12235937 0.0014624626 0.09656265
-0.07217915 -0.08386499 0.004787046 0.034588274 -0.09052857 -0.12356924 0.04084258 -0.033893324
0.12799424 -0.055209946 0.08010262 -0.066696376 0.036151946 0.021405565 -0.1386296 0.02231838
-0.09088068 -0.11212799 0.040598907 -0.11358827 -0.029576143 -0.12077138 0.043637495 0.09997334
0.04223085 0.011124342 0.042821385 0.1232583 -0.041453667 0.051564053 0.12531507 -0.06543879
0.009065832 0.10068596 0.06623165 -0.09629417 0.05666376 -0.01437835 -0.13760601 0.0053207334
-0.12611257 -0.033144522 -0.0026957304 -0.015898244 0.07632016 -0.01582384 0.08931387 0.08298572
-0.09995873 0.028216269 0.038299393 0.01036628 -0.07075651 0.08025323 0.04612869 -0.086264
0.09451152 -0.080920346 0.013516366 0.08016653 0.012773708 -0.042289317 -0.010969563 0.03373115
0.055978853 0.03130484 0.068409346 0.01435327 0.06579069 0.006006881 -0.093667224 0.052357193

fc2.bias f4 [2]
00000000: 8b21 aabd 7297 1f3d
-0.08307179 0.03896279
