src/modelDevelopment/training/model_files/mlp_model_diff.pt (torch, 7011 bytes, 4 tensors)

fc1.weight f4 [32, 32]
0.09484324 0.0273835 -0.063120335 0.013452755 -0.049006883 -0.15183812 0.09170439 0.16996987
-0.06456395 0.12701775 -0.12796323 -0.004464939 0.02208513 -0.19553624 -0.07458882 -0.05594773
-0.046923958 -0.112665735 -0.15792547 -0.102982536 -0.069753736 -0.15229706 0.11859173 0.1472377
-0.07285522 -0.15760757 0.024245288 0.12803118 -0.18031685 0.049936466 0.03783816 -0.05046955
-0.088332884 -0.057883333 -0.05470347 -0.23831208 0.15158613 -0.05297676 -0.07753444 0.15020162
-0.13772516 -0.094584554 0.0740585 -0.101323664 -0.060058188 -0.052391663 0.04350824 0.15403473
0.039472602 -0.092026114 0.041430056 0.15650941 0.0769674 0.14752732 0.19198681 0.09506962
0.1310707 0.031430963 -0.11541831 0.13181423 0.07296877 -0.116799176 0.17070827 -0.011049352
-0.13692616 0.039975252 0.11006032 -0.12935422 0.090236634 -0.029251145 0.11442395 0.109416366
0.11192122 -0.117700666 0.058422633 0.17051032 0.046877585 -0.11748183 0.07786227 0.15733686
0.04265267 0.098531544 -0.008328656 -0.14073825 0.089799136 0.046035476 0.051364493 0.11098948
-0.041394614 -0.15856011 -0.041668363 -0.030663332 0.011804935 -0.001461953 0.13029812 0.062165625
-0.06064948 -0.14065844 -0.23476306 -0.08464188 0.030185081 0.056217723 -0.12299808 -0.11759998
0.15487278 -0.14613496 0.051264763 -0.050616622 -0.13554083 -0.0036182606 0.027449504 -0.16893557
-0.1552224 0.088830635 -0.036743797 -0.029787526 0.04045997 -0.057975058 0.08068418 0.1050694
-0.110545225 0.109169245 0.097039714 0.07186689 -0.07254539 0.10357908 0.01777722 0.09193398
-0.15241021 -0.011623568 -0.06227959 0.1248018 -0.24461442 0.024241898 -0.21332048 0.11660674
0.085570455 -0.09826695 0.14432435 0.13823485 -0.04007178 -0.08053797 -0.09763494 -0.058966544
0.15203494 -0.00975193 -0.09989215 0.040941827 -0.022027468 0.008905796 0.17237195 0.09973963
-0.03692345 0.1283729 -0.10652253 -0.10758375 0.009980103 -0.01187751 -0.11987539 0.024250595
0.085184984 -0.044848677 0.04806943 -0.098164 0.077719495 -0.1496939 0.03296091 0.12685725
0.14406589 -0.051811818 0.014029141 -0.04750666 -0.07025142 0.11496937 0.013705859 0.034288462
0.09478248 0.17091629 -0.025841817 0.23882958 0.13936049 0.10291033 0.2080313 -0.20452815
-0.004931398 -0.16373344 0.034778446 0.08982622 -0.11558873 -0.0050599035 0.028605264 -0.1385452
-0.12048945 0.05419865 -0.004810545 0.14957073 0.008664463 0.07729097 0.08379276 -0.10475327
0.17671278 0.0011031773 0.13671184 0.07200714 0.20100719 0.09918745 0.16080853 0.007716249
0.023536572 -0.044546094 -0.0397565 0.15810692 -0.21480934 -0.16582449 0.12148055 0.0052959304
0.060071662 -0.13317642 -0.14362505 -0.032016423 0.058613535 -0.025128234 0.036333572 0.025571259
0.012223138 -0.069906086 0.1700902 0.028976737 -0.010325581 0.013370385 -0.11625909 -0.18167813
0.037972573 0.018219454 -0.013017389 0.033249684 -0.0089337425 0.059978213 0.13509978 0.020869242
0.06199386 -0.07237925 -0.10620919 -0.1343896 -0.020877482 0.00043814056 -0.060795728 -0.050437003
-0.07448621 0.031667743 -0.11260888 0.23958994 -0.09341759 -0.14281274 0.0031313933 -0.15078269
00000000: 2c3d c23d 5d53 e03c 3c45 81bd f268 5c3c
00000010: 71bb 48bd 747b 1bbe 83cf bb3d 950c 2e3e
00000020: 1b3a 84bd f110 023e cb08 03be 9f4e 92bb
00000030: e0eb b43c a73a 48be 06c2 98bd 7229 65bd
00000040: 5633 40bd 4bbd e6bd 37b7 21be 82e8 d2bd
00000050: 0cdb 8ebd c3f3 1bbe 39e0 f23d 7bc5 163e
00000060: 1e35 95bd e163 21be 0e9e c63c 9b1a 033e
00000070: fba4 38be 2e8a 4c3d 30fc 1a3d 29b9 4ebd
00000080: dfe7 b4bd 1317 6dbd bf10 60bd 1508 74be
00000090: 6539 1b3e 29fe 58bd 60ca 9ebd 74ce 193e
000000a0: d307 0dbe 8cb5 c1bd fcab 973d c882 cfbd
000000b0: 93ff 75bd a498 56bd b235 323d 48bb 1d3e
000000c0: 06ae 213d 3078 bcbd 90b2 293d 0144 203e
000000d0: 16a1 9d3d 6711 173e 3198 443e dcb3 c23d
000000e0: 6637 063e c1bd 003d 6f60 ecbd 4ffa 063e
000000f0: a770 953d 6834 efbd 26ce 2e3e 5708 35bc
00000100: 5f36 0cbe 17bd 233d 4e67 e13d 6f75 04be
00000110: fccd b83d 19a0 efbc 1b57 ea3d b015 e03d
00000120: f436 e53d 0c0d f1bd 924c 6f3d 429a 2e3e
00000130: b602 403d 509a f0bd 4176 9f3d ea1c 213e
00000140: 91b4 2e3d e8ca c93d ea74 08bc b01d 10be
00000150: 9ce8 b73d b28f 3c3d 9363 523d 744e e33d
00000160: 668d 29bd 955d 22be 72ac 2abd ab31 fbbc
00000170: 7c69 413c 019f bfba df6c 053e 62a1 7e3d
00000180: 976b 78bd c408 10be ba65 70be b958 adbd
00000190: b446 f73c 8e44 663d 6be6 fbbd 42d8 f0bd
000001a0: f896 1e3e 67a4 15be 00fb 513d 6053 4fbd
000001b0: 37cb 0abe 5720 6dbb c8dd e03c 72fd 2cbe
000001c0: 9ff2 1ebe d6ec b53d aa80 16bd f804 f4bc
000001d0: 5ab9 253d 4177 6dbd bf3d a53d a02e d73d
000001e0: 8965 e2bd 2094 df3d c2bc c63d f32e 933d
000001f0: ad92 94bd 4521 d43d 88a1 913c e247 bc3d
00000200: 6c11 1cbe c770 3ebc e218 7fbd 1698 ff3d
00000210: 347c 7abe f296 c63c af70 5abe 84cf ee3d
00000220: 903f af3d 2f40 c9bd c3c9 133e 708d 0d3e
00000230: 4f22 24bd 17f1 a4bd d4f4 c7bd e786 71bd
00000240: 0caf 1b3e 8fc6 1fbc 4194 ccbd 9eb2 273d
00000250: f372 b4bc 9ee9 113c 4682 303e 4b44 cc3d
00000260: 0b3d 17bd 2f74 033e 7c28 dabd de54 dcbd
00000270: 9683 233c e399 42bc 3a81 f5bd 2fa9 c63c
00000280: 7775 ae3d 3fb3 37bd 73e4 443d 350a c9bd
00000290: 662b 9f3d 5c49 19be 0502 073d dee6 013e
000002a0: 0286 133e a138 54bd 7bda 653c 5896 42bd
000002b0: fadf 8fbd 1075 eb3d 8a8e 603c 0f72 0c3d
000002c0: 511d c23d ae04 2f3e 38b2 d3bc be8f 743e
000002d0: 84b4 0e3e a7c2 d23d 2806 553e d46f 51be
000002e0: 9197 a1bb bda9 27be d873 0e3d cff6 b73d
000002f0: c9b9 ecbd 8ccd a5bb 9655 ea3c cbde 0dbe
00000300: 2cc3 f6bd 67ff 5d3d c7a1 9dbb 1229 193e
00000310: 64f5 0d3c ba4a 9e3d 8a9b ab3d e288 d6bd
00000320: 32f4 343e 7d98 903a 30fe 0b3e 7b78 933d
00000330: d4d4 4d3e ca22 cb3d feaa 243e 97d8 fc3b
00000340: c5cf c03c f775 36bd b6d7 22bd c8e6 213e
00000350: fbf6 5bbe e5cd 29be cbca f83d 7c89 ad3b
00000360: b40d 763d 665f 08be 7212 13be a723 03bd
00000370: bf14 703d bad9 cdbc 83d2 143d d17a d13c
00000380: 8e43 483c ec2a 8fbd 202c 2e3e 9f60 ed3c
00000390: a02c 29bc 760f 5b3c 3f19 eebd d509 3abe
000003a0: 2189 1b3d f740 953c e346 55bc d230 083d
000003b0: d55e 12bc b7ab 753d 9957 0a3e f9f5 aa3c
000003c0: 46ed 7d3d 923b 94bd 3484 d9bd 6d9d 09be
000003d0: 4107 abbc 3bb6 e539 f104 79bd 0897 4ebd
000003e0: 3a8c 98bd 09b6 013d 7c9f e6bd 1157 753e
000003f0: b951 bfbd 813d 12be 1038 4d3b c766 1abe

fc1.bias f4 [32]
-0.123611055 -0.08120798 0.096658535 -0.29066536 -0.06845555 -0.2397034 -0.21809003 0.14274901
-0.11762239 -0.022100233 -0.13659906 0.15837213 -0.1823916 0.037772693 -0.014798647 -0.08451261
0.11309534 0.03249815 -0.039294314 0.01716866 -0.17794107 0.10242207 -0.26332986 -0.040308226
0.12890409 -0.06816065 -0.06338822 0.11358637 -0.2274368 -0.063601784 0.036794152 -0.10926165
00000000: cb27 fdbd 5f50 a6bd e9f4 c53d 17d2 94be
00000010: 6c32 8cbd cf74 75be fe52 5fbe cc2c 123e
00000020: 02e4 f0bd 8c0b b5bc a0e0 0bbe 4e2c 223e
00000030: ddc4 3abe 8ab7 1a3d 0676 72bc f314 adbd
00000040: 889e e73d c81c 053d 13f3 20bd 4aa5 8c3c
00000050: 2f36 36be aac2 d13d 2cd3 86be 3d1a 25bd
00000060: 6fff 033e d097 8bbd afd1 81bd f99f e83d
00000070: 31e5 68be a741 82bd 77b5 163d 92c4 dfbd

fc2.weight f4 [2, 32]
-0.036069542 0.106241286 0.11950703 -0.12716495 0.04002594 -0.02211272 0.06457554 0.011919167
0.07711301 -0.063812956 0.21743861 -0.038584333 -0.07179318 0.00082224904 0.041465197 -0.03398514
-0.13966116 -0.058442425 -0.14091475 -0.083867654 0.060403332 -0.10235112 0.010366843 -0.06263651
-0.06667457 -0.14108945 -0.094129995 -0.05931809 0.085825995 0.116619766 0.062767036 0.17890747
-0.13155417 -0.0037188027 -0.016262216 -0.014524211 0.123851225 0.06515253 -0.13400991 0.03268159
-0.08643895 -0.013825015 0.037336648 0.112935334 -0.17606874 -0.087207645 0.08659862 0.15424056
-0.03312817 -0.050534315 -0.0416915 0.05147096 0.11363102 0.16906483 -0.0905411 0.09904515
0.09234379 -0.13499065 0.039054915 0.11816883 -0.0533498 -0.120272055 -0.12322206 -0.03770383
00000000: a8bd 13bd 0895 d93d 1ac0 f43d 8737 02be
00000010: 3df2 233d bc25 b5bc 2e40 843d 9c48 433c
00000020: 6ded 9d3d 5eb0 82bd 3aa8 5e3e 9b0a 1ebd
00000030: 4e08 93bd 338c 573a 69d7 293d 0134 0bbd
00000040: 5603 0fbe 5361 6fbd f54b 10be cec2 abbd
00000050: 7c69 773d 779d d1bd b1d9 293c 9247 80bd
00000060: ad8c 88bd c179 10be 3ac7 c0bd 87f7 72bd
00000070: 8ac5 af3d 58d6 ee3d 018c 803d 8533 373e
00000080: 23b6 06be 28b7 73bb 5738 85bc f5f6 6dbc
00000090: b6a5 fd3d b16e 853d e539 09be 22dd 053d
000000a0: e706 b1bd 5182 62bc 50ee 183d a44a e73d
000000b0: 5d4b 34be ec99 b2bd 9e5a b13d 3df1 1d3e
000000c0: 67b1 07bd 12fd 4ebd b5c4 2abd 37d3 523d
000000d0: 61b7 e83d 551f 2d3e 9d6d b9bd 2fd8 ca3d
000000e0: be1e bd3d fd3a 0abe 0cf8 1f3d 8002 f23d
000000f0: 5285 5abd 3251 f6bd d95b fcbd 556f 1abd

fc2.bias f4 [2]
-0.123176426 -0.077185504
00000000: ec43 fcbd 6f13 9ebd
