src/modelDevelopment/training/model_files/mlp_model_diff.pt (torch, 7011 bytes, 4 tensors)

fc1.weight f4 [32, 32]
0	0xbd8c794c	-0.06859073
1	0xbdea98ae	-0.114549026
2	0xbe4660da	-0.19372883
3	0x3d8ea703	0.06965449
4	0x3c45b391	0.012066738
5	0xbc886921	-0.016651692
6	0xbd5ba03a	-0.0536196
7	0x3e24098f	0.16019271
8	0x3ddeb285	0.10873894
9	0xbcc5e510	-0.024157077
10	0xbc7c7855	-0.015409549
11	0x3dcde87d	0.10054109
12	0x3e0ccdb9	0.13750352
13	0xbd0afe4d	-0.033933926
14	0x3d149ee5	0.036284346
15	0x3dcce754	0.1000506
16	0x3dd0d61b	0.101970874
17	0x3da03335	0.07822267
18	0x3dd1271e	0.10212539
19	0x3dc9b40f	0.098487966
20	0xbda8f2d0	-0.08249438
21	0xbd51eb7e	-0.051249973
22	0xbd916360	-0.070990324
23	0xbddd0904	-0.10792735
24	0xbd300309	-0.042971645
25	0x3e0eecb1	0.13957478
26	0xbe2555de	-0.16146037
27	0x3e53e0ab	0.20691173
28	0xbe06400f	-0.13110374
29	0x3d48c2f4	0.049014047
30	0x3ddc1c20	0.10747552
31	0xbda07551	-0.07834876
32	0xbdbccc64	-0.09218672
33	0xbe291313	-0.16511182
34	0xbc76c989	-0.015062698
35	0xbe3c5639	-0.18392266
36	0x3dbed77a	0.09318443
37	0x3d3c6f48	0.046004564
38	0x3def727d	0.11691759
39	0xbe01c60f	-0.1267321
40	0xbdad1505	-0.08451275
41	0xbe07bcd8	-0.13255632
42	0x3db4250f	0.08796131
43	0xbca25df9	-0.0198202
44	0xbc10b9de	-0.008833377
45	0xbe4ea741	-0.2018099
46	0xbdac00e5	-0.08398608
47	0x3e30ae39	0.1725396
48	0xbd12dee5	-0.0358571
49	0x3dcdfeee	0.100583896
50	0x3e0bfa3f	0.1366968
51	0x3c42dad0	0.011892989
52	0xbe2e3cb1	-0.1701534
53	0x3e17c20f	0.14820121
54	0x3d875c6a	0.066094235
55	0xbd516a53	-0.05112679
56	0x3df14109	0.117799826
57	0xbdb89d04	-0.09014323
58	0x3cf3a270	0.029740542
59	0x3cc5decc	0.02415409
60	0xbca5e39a	-0.02025013
61	0xbc246469	-0.010033705
62	0x3bac3d0a	0.0052563
63	0xbd9de4a0	-0.077096224
64	0xbc689630	-0.014195964
65	0x3df0e773	0.117628954
66	0x3d5944e7	0.053044226
67	0xbcca1c9e	-0.024671849
68	0xbdf544d6	-0.1197602
69	0x3d8c8b41	0.06862498
70	0xbc4fe864	-0.012689684
71	0x3e39d1af	0.18146394
72	0x3e0e1958	0.13876855
73	0x3dab4697	0.08363073
74	0xbd923b36	-0.071402
75	0xbce81d43	-0.028334266
76	0x3d537fed	0.05163567
77	0xbd935592	-0.071940556
78	0xbc83c636	-0.016085725
79	0x3e3bb545	0.18330868
80	0xbdffd4e7	-0.1249178
81	0xbd88ee2b	-0.06686052
82	0xbd6921c5	-0.05691697
83	0xbdd78888	-0.10524088
84	0xbda51ce5	-0.08062152
85	0x3dad11ba	0.08450647
86	0x3ca000f6	0.019531708
87	0xbd81b299	-0.06332893
88	0xbe2df36a	-0.16987386
89	0x3e02731e	0.12739226
90	0xbcc13517	-0.023584886
91	0xbe13c1dd	-0.14429422
92	0xbd336288	-0.04379514
93	0x3d46f3f0	0.04857248
94	0xbdade703	-0.084913276
95	0xbb105e8c	-0.002202901
96	0x3d6e3f2c	0.058165714
97	0x3e06b816	0.1315616
98	0xbd931914	-0.07182518
99	0x3d56a292	0.052401133
100	0x3e0ba47b	0.13636963
101	0xbe3cffa3	-0.18456893
102	0xbd01ccee	-0.031689577
103	0x3e2f7eea	0.17138258
104	0x3d534772	0.051581807
105	0xbdd3d376	-0.10343067
106	0x3d36f1b7	0.04466411
107	0xbdc25736	-0.094892904
108	0x3dd1018c	0.10205373
109	0xbd5e66e9	-0.05429736
110	0xbd937186	-0.07199387
111	0xbd8846a3	-0.06654098
112	0x3e010057	0.12597786
113	0xbd09fe83	-0.033689987
114	0xbd8dad21	-0.06917787
115	0x3d35f88d	0.04442649
116	0xbe54de2a	-0.20787874
117	0xbea00e77	-0.31261036
118	0xbc24fb1c	-0.010069635
119	0x3d8b068a	0.067883566
120	0xbe3bb5b2	-0.1833103
121	0x3d18a1a8	0.037263542
122	0xbd95c18d	-0.073123075
123	0x3e60b32b	0.21943347
124	0xbd02d115	-0.031937677
125	0xbe0e3c22	-0.13890126
126	0x3d4cd936	0.050011836
127	0xbddb74b2	-0.10715617
128	0xbe0342d9	-0.12818469
129	0xbd69c75f	-0.0570749
130	0xbdf08fad	-0.11746154
131	0xbce6e380	-0.028184652
132	0x3b37d698	0.0028051492
133	0xbcf1e789	-0.02952935
134	0xbcf964b7	-0.030443532
135	0x3d5f55b0	0.054525077
136	0x3db9d6cd	0.09074173
137	0xbdd61c53	-0.10454621
138	0x3df59792	0.119918
139	0xbcfa15a5	-0.030527899
140	0xbd347b1b	-0.044062715
141	0xbc3daaad	-0.011576337
142	0xbe106b39	-0.14103402
143	0xbdb70cd0	-0.08937991
144	0xbd5f420f	-0.054506358
145	0x3d90f17c	0.070773095
146	0x3e089ee3	0.1334186
147	0xbdaec3ff	-0.08533477
148	0xbd920831	-0.07130469
149	0xbdf59e68	-0.11993104
150	0xbd10eb08	-0.035380393
151	0x3e208d4e	0.15678903
152	0xbe590304	-0.21192557
153	0x3e135d1c	0.14390987
154	0xbdeb8750	-0.11500418
155	0x3dd8aa47	0.10579353
156	0xbd3fcc24	-0.046825543
157	0x3db33cf1	0.08751858
158	0x3d664c60	0.05622518
159	0x3da3cdf9	0.079982705
160	0x3da8f860	0.08250499
161	0x3dd1f0e4	0.10251024
162	0x3ce4c41f	0.02792555
163	0xbb9e3022	-0.004827515
164	0xbd0ff5ab	-0.035146397
165	0x3dad3c35	0.08458749
166	0xbd552d07	-0.052044895
167	0xbded8c16	-0.11598985
168	0xbcf8020b	-0.030274412
169	0xbdbb8ef7	-0.09158128
170	0xbe3aa4b3	-0.1822689
171	0xbcb3cadf	-0.021947322
172	0x3c588c6c	0.013217073
173	0xbd160703	-0.03662778
174	0x3d9ec6e2	0.07752778
175	0x3e2c5566	0.16829452
176	0x3d133dac	0.035947487
177	0xbe33ae76	-0.1754702
178	0x3d84cabe	0.064839825
179	0x3d1503f3	0.03638072
180	0x3a5de480	0.000846453
181	0xbd873744	-0.06602338
182	0x3c7c9e9b	0.015418674
183	0x3dfea81d	0.12434409
184	0x3b80f1f8	0.003935095
185	0x3d81e26a	0.06342013
186	0x3df12261	0.117741354
187	0xbd9245eb	-0.07142242
188	0x3bfade64	0.0076559056
189	0xbe245da4	-0.16051346
190	0xbda98415	-0.08277146
191	0xbdd8c972	-0.10585298
192	0x3d9be88a	0.07612713
193	0xbd461039	-0.048355315
194	0x3e295b2e	0.16538689
195	0x3dc8bbd6	0.09801452
196	0x3dc84762	0.0977924
197	0x3ca26b5f	0.01982659
198	0x3daa49bf	0.08314847
199	0x3d334a67	0.043772127
200	0x3d72f650	0.059316933
201	0xbdbdfc4b	-0.09276637
202	0x3d0ec80c	0.03485875
203	0xbd603cf3	-0.054745626
204	0x3cd4758b	0.025934955
205	0x3df1c8a0	0.11805844
206	0xbdfa3bf6	-0.12218468
207	0x3e55e935	0.20889743
208	0xbe09ab01	-0.13444139
209	0x3d8da020	0.06915307
210	0xbd868fcc	-0.06570396
211	0x3d07c565	0.033147234
212	0x3e149d7d	0.14513202
213	0x3babd8dc	0.0052443575
214	0x3ccb06d3	0.024783527
215	0x3d8a6c7f	0.06758975
216	0xbd30f67c	-0.043203816
217	0xbe15f453	-0.14643984
218	0x3ccc279e	0.024921235
219	0xbce58799	-0.02801876
220	0xbdcdc055	-0.1004645
221	0x3d5b62a0	0.053560853
222	0xbe571e3b	-0.21007626
223	0x3e6f7b98	0.23386991
224	0x3b936836	0.004498507
225	0xba0a2170	-0.0005269265
226	0xbe2f3369	-0.17109455
227	0xbb94e667	-0.0045440677
228	0xbc642f27	-0.013927258
229	0xbe1d7e52	-0.15380219
230	0xbd8eba16	-0.06969087
231	0x3e4d52cf	0.2005112
232	0xbde5f39c	-0.112281054
233	0xbdf4ec04	-0.11959079
234	0x3dbbea9b	0.09175607
235	0xbb668b76	-0.003517834
236	0x3e6f6eed	0.23382159
237	0x3dba7581	0.09104443
238	0x3d51d4f1	0.051228467
239	0xbe453774	-0.19259435
240	0x3daddc52	0.084892884
241	0xbdbdb1aa	-0.09262402
242	0x3dd2173b	0.10258337
243	0x3de6b6eb	0.112653576
244	0xbe1c1498	-0.15242231
245	0x3e690b15	0.22758134
246	0xbdd83d45	-0.10558561
247	0x3d9b7653	0.07590928
248	0x3cb79a1b	0.02241235
249	0x3e11b99d	0.14230962
250	0xbdada208	-0.08478171
251	0x3e5daba8	0.21647513
252	0xbde8b912	-0.11363424
253	0x3dfc0af2	0.12306775
254	0x3dcf26df	0.10114836
255	0xbdf882b0	-0.12134302

fc1.bias f4 [32]
0	0xbd9f9b62	-0.07793309
1	0xbe40a132	-0.18811491
2	0xbd2c7e7d	-0.042112816
3	0xbd974d4e	-0.073877916
4	0xbc93a2bd	-0.018021936
5	0x3e1197cc	0.14218062
6	0xbd236dca	-0.039899625
7	0xbe2c2815	-0.16812165
8	0xbdec296f	-0.1153134
9	0xbe075811	-0.13217188
10	0xbd85bd78	-0.06530279
11	0xbda308f4	-0.07960692
12	0x3d203e52	0.039121933
13	0xbdf0b88b	-0.11753949
14	0xbe4e58ea	-0.20151106
15	0xbe65ba06	-0.22434244
16	0x3c68eecd	0.014217091
17	0xbd58724a	-0.05284337
18	0xbc1a1cba	-0.009406263
19	0x3ca8b3c5	0.020593533
20	0x3ae5e0e5	0.0017538337
21	0xbe47c31f	-0.19508027
22	0xbcad33c5	-0.02114285
23	0x3dd52252	0.10406937
24	0x3e498902	0.1968117
25	0xbdd3f3c1	-0.10349227
26	0x3cf403b7	0.029786928
27	0x3df8fb76	0.12157337
28	0xbd68f420	-0.05687344
29	0xbdcc5e8b	-0.0997897
30	0x3d9ce982	0.076617256
31	0xbc705c81	-0.014670492

fc2.weight f4 [2, 32]
0	0xbc780006	-0.015136724
1	0x3d832ad9	0.06404657
2	0x3dcd825e	0.10034631
3	0x3de0747c	0.10959718
4	0xbdcfc053	-0.10144105
5	0xbdbb7de1	-0.09154869
6	0xbc17303b	-0.009227808
7	0xbcdc0057	-0.02685563
8	0xbe2a0b3f	-0.16605853
9	0xbbf24e5d	-0.0073945955
10	0x3cb15b5d	0.02165001
11	0xbd915ef3	-0.07098188
12	0xbdcd62d8	-0.100286186
13	0x3dc5cca8	0.09658176
14	0xbd9e249f	-0.07721829
15	0xbd9af33f	-0.07565927
16	0x3e3e6ed5	0.18596967
17	0x3e1efe42	0.15526679
18	0x3d9e0371	0.077155
19	0xbd278bb0	-0.0409047
20	0xbddcb64e	-0.10776959
21	0xbd271315	-0.040789682
22	0x3d8e5437	0.069496565
23	0x3d281541	0.041035894
24	0xbde0b4ac	-0.109719604
25	0xbc1ea4e1	-0.009682865
26	0xbdc6529d	-0.09683726
27	0xbc896efc	-0.016776554
28	0x3d3f48f6	0.04670044
29	0x3e35272a	0.17690721
30	0xbbf56083	-0.0074883117
31	0x3db52298	0.08844489
32	0xbd95f3a5	-0.07321862
33	0xbe507edf	-0.20360897
34	0xbd552c71	-0.052044336
35	0xbd7a8e5e	-0.06117093
36	0x3da3b7fd	0.07994077
37	0xbd8d34d4	-0.06894842
38	0x3d511ac6	0.051050924
39	0xbded52f4	-0.11588088
40	0xbd806d75	-0.06270877
41	0x3d43554b	0.047688764
42	0x3dd0154e	0.101603135
43	0xbd483b34	-0.048884585
44	0x3e01e940	0.12686634
45	0x3cc0707d	0.023491139
46	0x3b0281f7	0.001991389
47	0xbd21c446	-0.03949382
48	0xbcd677bf	-0.026180146
49	0x3d76d768	0.06026402
50	0xbe1e461f	-0.15456437
51	0x3d50b67b	0.050955277
52	0x3c5e163e	0.013555108
53	0xbdc2103f	-0.09475755
54	0x3d9774fa	0.073953584
55	0x3d4a8745	0.04944541
56	0x3da8a227	0.08234053
57	0x3dd3b4eb	0.10337242
58	0x3de2f26d	0.11081395
59	0x3df91676	0.12162487
60	0xbde73c43	-0.11290791
61	0x3d41d51a	0.04732237
62	0x3def3606	0.11680226
63	0x3e1b8b0b	0.1518976

fc2.bias f4 [2]
0	0xbd1d701f	-0.038437005
1	0xbc90f016	-0.017692607
