src/modelDevelopment/training/model_files/mlp_model_raw.pt (torch, 13273 bytes, 4 tensors)

fc1.weight f4 [36, 72]
000000 f0 05 e3 bd 76 86 f9 bc e1 c6 31 3d 9d 9c fc bb
       -0.11085117 -0.030459624 0.043402556 -0.0077090994
000010 fd 68 7c 3b de 58 8a 3d 87 7a 82 3d b3 70 d0 3d
       0.0038514726 0.06755231 0.063710265 0.10177746
000020 f6 e5 12 3d c9 43 c3 3b d0 3e 7d bd 96 f7 a9 bc
       0.03586384 0.0059590084 -0.06182748 -0.020747941
000030 b9 61 ab bd d9 b9 fa bd f4 3e fe bd 78 4b 02 be
       -0.083682485 -0.12242479 -0.12414351 -0.12724102
000040 71 92 31 be 13 d1 13 3e eb e8 2e bd 4b d3 a9 3d
       -0.17341019 0.14435224 -0.042702597 0.08292254
000050 54 f5 08 be f2 c5 8e 3d 87 5e a3 3c 21 62 aa bc
       -0.13374835 0.06971349 0.019942535 -0.020798745
000060 79 e8 a6 bd 8b 99 0b bd 25 c8 b4 bd ac c0 11 bb
       -0.081498094 -0.034081977 -0.08827237 -0.0022240086
000070 f6 3f 83 bd 12 30 38 bc a4 ea 0d 3c b6 f4 4c bd
       -0.06408684 -0.01124193 0.0086619 -0.050038062
000080 93 53 df 3d af ea bf bc 4b 62 d1 3d d7 16 08 3e
       0.109046124 -0.023427336 0.10223826 0.13289963
000090 e4 68 33 bd 88 66 28 3e 16 10 87 3d 04 6d 63 3d
       -0.043801203 0.16445363 0.06594865 0.055523887
0000a0 7c c4 b4 3d ef ce 53 be 26 1c 37 be 2a dc 55 bd
       0.08826539 -0.20684408 -0.17881832 -0.052211918
0000b0 55 51 c8 bb fa 28 35 3d 45 65 50 3d 64 5c 79 bd
       -0.006113211 0.04422853 0.05087783 -0.060879126
0000c0 82 09 16 bd 2e f0 b4 3d 64 1b 24 3e 55 36 c3 3d
       -0.03663016 0.08834873 0.16026074 0.095318474
0000d0 86 83 43 3d fa cc 48 bd c2 2c f1 bd 35 3d 79 3d
       0.047732852 -0.049023606 -0.11776115 0.060849387
0000e0 4b 27 d5 3d a3 f3 a5 bd fb 55 33 3c e0 18 53 bd
       0.10407885 -0.08103111 0.010945792 -0.051537395
0000f0 cf 2a 0d be 48 bc d9 bd 2f 62 98 bd 31 8a 39 3d
       -0.13785861 -0.10631615 -0.07440602 0.045297805
000100 57 fa c1 3d 48 c7 70 3d a9 57 0b bc a6 cd 53 bd
       0.09471577 0.0587838 -0.0085047865 -0.051709794
000110 a8 1a 9d 3d 11 f2 01 3d 86 6a 37 3d 59 7d b5 3d
       0.076711 0.031724993 0.044779323 0.08861799
000120 42 74 bb 3d 49 5c be 3d 2c 26 be bd a9 08 b8 3b
       0.09153034 0.09294946 -0.092846245 0.0056162667
000130 67 c1 89 bd d9 85 d2 bd 6c 91 99 bd 94 f4 56 bd
       -0.06726342 -0.10279436 -0.0749844 -0.05247934
000140 b4 6f 30 be 5b 7c 45 bc 64 b3 c2 3d 74 87 73 bd
       -0.17230111 -0.012053574 0.09506872 -0.05945535
000150 29 7d f8 3d 8b b0 af bd cc d6 04 be b3 4a e3 bd
       0.121332474 -0.08578595 -0.12972564 -0.11098232
000160 79 ef dd bb e0 3c 8b 3c c8 10 eb bd 64 9b ba bd
       -0.006772932 0.0169968 -0.1147781 -0.0911167
000170 29 f2 a6 bc 80 58 ef 3d 96 01 64 3a 73 77 4d be
       -0.020379143 0.11686802 0.0008697746 -0.20065098
000180 62 2b 93 bd ef 40 ac bc 58 c3 12 3d 0b b1 0a be
       -0.07186009 -0.021027057 0.035830826 -0.13544099
000190 5b 84 c9 3c eb 18 7b 3d 89 81 c2 bb 63 88 6f 3d
       0.024599245 0.06130306 -0.005935852 0.058479678
0001a0 1a 3f 04 bd 99 a4 39 bc 9b 58 99 3b 2f df 81 bd
       -0.03228674 -0.011330747 0.004679752 -0.06341397
0001b0 2a ed fb 3d 89 a4 11 3b 57 f2 e9 3b b0 e9 93 bd
       0.12301095 0.0022223315 0.007139485 -0.07222307
0001c0 40 7a ea bd 6d 4e fb 3c fe 04 23 bd 42 01 88 3d
       -0.114490986 0.030677045 -0.039799683 0.06640865
0001d0 de 84 0a be 7e d1 1f be 09 93 48 3c be bc 64 bd
       -0.13527247 -0.15607259 0.012242087 -0.05584406
0001e0 c0 22 90 3d 01 ec 9c 3d e8 79 8a bc bc 4d 03 bd
       0.07037878 0.07662202 -0.016903833 -0.032056555
0001f0 00 3e d5 3c 24 ca 03 3d 49 d0 d4 bc 66 5a c5 3c
       0.02603054 0.0321752 -0.025978224 0.024090957
000200 d8 7f e7 3b ef 35 a2 3d bc a1 b8 bc aa d6 12 3c
       0.0070648007 0.07920443 -0.022538058 0.008962313
000210 84 98 2d be 7b 86 a1 3d 3f 77 9e bd d7 56 7c 3d
       -0.16952711 0.07886978 -0.07737588 0.061606254
000220 2f 4f db bd d4 58 21 bd 53 ae 0c bd ae b4 05 3d
       -0.107084624 -0.039391354 -0.034345936 0.032643013
000230 c3 48 6b bd 14 10 00 be 57 c2 a8 3d a3 50 cb 3d
       -0.057442438 -0.12506133 0.082401924 0.099274896
000240 4e cb 16 3e ca 6d 0f 3e b3 26 ac 3d d7 81 2d 3e
       0.14725992 0.14006725 0.08405819 0.16944061
000250 37 d3 59 3e 86 f8 ab bd 8d be f2 3b 3b 5e 5d bc
       0.21271978 -0.083970115 0.0074079693 -0.013511236
000260 7a 95 68 3d 12 bf 45 3d da d7 8f b9 ff 15 a9 bc
       0.056783177 0.048277922 -0.00027435907 -0.020640371
000270 f5 e4 8d 3c d2 92 8b 3d 89 d0 99 bd 32 c7 c1 bd
       0.01732109 0.06815113 -0.07510478 -0.094618216
000280 45 8f de bc 9a db a5 bd 07 10 bc 3d 76 3c 29 3d
       -0.027167926 -0.08098526 0.091827445 0.041317426
000290 91 8b f7 bc e7 68 36 3e cf 99 9c bc f3 3a 68 3c
       -0.030217918 0.17813455 -0.01911631 0.014174211
0002a0 5e 12 6b bd 75 ff 99 bd 87 7f 8c bd 63 9d b3 bc
       -0.057390563 -0.07519428 -0.068602614 -0.021925634
0002b0 82 2c 93 3d 81 e7 26 bd 62 04 83 3d 9b ee 03 bd
       0.071862236 -0.040748123 0.0639732 -0.032209974
0002c0 14 42 12 bc a8 f4 c6 3d 87 87 0d 3d 2e a0 15 bd
       -0.008926887 0.09714633 0.034553077 -0.036529712
0002d0 40 8f 38 3d 08 44 81 3c 91 ab a5 bc 0d 91 8b bd
       0.04505849 0.01577951 -0.02022341 -0.068147756
0002e0 c4 c6 85 bd c4 69 8a bd f0 38 a0 3d 76 07 de 3d
       -0.06532052 -0.067584544 0.0782336 0.10841267
0002f0 d7 0f b6 3d 68 1f 0b ba 63 30 31 3e fa d2 32 3d
       0.0888974 -0.0005307109 0.17303614 0.043658234
000300 15 6d 85 bd 1b 14 d7 3b aa 85 88 bc d0 70 ed bd
       -0.06514946 0.006563676 -0.016665298 -0.11593783
000310 28 56 2e 3e 14 d6 9c bd 18 e8 20 3e eb f9 58 3d
       0.17025054 -0.0765802 0.15713537 0.052972715
000320 27 10 2e 3e 4f fe 3a 3d 03 2a 7a bd 29 1b 05 3e
       0.16998349 0.045652684 -0.06107522 0.12998642
000330 67 a5 0e 3e d7 52 0f 3e 2b 00 21 bd e7 f9 e3 bc
       0.13930283 0.13996445 -0.0393068 -0.027829124
000340 44 9c 8e bd 4b 9b 3a 3c a6 85 6e bd 41 3c 8e 3c
       -0.06963399 0.011389564 -0.058232926 0.017362716
000350 4d 1d a2 bd 6f cb 3b 3d 90 d9 36 bd 9d 20 89 bd
       -0.07915745 0.045848306 -0.044641078 -0.066956736
000360 e2 0c a4 bc 75 ae 31 bd 1b 90 b9 3d 97 69 13 3d
       -0.020025674 -0.043379266 0.09060689 0.03598937
000370 45 b6 c5 3d 17 c1 0d be df 47 eb bc 0b 3c 96 bc
       0.09653906 -0.13843189 -0.028720794 -0.018339178
000380 d2 f5 d8 3d 8d 5c 56 3d 3e 36 d7 bc 1f d6 da 3d
       0.105937615 0.052334357 -0.026270982 0.106853716
000390 58 f1 a3 bc 31 5d e4 3d 24 6b 16 be 26 22 90 bd
       -0.020012543 0.11150587 -0.14689308 -0.07037763
0003a0 a1 11 5d 3d 5a 03 b9 bd 4a c1 88 bc 9d 38 f5 bc
       0.05397189 -0.090338424 -0.01669373 -0.029934222
0003b0 da 4c 72 3d 05 e2 d3 bc e4 1c a8 ba 08 e3 3a be
       0.059155323 -0.02586461 -0.0012825993 -0.18250668
0003c0 bb 64 57 3c 1e a4 98 3d d8 93 ae bd 71 2a 19 3d
       0.013146575 0.07453178 -0.08524293 0.03739399
0003d0 bf 94 65 3d f9 28 35 bd 62 04 e2 bc 4c 09 d1 bd
       0.05605006 -0.044228528 -0.02758998 -0.10206851
0003e0 39 45 41 bd 13 ea 35 3d 27 0e e1 bd 26 04 dd 3d
       -0.047185156 0.044412684 -0.109890275 0.10791807
0003f0 a4 6f 77 3d 55 b4 17 be 8c 45 10 be 5b b6 6b 3b
       0.060409203 -0.14814885 -0.1408903 0.0035966847

fc1.bias f4 [36]
000000 27 95 eb bd 41 51 9d bc 9a 48 24 be c6 af 41 3d
       -0.11503058 -0.019203784 -0.1604332 0.04728677
000010 8a 79 1f 3d 9b 2e 2e 3c b0 7a 88 bd fa 97 32 be
       0.038934268 0.010631229 -0.06664026 -0.17440787
000020 42 69 6f 3d 04 0c c1 ba 2f 64 3d be ce be c8 bd
       0.05844999 -0.0014728312 -0.18495248 -0.09802018
000030 f2 ab f7 bc e2 7a 1b 3c a1 76 6f be 13 eb ec bc
       -0.030233357 0.009489747 -0.23385097 -0.028920686
000040 ff d2 a6 3d 9e 2e 0b 3e 79 ca dd bc c9 79 5c bd
       0.08145713 0.13592002 -0.027074086 -0.05382708
000050 1d 2f 3c bd 92 d6 87 bd d9 6b 0e be e3 41 87 3c
       -0.04594337 -0.06632723 -0.13908328 0.01651091
000060 da df c1 bc 68 b2 70 bd 92 f9 ef bd ee 26 a8 bc
       -0.023666311 -0.05876389 -0.11717524 -0.020526376
000070 53 63 16 be 40 a9 0b 3e 37 19 3e be 4a fa 06 be
       -0.14686327 0.13638783 -0.18564306 -0.13181415
000080 fd d7 7d be c9 31 e7 3d d0 d5 15 be c1 74 cc 3b
       -0.24789424 0.11288793 -0.14632344 0.006239504

fc2.weight f4 [2, 36]
000000 8a 4a 2f 3e eb 07 83 bd ed f8 06 3e fa 68 96 3d
       0.17118278 -0.063979946 0.13180895 0.073442414
000010 03 ea 85 bd 81 c2 cd 3c 49 68 2d be c1 ad c0 3c
       -0.06538775 0.02511716 -0.16934313 0.023520352
000020 9b fe 24 3e 81 07 23 bd a5 e8 0b 3e 76 fa 19 bd
       0.1611275 -0.03980208 0.13662966 -0.037592374
000030 a1 f2 1a 3e ea 9c 17 3e a6 6c 4c 3c 2e da d3 3c
       0.15131618 0.14805952 0.012477076 0.025860872
000040 c8 6f 12 bd 49 7e 3b be d3 d0 1a be cf 3c d1 3d
       -0.035751134 -0.18309893 -0.15118723 0.102166764
000050 8f 6f 95 3d ba 7d 52 3e 30 dd 03 bd 9e a7 f0 3d
       0.07296669 0.20555773 -0.032193363 0.117507204
000060 bd 02 11 3d dd 12 82 3d 25 dc 17 3e 2d 66 cd 3d
       0.035403002 0.06351254 0.14830072 0.10029254
000070 ba 3c 2c 3d 8b 15 f7 bc c9 d5 4a bd 16 5c 7b 3d
       0.0420501 -0.03016164 -0.049520288 0.061367117
000080 d1 17 08 3e 9d 29 21 3c 3e 41 86 bd 65 e1 3d bd
       0.13290335 0.009836582 -0.06555413 -0.04635753
000090 ef 63 ca bd 89 a3 ca 3d 5b d0 a8 bd a7 4a 66 bd
       -0.09882342 0.09894473 -0.08242866 -0.056223538
0000a0 80 e9 66 3c 1d 2d bc 3d ae 99 c9 bd fe 67 21 3e
       0.014093757 0.09188292 -0.09843765 0.15762326
0000b0 8b e7 ae 3d 28 1f 86 3d f2 c8 05 3e 5c 5c 20 be
       0.08540257 0.06548911 0.13064936 -0.15660232
0000c0 f0 ce 23 3c 4b 81 c0 ba 3b ad eb bd c2 3c aa 3d
       0.009998068 -0.001468697 -0.115076505 0.0831237
0000d0 05 cb ca 3d ea 86 4b bd 49 d7 d5 3d 49 d7 90 bd
       0.09902004 -0.04968921 0.10441453 -0.070723124
0000e0 3f 3f 1b 3e 1a e3 99 3d 6a 40 2a be a6 d7 48 3c
       0.15160845 0.07514019 -0.16626135 0.012258446
0000f0 e7 55 41 3e e1 ab 40 3e 80 af 5c bd be c7 9e bd
       0.18880425 0.18815567 -0.053878307 -0.077529415
000100 fa d8 2e 3e 2a bd 05 3e 98 b6 fc bd f6 88 b3 3c
       0.17074957 0.13060442 -0.123395145 0.021915894
000110 de ad f5 3d a2 2c e8 3d 3f 68 0a bd ab 3b b1 3d
       0.11996053 0.11336638 -0.033790823 0.08653959

fc2.bias f4 [2]
000000 82 ab bf bc de 30 38 3d
       -0.023397211 0.04496848
