src/modelDevelopment/training/model_files/mlp_model_diff.pt (torch, 7011 bytes, 4 tensors)

fc1.weight f4 [32, 32]
000000 6f b2 15 be bb 9b 06 be 56 35 5d bd eb 85 b0 3d
       -0.14618848 -0.13145344 -0.054005943 0.08619293
000010 67 27 a1 ba f4 94 9d bd 43 60 3e 3d 18 7d 2f bd
       -0.0012295068 -0.07694426 0.04647852 -0.042843908
000020 95 86 2d 3c 71 5c 26 be 4d ca c7 3d a0 8d d4 3d
       0.010591169 -0.16246201 0.09755383 0.10378575
000030 7f c6 d2 3d a6 79 c3 3d f3 4a 59 bd ef 21 21 be
       0.102917664 0.09544687 -0.053049993 -0.15735601
000040 ef c6 b3 3c 7a d1 58 bd fa 7f d6 bb c3 2b 9d 3d
       0.021945445 -0.052934147 -0.0065460177 0.076743625
000050 4a c3 ab 3d 2e e7 db bd f9 2c ff bd 12 2c 10 be
       0.08386858 -0.107374534 -0.1245975 -0.14079311
000060 ef f2 0d be 7a 71 ed 3d ec a7 c4 bd a3 45 1b 3d
       -0.13862203 0.115939096 -0.09602341 0.037908208
000070 02 56 2c be 54 5c 83 3d d7 e2 e4 bd d9 db de 3d
       -0.16829684 0.064140946 -0.11176079 0.10881776
000080 5d 92 0b bd 11 97 6c bd d9 ca e4 3d 40 b0 a9 3b
       -0.03407513 -0.057761256 0.111715026 0.0051784813
000090 ee 05 c6 3c e4 0e de 3d 78 61 f4 bd ea fc 9c 3d
       0.02417275 0.10842684 -0.11932653 0.07665427
0000a0 1b 4f 96 bd 01 22 23 be c5 bf e3 bd 91 d7 e9 bd
       -0.07339307 -0.1593094 -0.111205615 -0.11418069
0000b0 6b d0 74 be 88 6e 7a be 2e 0a 66 3d 6c 23 aa 3c
       -0.2390763 -0.24456227 0.05616205 0.020768844
0000c0 0b 45 49 be 11 88 1d 3d 85 9b 78 bd b8 0a 81 3c
       -0.19655244 0.03845984 -0.06069519 0.015752181
0000d0 ab 34 19 3e 03 15 65 3e 20 c9 52 ba 3f d2 b6 3d
       0.14961497 0.22371297 -0.0008040834 0.0892682
0000e0 4f 13 b4 bd 55 8a 60 3d 06 ad 9d 3d ce 61 b3 3d
       -0.08792745 0.054819424 0.07699017 0.08758889
0000f0 a5 f3 82 3d 67 15 e5 3c be 26 71 3d 62 d3 9c bd
       0.06394128 0.027964307 0.058874838 -0.076575056
000100 7f c1 37 bc 41 ff 4e 3d f5 cc fb 3c 3e 36 18 be
       -0.011215567 0.050536398 0.03073738 -0.14864442
000110 56 7c d9 bd b6 34 ae 3e 58 37 08 3e 2c 0b 78 bc
       -0.10619418 0.3402459 0.13302362 -0.015139382
000120 76 a7 42 be 5b 4f 36 be 8d 44 45 bc 27 51 19 be
       -0.19009194 -0.17803709 -0.01204027 -0.14972363
000130 91 4e 84 be 62 fe 69 be a6 82 27 bd 52 23 03 3c
       -0.2584119 -0.22850946 -0.04089608 0.0080040265
000140 58 6f 86 bd d6 3d 1d bd 03 b5 9b 3c 55 dd 8a 3d
       -0.06564206 -0.03838905 0.019007212 0.06780497
000150 67 4b 3e 3e 5e cf ec bc ed 49 dd 3d b4 01 4a 3d
       0.18583451 -0.028907474 0.10805116 0.04931803
000160 60 00 1a 3e 4f a2 ed 3d 9a 16 01 be a3 6e 66 bd
       0.15039206 0.116032235 -0.12606278 -0.056257855
000170 09 a8 c8 3c a6 01 09 3e b6 6e 67 3b b9 4b 90 bd
       0.024494188 0.13379535 0.0035313792 -0.07045693
000180 92 ee b7 3d 5a cf 0e 3d 58 8e 27 bd bd 1b ac 3d
       0.089810506 0.034865715 -0.040907234 0.08403728
000190 fc ef 6b 3c 19 44 67 be 30 1d ed 3d fc 0e 9f bd
       0.014400478 -0.22584571 0.11577833 -0.0776653
0001a0 0e 14 c7 bd 79 a5 37 3e 30 12 d4 bd 35 b3 93 3d
       -0.09720622 0.17934217 -0.103550315 0.072119154
0001b0 48 28 1e bd 51 03 50 3c 54 6e 72 3c 5d 09 12 3e
       -0.038612634 0.012696103 0.014796812 0.14261384
0001c0 a1 38 9b bd e2 27 9c bd da 5b 2a 3d a2 07 af bd
       -0.075791605 -0.076247945 0.041591503 -0.08546378
0001d0 ef 6f 5b be 87 54 e3 bd 51 5f 09 3e d9 c9 0f bd
       -0.21429418 -0.11100107 0.13415267 -0.035104606
0001e0 74 1a ab bd c5 6b 26 be da 0f 2f be 8d f0 ca 3c
       -0.08354655 -0.16252048 -0.1709589 0.024772907
0001f0 ff 22 00 be 04 9c af bb a6 d1 49 bc 8d a8 28 be
       -0.1251335 -0.0053591747 -0.0123180505 -0.16470547
000200 ce d2 3e 3e f9 46 96 3d 0d f3 55 3c fb 5b 22 bd
       0.18635103 0.07337756 0.013058436 -0.0396385
000210 ae f4 f3 3d c8 43 bb 3d 7f c3 0c 3d 74 e8 d3 3a
       0.11911903 0.091437876 0.034366127 0.0016167299
000220 51 b7 4a 3e d3 4a db bd 7c a3 17 be 91 45 64 3e
       0.19796492 -0.10707631 -0.14808458 0.22292162
000230 07 1a e9 3d 95 ce 8f bc 15 3e 2b 3e 91 e0 0e 3e
       0.113819174 -0.01755456 0.16722901 0.13952853
000240 db f4 56 3d 01 da 42 bd d3 2d ca 3d ed c4 95 3d
       0.052479606 -0.047571186 0.098720215 0.07312951
000250 9d 4a 94 3d 43 af 11 3d 9c 16 8c 3d c2 8b 0a ba
       0.07240794 0.035567533 0.0684025 -0.0005285108
000260 b0 b2 99 bd 04 81 12 be 3c 10 e5 3d 06 30 a2 3d
       -0.07504785 -0.14307028 0.11184737 0.07919316
000270 8a 0c 53 be 95 77 1d 3d a2 7c ea 3d f8 e1 fe 3d
       -0.20610252 0.03844412 0.11449553 0.12445444
000280 d0 56 6f 3e d9 79 87 3d 3e 1e 07 be 2a f0 bf bc
       0.2337296 0.066150375 -0.1319513 -0.023429949
000290 cf 93 66 3e fb 64 fc 3d d6 b4 21 be 24 af da 3d
       0.22517322 0.12323948 -0.1579164 0.10677937
0002a0 e1 d3 bd bd 38 c1 c2 3d 90 13 3c bb 55 be f9 3d
       -0.09268928 0.0950951 -0.0028698184 0.12194506
0002b0 5e 15 f5 3d 8d 69 c8 bd c1 92 26 3e dd 09 cc 3c
       0.11966966 -0.09785757 0.1626692 0.024907047
0002c0 eb d3 d7 3d 0c 49 aa bb e4 d2 98 3d 67 f1 0b bd
       0.10538467 -0.005196696 0.07462099 -0.034165766
0002d0 f8 7b a7 3d eb 7a a3 3d 95 0e 89 be dc 3a 1c 3e
       0.08177942 0.07982429 -0.26768938 0.15256828
0002e0 2e 6f a3 3c 77 6e 06 3e 70 44 a0 bd d4 46 c2 bd
       0.019950476 0.13128076 -0.078255534 -0.09486166
0002f0 02 f5 42 bd 96 74 a6 3c c6 e2 ec bd 64 b2 6d bc
       -0.04759694 0.020319264 -0.11566691 -0.014507864
000300 cf 10 e2 bd f8 76 c8 bc c9 6a cd 3d 50 f5 69 be
       -0.11038362 -0.024470791 0.10030133 -0.22847486
000310 ef 81 0e 3e b1 31 10 3d ce e0 b8 3c d1 9d 3d bd
       0.13916753 0.03520364 0.022568133 -0.046293084
000320 63 f3 0c 3e 5d de c1 bd 14 9f ce bd ec 98 b1 bd
       0.1376472 -0.094662406 -0.100889355 -0.08671746
000330 05 4b 3e be ef c2 8f 3c 8b af f5 bc c1 1c a9 3d
       -0.18583305 0.017549006 -0.029990932 0.082574375
000340 84 8a c6 3d 3b 28 8e bd 20 6d 16 3e b6 ab 66 bc
       0.096943885 -0.06941267 0.14690065 -0.014079025
000350 be 7a 81 be c2 2a 03 3e c4 3c 57 3e 7d 02 e9 b9
       -0.25288957 0.1280928 0.21019274 -0.00044443077
000360 ff 28 10 3c d0 d6 c7 3d e8 6f d1 bd 98 0e fa b8
       0.008798837 0.09757769 -0.102264225 -0.00011923647
000370 3e ff 62 bc a9 25 5e 3b 11 6a b0 bb cf 26 fc bd
       -0.0138548 0.003389696 -0.005383738 -0.1231209
000380 ad b0 d7 bd a8 41 10 3b d2 0b 04 be 12 22 d3 bd
       -0.10531745 0.002201179 -0.12895134 -0.10309233
000390 3d 6b a9 bc 1e 8b ab bc 22 a8 bc 3d 2f 91 84 bd
       -0.020681018 -0.02094036 0.09211756 -0.06473004
0003a0 40 64 9b 3d f8 e3 c9 bd 5b 99 0e 3e 5a 91 b1 3d
       0.075874805 -0.09857935 0.13925688 0.08670302
0003b0 4e 41 47 3e 58 48 11 3e 0b 55 11 3e a5 7f 9e bc
       0.19458506 0.14187753 0.14192598 -0.019347975
0003c0 dc 91 9e bd 94 1c 53 3d 4a 0f 3e 3e fe 16 fc 3c
       -0.07742664 0.051540926 0.1856052 0.030772682
0003d0 99 4c ba bc ba 87 6f bd 8c 18 8e 3d ba a1 03 3e
       -0.022741603 -0.05847905 0.06938276 0.12854663
0003e0 8e 9b bb 3d 4f 1c 8d bd 89 51 94 3d 5a 87 0c 3e
       0.09160529 -0.06890165 0.07242114 0.13723508
0003f0 61 7d ac bc 2f 3d 34 3e f1 eb 9e 3d 13 4a 6d bd
       -0.02105588 0.17601465 0.07759846 -0.05793197

fc1.bias f4 [32]
000000 fa 8d 38 3e fa f4 dc bc 8a 5f c6 be f3 71 59 3d
       0.1802291 -0.026972283 -0.38744766 0.053087186
000010 75 9b 76 bd 18 07 8e be 81 13 03 bd 51 d0 d9 3d
       -0.06020685 -0.27739787 -0.032001022 0.10635436
000020 e4 c4 e6 bd 9d 6a 04 3c 46 ea 82 be 6c 1f 8f 3d
       -0.11268023 0.008082059 -0.2556936 0.06988415
000030 ec 5e 42 bd 0c 65 aa bd 49 1a 8d ba 0e 5c 6c be
       -0.047453806 -0.083200544 -0.001076528 -0.23081991
000040 60 a3 82 3d 0e f4 cc bc c2 2b 82 3e c1 cd 21 3e
       0.063788176 -0.025018718 0.2542401 0.15801145
000050 d2 36 ab 3d 2a 05 12 3c 5f 6f 8f 3d 6f 9f 94 3d
       0.083600655 0.008912364 0.07003664 0.07256972
000060 db 7b da 3d 1a 5a 61 3c cb 88 2a 3e 43 c5 17 be
       0.10668155 0.013754392 0.16653745 -0.14821343
000070 92 c8 0b 3e d9 73 2f 3c 43 92 55 3e 69 df 39 bc
       0.1365073 0.010708773 0.20856576 -0.011344769

fc2.weight f4 [2, 32]
000000 e6 36 ca bd f5 f5 0d 3d 38 b5 46 3e 99 4a 1c 3e
       -0.09873752 0.03465839 0.19405067 0.15262832
000010 ca 3d 0b be 47 56 30 3d 5e 46 5c b9 c9 5f 27 3e
       -0.1359779 0.04305103 -0.00021007049 0.16345133
000020 65 2d cb 3b 31 94 9f 3d f1 a3 71 3d 67 4f e7 3d
       0.00620048 0.07791937 0.058994237 0.11294442
000030 59 1f c4 bd 51 cc a3 3c 5e 8b 91 3d 92 a1 b1 3c
       -0.095762916 0.019994887 0.0710666 0.021683488
000040 65 08 48 3d 6c b9 56 bd 31 c2 04 be c5 9f b4 bd
       0.04883613 -0.052422926 -0.12964703 -0.08819536
000050 ee c5 3c 3e dc 51 1f bb bc 37 e0 bd 95 31 26 3d
       0.18434879 -0.0024310267 -0.109481305 0.04057463
000060 71 8d f0 bd 75 9a 4f be e6 0f 43 bc 6c b1 10 3e
       -0.11745728 -0.20273764 -0.011905646 0.14130181
000070 dc b1 4c be c0 a8 32 3d 05 92 13 be 03 a0 b8 3c
       -0.19989723 0.043617964 -0.14411171 0.022537237
000080 a1 02 92 bd e7 e8 1d bd f1 73 6d 39 13 d8 99 3b
       -0.07129408 -0.03855219 0.00022645273 0.0046949475
000090 60 2d 93 bd 41 5f 33 3e 75 81 c1 bd 4c 6c dc 38
       -0.07186389 0.17516805 -0.0944852 0.00010510589
0000a0 f6 51 ef 3d 97 f5 4e 3e 7b 0c 12 be da 36 32 bc
       0.11685555 0.20210873 -0.14262573 -0.010877335
0000b0 f7 97 87 3d 89 70 be 3d 58 b6 05 be 4b 8a 6a bb
       0.06620782 0.09298808 -0.1305784 -0.0035787995
0000c0 2f bb 0d bd ec 38 c9 3d 42 8d 5b 3d 4a bf 87 3c
       -0.03460234 0.0982531 0.05360151 0.016570706
0000d0 2d 40 b2 3d ce c3 a1 bd 5c e3 9e 3c ad ef d9 3d
       0.08703647 -0.07898675 0.019395523 0.10641418
0000e0 87 a5 10 3e a9 dc dc bd 5a a5 6a 3d 82 44 37 3d
       0.14125644 -0.10784275 0.057286598 0.04474307
0000f0 4b 0e 04 3c e5 53 80 bd b5 27 ca bc cf f6 1a be
       0.008060048 -0.062660016 -0.024677137 -0.15133213

fc2.bias f4 [2]
000000 77 7b 89 bd 49 ee 68 3c
       -0.06713002 0.014216968
