src/modelDevelopment/training/model_files/mlp_model_diff.pt (torch, 7011 bytes, 4 tensors)

fc1.weight f4 [32, 32]
00000000: b76c d5bd ea57 223e 7873 cdbd d8c4 f43d
00000010: a09f f63d 90da 453e b44a 853e 20f4 373e
00000020: 6d87 dc3d 50f9 0f3e 7b6e d3bd d881 2d3e
00000030: 6fda 78bd 82e2 43be d29f 2abe 6e95 c53d
00000040: 2767 983d f276 613e bc7b 95bd 9671 dcbd
00000050: b9fe c1bd 4399 c3bd 3147 ac3d 0cb3 393c
00000060: 9e99 033e 5710 1bbe 0e2f 113e 263f 273e
00000070: 2fb6 e6bd 68d9 e33c b69a 9ebd 122b 0bbe
00000080: 1e1d 2a3e 3752 30bd 9190 df3d 30b8 48bd
00000090: 7121 fcbc 5877 e53d 44e9 0a3e 9adb b8bd
000000a0: 255f b93d 80bf 1d3e 3d6f 463e 57ea 21be
000000b0: 7b95 f43d 6501 0e3d 860c 11bd 25fc c33d
000000c0: 2be4 ec3d 33d8 6bbe e6e0 2b3c cc89 febd
000000d0: 71c9 183e 65dc 213c ceed debd 3b10 e639
000000e0: d925 0abe 6c54 40be 256e 693b da1f 3d3c
000000f0: 7138 fdbd cb32 693d 8e3d cbbd 4790 07be
00000100: d9c2 813e 0de6 ecbb 9907 283e 7f6d 2b3e
00000110: ed4c 25bd cea4 4fbd dc39 e93d 79aa 27bd
00000120: f3a5 9f3d f16d 28be 9018 8bbd 7e94 273e
00000130: dfc5 c9bd 10a8 5a3c 232d 1b3e 21d6 cc3d
00000140: ca99 e2bb e26c d53b 617d 483d c1ce d7bb
00000150: 3be0 9abd 1dc8 89bd 4f68 93bd c50b 2abd
00000160: 3fbd 393e 8919 c8bd ae5e 9abd 9ccc 44be
00000170: 6ed0 96bc 9f42 bfbc 1b6f 0d3d 5b27 b0bd
00000180: 8383 2e3e df18 f13d 25b5 97bd 00db ed3c
00000190: aeb1 813d 3578 15be b331 153c 8c04 4d3e
000001a0: c7db 383e 6e39 453e f8d5 d4bd b22b edbd
000001b0: ff82 1a3e 0660 57bc 4ee1 e83d d420 343d
000001c0: 11a4 903d 048a 05be ca1f dfbd 8040 cebd
000001d0: d89f b9bd 6ba4 89be 4c22 9fbd 0ba5 db3d
000001e0: 6e2c c3bd 174d 16be 12c5 3fbe d9ca 84bd
000001f0: bd1b 453d 374f d93d b8f1 f23d 6553 4abd
00000200: 1c3c f13d 3ca6 833d 6618 1bbe 5eb2 aa3d
00000210: 5c67 cf3d bac5 d83d 2f42 293d 6e19 02bc
00000220: 218b fb3c c502 b83d 9787 de3d ebe0 87bd
00000230: 338c 1cbe 877e 313d 6ae1 13be 1148 a93d
00000240: 6967 503d 0070 d5bb e6ef ccbb b77f b83d
00000250: 12e6 da3d b3a9 83bd 6f70 173e f6ff d73d
00000260: 58d8 53bd ab1b 243e 2f05 a33c 8223 4a3d
00000270: 5d90 e23d 1531 7bbd bc07 45be ab49 c03d
00000280: f21d 81bc d888 fabd d72d 093e 11dd eebd
00000290: 0886 5abd c842 623e 1be5 ec3c dbe7 cebd
000002a0: ed12 033b 7585 e5bd 1ca8 703d b6c4 34bc
000002b0: c859 4fbe b04d c53b 79e9 d8bc fb65 eebd
000002c0: 0a2a 49be a04e 83bd 1601 bbbd d551 673d
000002d0: 9dc1 4fbd 33c1 0f3e ce23 5abc 631f 09bd
000002e0: 34c8 5c3e 2738 873d 5494 f5bd 6995 37be
000002f0: c7ac a8bd 58ea 063e 6017 143e df0e 033e
00000300: a844 28bd 6177 09be 755b 96bd 9fa3 db3d
00000310: 9f65 35be b51d e3bd 196b 56bd 78e7 2dbd
00000320: 10d9 e23d eeed 07be e5a0 063d 0c34 fe3d
00000330: f36a 1cbe 2018 dfbd 8459 adbd b700 b7bd
00000340: 9475 b53d 7ddc 883d 263f 893d ddf2 e2bd
00000350: ca5d 4ebd 7182 02be 105a 33bd 709e 293e
00000360: 0c03 753d 1544 793d 9791 76bc 429a 06be
00000370: 53eb 603e e67a 493e 5504 69be 1daa d8bd
00000380: a526 123e cbab c0bd 7438 8a3d 7823 a53d
00000390: 0734 bc3d f955 50bc 6a51 9cbd 323a 123e
000003a0: 73a9 0cbd 13ca 15be f0e2 3dbc 9fa5 5bbd
000003b0: 2577 05bd 81e1 983d c28f 333e 4c86 113e
000003c0: 5d73 6bbc a642 4bbd fb6d 0b3d a796 29be
000003d0: feb7 ddbd 9d78 85bc 4e51 293d 55fd dabd
000003e0: 7e1b 583e 2b19 8ebd 8e7d db3b 5016 f7bc
000003f0: 690a 27bd 402a 70bd 849e 1e3e 5597 15bd
-0.10421126 0.15853849 -0.100317895 0.119516075 0.12042165 0.19321656 0.26033556 0.1796422
0.10768018 0.14059949 -0.10323807 0.16944063 -0.06075519 -0.19129375 -0.16662529 0.09647642
0.0744155 0.2201803 -0.07298991 -0.10763852 -0.094724126 -0.09550717 0.08412016 0.011334192
0.12851569 -0.15142952 0.14178106 0.16332683 -0.112652175 0.027813628 -0.077443525 -0.13590649
0.1661267 -0.043047156 0.10916246 -0.04900378 -0.030777665 0.11204404 0.13565546 -0.09026261
0.090513505 0.15405083 0.19378372 -0.1581205 0.11942574 0.0346693 -0.035412334 0.09569577
0.11566957 -0.23031692 0.010490632 -0.124286264 0.14920594 0.009879206 -0.108852014 0.0004388111
-0.13491 -0.18782204 0.003561863 0.011543239 -0.12364281 0.056933206 -0.0992385 -0.13238631
0.2534397 -0.0072295726 0.16409148 0.16740988 -0.040356565 -0.05069428 0.11387989 -0.04093406
0.07795324 -0.1644819 -0.06791794 0.16365239 -0.09852194 0.013345733 0.15153937 0.10001779
-0.0069153057 0.006513224 0.048947696 -0.0065859263 -0.075623 -0.06727622 -0.0719763 -0.04151513
0.18138598 -0.097704954 -0.0753759 -0.19218677 -0.018409934 -0.023347197 0.034529787 -0.086012565
0.17042355 0.11772322 -0.074075975 0.029035091 0.06332718 -0.14596637 0.0091060875 0.20021266
0.18052588 0.19260189 -0.10392374 -0.115806 0.15089034 -0.013145452 0.113710985 0.04397662
0.07062543 -0.1304093 -0.10894735 -0.10070896 -0.09063691 -0.26883253 -0.077702135 0.10724839
-0.09529959 -0.14677845 -0.1872752 -0.064840026 0.048122156 0.10610812 0.118625104 -0.049395937
0.11779043 0.06428191 -0.15146026 0.08334802 0.10127136 0.10584588 0.041322883 -0.007940633
0.03070599 0.08984903 0.108657055 -0.066346966 -0.15287857 0.043333557 -0.14441457 0.08265699
0.05087987 -0.0065135956 -0.006254184 0.09008735 0.10688414 -0.06428852 0.14788984 0.105468675
-0.051719993 0.1602618 0.019899933 0.04935027 0.11062691 -0.061326105 -0.19241232 0.09389051
-0.01576135 -0.12233132 0.13396393 -0.11663259 -0.05335048 0.22095788 0.02891784 -0.10102817
0.0020000294 -0.112070955 0.05875407 -0.011033228 -0.20249093 0.006021224 -0.026478516 -0.11640545
-0.19644943 -0.06411481 -0.091310665 0.056474525 -0.050721753 0.14038543 -0.013314201 -0.0334772
0.21560746 0.06602507 -0.11991182 -0.17928089 -0.0823608 0.13175333 0.14462042 0.12798642
-0.0410811 -0.13424446 -0.07341663 0.107245676 -0.17714547 -0.110896505 -0.05234823 -0.042457074
0.11076558 -0.13274357 0.032868285 0.12412271 -0.15275173 -0.10893273 -0.084643394 -0.08935683
0.08860317 0.0668268 0.06701498 -0.11081479 -0.050382413 -0.12745072 -0.043787062 0.16564345
0.05981736 0.060855944 -0.01504936 -0.13144782 0.21964769 0.19675788 -0.22755559 -0.105793215
0.14272554 -0.09407767 0.06749049 0.08063406 0.09189611 -0.01271581 -0.07632716 0.14280012
-0.034341287 -0.14627866 -0.011589751 -0.053624745 -0.03258433 0.074648865 0.17535308 0.14211386
-0.0143707665 -0.049624108 0.034040432 -0.16561376 -0.10826109 -0.016292864 0.041337304 -0.106928505
0.21104237 -0.06938394 0.006698317 -0.030162007 -0.040781412 -0.058634043 0.15490156 -0.036521275

fc1.bias f4 [32]
00000000: fb16 dbbc 98b7 0a3e debf 6b3e dc0b f33b
00000010: f54f 14bd b910 b7be 19a0 05be b3dd babd
00000020: 66a8 873e 5ec9 68bd c8d2 40be 8b1d 86be
00000030: 1154 be3c 97cd 823c 3069 3ebd fe72 cf3d
00000040: 18f2 01be 18a8 883e a5c0 52be 8581 57bc
00000050: 2612 65bd 0ccc da3c 08b3 68bd 589c aebd
00000060: 0981 02be b92a 363e 3c8f 803e a870 55be
00000070: 3634 6bbe d4a3 9abc e9f0 0e3d c92a 22be
-0.026744356 0.13546598 0.2302241 0.007417185 -0.036209065 -0.35754946 -0.13049354 -0.09124317
0.26495665 -0.056832664 -0.18830407 -0.26194414 0.023233445 0.015967174 -0.046487033 0.10129355
-0.12690008 0.26690745 -0.205813 -0.013153438 -0.05592551 0.026708625 -0.056811363 -0.08525914
-0.12744536 0.17789735 0.2510928 -0.20843756 -0.22969136 -0.018876947 0.03489772 -0.15836634

fc2.weight f4 [2, 32]
00000000: edad 333e c09b babd 67c6 30be db68 333e
00000010: 2675 06be 857b 8dbd a1f6 30be 062c a93d
00000020: 83a4 57bd ac4e 46be 09e6 283e 5931 1d3e
00000030: 634c 12be 1370 89bd 55f0 e0bd efce 9c3c
00000040: 02f8 333e 3549 20bd 09a7 133c 6431 4f3b
00000050: 6421 0dbd 5733 573c 2a01 1dbe bcb3 0bbe
00000060: 266f 3a3c eb10 bcbd 4474 2bbe 01e7 0b3e
00000070: 93d1 2a3e b59f f6bd 989d 4b3d d309 123b
00000080: 86f9 6c3d bceb 203e 182d 9bbd 05d6 45bc
00000090: 3441 1fbd 5c72 49be 099e cdbd 46b6 cc3d
000000a0: 686c f13d 69e6 e9bd aa13 1fbe 5320 cbbd
000000b0: e543 f13d 2c14 ca3b 80f6 23be 7857 403e
000000c0: d1e9 9abd 65cd 0a3e c91e 16be 95a8 1cbe
000000d0: fd2d 4d3c 4e12 13be 65df 38bc 8920 e73c
000000e0: 4504 153c b532 8e3d b5ff aabd 3b19 3cbc
000000f0: 2ec1 7dbd b322 983c 2497 97bd c588 d4bd
0.17546816 -0.09111738 -0.17263184 0.17520468 -0.13130626 -0.06908325 -0.17281581 0.0826035
-0.052647125 -0.19365948 0.16494001 0.15350856 -0.14286952 -0.067108296 -0.1098334 0.019141642
0.17575076 -0.039132316 0.009011992 0.0031615132 -0.034455672 0.013134799 -0.15332475 -0.13642782
0.011379039 -0.09182914 -0.1674357 0.1366234 0.16681509 -0.120421804 0.04971084 0.0022283688
0.05785515 0.15714926 -0.0757696 -0.012074952 -0.038880542 -0.19672531 -0.100399084 0.099957034
0.11788255 -0.114209004 -0.15534845 -0.09918275 0.11780528 0.0061669555 -0.16012001 0.18783367
-0.07564128 0.13554914 -0.14660181 -0.15298684 0.0125231715 -0.14362451 -0.01128373 0.028213756
0.009095256 0.06943265 -0.083495535 -0.011480625 -0.06195181 0.018571233 -0.07401875 -0.10377649

fc2.bias f4 [2]
00000000: 82a3 163d 5435 74bc
0.036777027 -0.014905293
