src/modelDevelopment/training/model_files/mlp_model_diff.pt (torch, 7011 bytes, 4 tensors)

fc1.weight f4 [32, 32]
000000 0a 9c 14 3e 88 27 62 3e fa 19 69 3d 25 b5 6a 3c
       0.14512649 0.22085392 0.05690954 0.014325415
000010 3e 38 de bd 99 88 e1 3c 89 62 72 3c 56 19 13 be
       -0.10850571 0.027530955 0.014794 -0.14365134
000020 7e 25 df 3d e9 88 a4 bc 4c 1f 1f 3d aa 04 1d 3d
       0.10895823 -0.020084815 0.038848206 0.038334526
000030 ed a9 4f bd 65 53 aa bd 10 5a 89 bc 0d 88 dd 3d
       -0.050699163 -0.083166875 -0.016766578 0.10816965
000040 2a 6d 03 3d 24 64 78 3d 5f b4 12 bd 17 20 af 3d
       0.03208653 0.060642377 -0.035816547 0.085510425
000050 47 49 93 bd 22 c1 3e bd 0f b8 f8 bd 45 72 33 3c
       -0.07191711 -0.046570905 -0.121444814 0.010952537
000060 e7 4b 13 be 1e e6 1d be be bd 1b 3b 53 6b 2b ba
       -0.14384423 -0.15419814 0.0023764218 -0.0006539125
000070 b0 cd 5d 3d d3 b6 16 bd d6 19 be 3c ea 1c db bd
       0.054151237 -0.03679545 0.023205679 -0.10698874
000080 17 8d 1f 3e 88 24 93 bd 95 8d fe bd 55 6d d1 bb
       0.15581165 -0.07184702 -0.124293484 -0.006391207
000090 08 a8 63 3d d8 f7 c5 bc b3 e0 49 3d d3 0c 64 bb
       0.05558017 -0.024166033 0.049286555 -0.0034797683
0000a0 cc 0d a9 3d dc a5 f9 3d b4 0f 3e 3e 87 a9 c7 bd
       0.08254585 0.12189838 0.18560678 -0.09749132
0000b0 97 e0 8d bd f9 cf ab bd 8f cb 8b 3d 81 b9 94 bd
       -0.06927603 -0.08389277 0.06825935 -0.072619446
0000c0 49 95 34 3d 71 71 96 3d 13 68 dc 3d 31 fd b0 bd
       0.044087682 0.07345856 0.10762038 -0.086420424
0000d0 3f 2d 88 bc a6 30 85 bc 1a f6 d6 bd aa 54 3e 3e
       -0.016623138 -0.016258549 -0.10496159 0.18586984
0000e0 61 20 28 bc f9 89 c5 bd a8 8f b0 3b ef 1b a2 bd
       -0.010261626 -0.09645457 0.005388219 -0.07915484
0000f0 f5 98 ff 3d b1 f4 c8 3d 1d e7 5b be 24 5f b8 3d
       0.12480346 0.09812296 -0.21474881 0.09002522
000100 68 b2 48 be 51 c6 ac 3d ef 50 27 bd 35 e6 0b 3e
       -0.19599307 0.08436263 -0.04084867 0.13662036
000110 e8 6e bb bd f6 47 5a 3d f8 ea 7b bd c6 3f 64 3d
       -0.09152013 0.053291284 -0.06150338 0.05572488
000120 be 84 50 3e 14 31 78 3d 8e ff 09 be c4 60 eb bc
       0.20363137 0.06059368 -0.13476393 -0.028732665
000130 6c a7 ea 3d b1 47 b5 3d eb d7 38 be 46 68 17 3d
       0.114577144 0.08851565 -0.18051116 0.036964677
000140 4e ea 02 be cf e9 0c 3e 28 08 0e 3d 09 34 db 3d
       -0.12784693 0.13761066 0.034675747 0.10703284
000150 dc 69 38 3d 28 98 97 3d 27 b0 91 3d 32 41 fa 3d
       0.04502283 0.074020684 0.071136765 0.12219466
000160 ea 17 a4 3d af 45 2d be 41 cf d9 3d c3 22 f2 bd
       0.08012374 -0.16921113 0.10635234 -0.118230365
000170 8c 60 34 3d b3 cc 9b 3d 4d 8c 8a be 52 97 9b 3d
       0.044037387 0.07607403 -0.27060166 0.075972214
000180 5e 50 07 3d fa b7 50 be c3 c2 ff 3d 58 7f 57 bd
       0.03303563 -0.20382681 0.1248832 -0.05261168
000190 be 44 0d bd 74 d8 fa bc 1e 8a 2a bd 89 3f 2d 3e
       -0.034489386 -0.030620791 -0.041635625 0.16918768
0001a0 bf 33 f6 3c 0c d7 00 3e db 3b d1 3d 97 4e a8 bd
       0.030053971 0.12582034 0.10216495 -0.08218115
0001b0 72 74 4c 3c 0f 53 05 be ef 5c 21 be c9 66 40 3e
       0.012478935 -0.13019966 -0.15758108 0.1878921
0001c0 6c 67 14 be 7e 9a 17 be fd 98 d0 bc ab b0 b2 bd
       -0.14492577 -0.14805028 -0.025463575 -0.08725103
0001d0 56 e2 5d 3e a7 73 e7 3d 76 f2 18 ba 48 ad 38 3e
       0.21668372 0.11301356 -0.00058344693 0.18034852
0001e0 24 d5 ee bd f8 fa b6 3d 12 fb 35 3e 43 26 a5 3d
       -0.11661747 0.08934587 0.17771557 0.080639385
0001f0 f9 39 b8 3c 0f 7d 15 be 6b b2 61 3e 17 d8 8f 3d
       0.022488581 -0.14598487 0.22040717 0.07023638
000200 cc c2 aa 39 25 83 a0 bd 5d 2f 36 3e 40 7a 23 3c
       0.00032570062 -0.07837514 0.17791505 0.009977877
000210 ed 33 2a 3d 7c b1 cb bd a4 f9 e2 bd 5c 77 b1 bd
       0.041553427 -0.09945962 -0.110827714 -0.08665344
000220 59 df 07 3e 56 40 02 be 03 79 c3 bd dc 2c 14 3d
       0.13268794 -0.12719855 -0.095445655 0.036175594
000230 8d 10 ac 3d 42 2c 34 3e 73 72 25 be a1 ab 89 3e
       0.08401594 0.17595008 -0.1615694 0.26888755
000240 ec 50 bf 3b 64 b5 1d be 27 c5 91 bd 4c 5f 2c be
       0.005838504 -0.15401226 -0.07117682 -0.16833228
000250 7a 05 7f 3c 79 5a 44 3d 7f 47 10 bd ab 9e 14 3e
       0.015565271 0.047937844 -0.035224434 0.14513652
000260 1d e7 ba 3b ec 69 2f 3e 3c 47 03 3e e6 30 0c be
       0.0057038204 0.1713025 0.12820143 -0.13690528
000270 36 26 64 bc 7e d7 1a be 02 e7 98 3d 0f b3 89 be
       -0.013925126 -0.15121266 0.07465936 -0.26894423
000280 e8 f9 9a 3d e0 c9 33 be 92 91 98 bd 21 02 a7 3d
       0.07567197 -0.17557478 -0.0744964 0.08154703
000290 50 47 75 3d 66 bd 43 3e 78 40 fc bd 55 a1 b1 bd
       0.059882462 0.19115219 -0.12316984 -0.0867335
0002a0 e4 86 7e 3d 9b 88 08 3e 7b 2a 4b 3e 9a d3 fb bd
       0.06214036 0.13333361 0.19840424 -0.12296219
0002b0 49 42 45 3b 12 91 19 3e 52 e1 1f 3e 6d 18 78 bd
       0.0030099323 0.14996746 0.15613297 -0.06057017
0002c0 e9 89 db 3a 36 d6 16 be a2 77 0a be b2 1e 19 3d
       0.0016749474 -0.14730152 -0.13522199 0.03738279
0002d0 a9 fc 18 bd 88 45 a8 bc ce af c1 3d 1c 86 3f be
       -0.03735033 -0.020540968 0.0945736 -0.18703502
0002e0 02 25 77 3d f4 9f 74 bc ef be 92 3d 3a 37 b3 bd
       0.060338028 -0.014930714 0.07165324 -0.08750768
0002f0 01 f3 10 be 53 c9 e0 3d 5d 6e 31 be bb 3b cc 3c
       -0.14155199 0.109758995 -0.17327257 0.024930825
000300 a7 da 45 3d 3e 73 a8 3d 2c 49 16 3e 71 29 f7 3d
       0.048304226 0.08225106 0.1467635 0.12068451
000310 f8 05 58 3e 7d d6 ec bb e9 68 eb bd 75 f3 90 3d
       0.21096027 -0.0072277174 -0.114946194 0.07077686
000320 d8 5d 05 bd 66 e2 4c be 25 21 e5 3d ba cc 73 bd
       -0.0325602 -0.20008239 0.111879624 -0.059521414
000330 09 5f c8 3d fe 28 76 3d a0 bb 3d bd 8c e8 81 3e
       0.097837515 0.060097687 -0.04632151 0.25372732
000340 4e 82 ed bd ea 16 81 3c 4a 0f 0d 3e 3a 02 41 3d
       -0.11597119 0.015757997 0.13775364 0.047121264
000350 c6 5b 8a ba 26 74 9a 3d 94 ed 88 bd 10 e0 8b 3c
       -0.0010555915 0.07541685 -0.066859394 0.017074615
000360 80 0a 5e 3b dd 58 d7 3d fa d1 17 bd d0 7e 00 be
       0.003388077 0.10514996 -0.037065484 -0.12548375
000370 51 b5 95 bd ad 96 4b bc ee 76 4c be 65 de 19 be
       -0.07309974 -0.012426061 -0.19967243 -0.15026243
000380 0e ab c2 3b 69 0b 96 bc 7f 94 01 3b 5e 8a e6 bd
       0.0059408015 -0.018315988 0.0019772348 -0.1125686
000390 53 e8 37 bd fd 8b 85 be f5 6c b2 bd 41 99 0d 3e
       -0.044899296 -0.26083365 -0.08712188 0.13827993
0003a0 a6 25 2b bd 05 3b 31 3d 74 fe 06 3e 0b a9 31 3e
       -0.04178395 0.043269176 0.13183004 0.17349641
0003b0 9b 2e 8f 3e 67 02 40 3e aa 97 e1 3d 43 f9 88 3d
       0.27965245 0.18750916 0.11015256 0.06688168
0003c0 d7 24 e8 3d e8 2e b7 3d 02 13 35 3e 82 cc f1 bc
       0.11335152 0.089444935 0.17683032 -0.029516462
0003d0 3e b7 c6 3d 32 d7 37 bd 50 87 08 be 7d c1 00 3e
       0.097029194 -0.04488296 -0.13332868 0.1257381
0003e0 5a 47 a0 bd f1 b5 3b be 50 a5 ac 3d 00 bd a9 3d
       -0.07826109 -0.18331124 0.08429968 0.08288002
0003f0 d8 d8 8f bb d0 ea 0d be 2c 1a b9 bc 23 83 c1 bd
       -0.0043898635 -0.13859105 -0.022595488 -0.094488405

fc1.bias f4 [32]
000000 02 4b 1a 3e 3f 27 35 be 26 3d 8a 3d cd 8d 54 3c
       0.15067676 -0.17690752 0.067499444 0.012973261
000010 75 59 6a 3d 8c 0d 53 bc 3a 37 cd bd 66 b8 b3 3d
       0.05721422 -0.012881648 -0.10020299 0.087754056
000020 bc 03 46 3d f7 cb 6e be 99 b9 85 bd 84 a0 42 bd
       0.048343405 -0.23319994 -0.065295406 -0.04751636
000030 5c 14 dc 3d b4 f5 85 bc 6d ac 3f be 29 fc 26 3d
       0.10746071 -0.016352512 -0.18718119 0.040767822
000040 e9 84 d9 bb f8 05 fd 3d e2 43 98 be 73 a8 c7 bd
       -0.0066381586 0.12354654 -0.2973929 -0.09748926
000050 8b c2 c3 3c 5c 47 a2 3c df 52 56 3e 09 23 54 be
       0.023896476 0.019809417 0.2093005 -0.2071649
000060 18 55 78 be 6d 8e db 3b f9 0a 11 3e e8 49 03 be
       -0.2425121 0.006700328 0.14164342 -0.12821162
000070 2a 67 85 3d 5b b2 60 3d f5 71 95 bd 2e 0d 91 bd
       0.065138176 0.054857593 -0.07297126 -0.07082592

fc2.weight f4 [2, 32]
000000 61 17 87 bd 36 ca 00 be 6d f0 6f 3d 66 3f 28 3e
       -0.06596256 -0.12577137 0.058578897 0.16430435
000010 e7 2b 20 be 81 63 d1 bd b1 64 35 be 3d 47 39 3e
       -0.15641747 -0.10224057 -0.17714192 0.18093581
000020 58 4a b4 3d 7a d6 15 3e a0 08 57 bd 74 aa 67 bc
       0.088032424 0.14632598 -0.05249846 -0.01413976
000030 b4 d0 0c bc 01 a2 83 3d 35 6c 24 3e 6b ee b7 3c
       -0.008594681 0.06427384 0.16056903 0.022452554
000040 02 15 c7 3d 20 50 8d bd 23 67 75 3d 2e d0 0f be
       0.09720804 -0.06900048 0.059912812 -0.14044258
000050 2c cf 86 bd e8 24 a1 3d c3 1b 94 3d b9 89 28 3e
       -0.06582484 0.078683674 0.07231858 0.16458787
000060 34 59 48 3e 21 36 43 bc 00 74 9a 3c 7b 65 ba 3d
       0.19565278 -0.011914761 0.018854141 0.09101387
000070 9b 32 0d 3e ca 75 45 3d d5 ed 79 3d b2 fe 90 bd
       0.13788836 0.048208036 0.06101783 -0.07079829
000080 b0 4d d6 3d 3f c2 13 bd 85 d0 3d 3e c2 11 5a 3d
       0.104640365 -0.03607392 0.18536575 0.05323959
000090 1a f8 45 3d 86 12 f1 3d 18 38 da bd d0 ce 60 3d
       0.04833231 0.11771111 -0.1065523 0.05488473
0000a0 96 1e d0 3d db 72 0f bc d9 42 c6 3d a9 21 0c 3e
       0.10162084 -0.008755411 0.09680719 0.13684715
0000b0 8a 85 e9 3d 4b b1 1c 3e b7 de 94 3d 99 da 0d 3e
       0.11402424 0.15302007 0.07269042 0.1385292
0000c0 df f3 90 bd a4 de b8 bb 8a 0f db bd ab e4 e6 bd
       -0.07077765 -0.005641775 -0.10696323 -0.11274084
0000d0 d9 f5 2d be 05 9c d9 bd 50 8d a5 bd 72 3c 63 bd
       -0.16988315 -0.106254615 -0.08083594 -0.055477567
0000e0 81 cb 53 bc 44 c7 2c 3b 18 47 05 3e 31 be 28 3e
       -0.012926937 0.0026363889 0.13015401 0.16478802
0000f0 95 97 64 3d 08 25 12 bd 1b f6 2c bd da 18 57 3b
       0.055808622 -0.035679847 -0.042226892 0.003282121

fc2.bias f4 [2]
000000 b3 89 b5 3c d6 15 1a 3e
       0.022160387 0.15047392
