src/modelDevelopment/training/deep_mlp_model.pt (torch, 75442 bytes, 14 tensors)

model.0.weight f4 [128, 64]
000000 1e 29 87 bb 8c 52 09 be 25 19 3f bd 26 ac 70 3d
       -0.0041247746 -0.13410395 -0.04665484 0.058757924
000010 87 2d f8 bb 2b da aa 3e c7 01 4d be ea aa 13 3d
       -0.0075737867 0.33369574 -0.20020209 0.03605167
000020 24 05 1e be 2a 4f 52 bd f2 00 8d 3d 45 5b f5 bd
       -0.15431648 -0.051345028 0.06884946 -0.11980299
000030 19 f7 e6 3b 31 ad f8 3c bb cf 41 3e fa 73 37 3d
       0.0070484993 0.030356022 0.18926899 0.04478834
000040 30 e1 97 3d 25 ea f1 bd 2a 26 66 3d ed e2 99 bd
       0.07415998 -0.11812238 0.05618874 -0.07513986
000050 32 ca 87 3d 41 8d 7a 3d 61 86 fd bd 59 b8 eb bc
       0.066303626 0.061169866 -0.12379146 -0.028774427
000060 06 4c e1 3d cc 28 88 bd 41 d9 0d 3e 61 13 70 bd
       0.110008284 -0.066484064 0.13852407 -0.05861223
000070 59 25 cc 3c ed c1 74 bc ea 1b aa 3d fa 30 78 3d
       0.024920153 -0.014938814 0.083061054 0.060593583
000080 10 45 94 3d e5 fa ae bd 7e 0b 96 3d 4e 7e e3 bd
       0.07239735 -0.08543948 0.07326411 -0.11108075
000090 71 ee dc bd 40 c3 32 3c 9b 4e 03 3d c2 43 55 3d
       -0.107876666 0.010910809 0.032057386 0.052066572
0000a0 ed 79 06 3e 93 bd 1c 3c ba 9b e3 3c 61 f1 58 bd
       0.13132448 0.009566682 0.027784217 -0.052964572
0000b0 0f b0 13 3d 18 58 8b 3d 30 28 64 3d a0 00 a6 3d
       0.036056574 0.06803912 0.05570239 0.08105588
0000c0 b6 13 d3 bd 7d 9e 13 3c f4 b8 0a 3e 4c e5 78 bd
       -0.10306494 0.0090099545 0.13547117 -0.06076555
0000d0 f1 d9 0e be 5b 68 3c 3e b0 13 d5 3d f6 5b 61 3d
       -0.13950326 0.18399183 0.10404146 0.05501934
0000e0 29 52 5c bd f5 e4 67 bd 54 47 a8 3c 8c 5b 1a 3d
       -0.05378929 -0.056614835 0.020541824 0.037684962
0000f0 bd bb f3 3d d4 36 dd 3d 7e 58 2a 3e b4 ec 45 bd
       0.119010426 0.10801473 0.1663532 -0.04832144
000100 0b 77 44 3c 95 b8 d2 3d da 1a c8 3d 9b ff 97 3c
       0.011991273 0.102891125 0.097707465 0.0185545
000110 a9 f7 ca 3c 25 48 a1 3d a5 e5 03 3e 3d 1a d4 3d
       0.024776297 0.078750886 0.12880571 0.10356567
000120 41 71 5c 3b 0f 6b ea 3d 9b 25 37 3d a4 6c 4f 3d
       0.003363684 0.11446201 0.044713598 0.050640717
000130 c8 83 dd 3d b6 24 c1 bd ad ff a4 bc 1d ad f1 3d
       0.10816151 -0.0943083 -0.020141447 0.11800597
000140 65 e4 ac bc d6 49 9f 3b f3 87 a7 bd 51 00 38 be
       -0.021105 0.004861097 -0.08180227 -0.1796887
000150 8e 64 a1 3d 80 fd 80 3d 60 43 c1 3d 71 38 bf bd
       0.078805074 0.06298351 0.09436679 -0.09336937
000160 dd 8b 26 bc 31 94 e4 bc 79 32 94 bd d0 01 a6 3b
       -0.010165182 -0.027902694 -0.072361894 0.005066134
000170 d0 7c c5 3d a0 9f 39 3e ec e5 78 3d 39 fc 33 3d
       0.09642947 0.18127298 0.060766146 0.04394171
000180 21 36 99 3d d9 0b 2f bd db 94 5c 3e 25 00 c6 3d
       0.074810274 -0.04273591 0.21541159 0.09667996
000190 8d e2 0a be 2a ae 91 3e 40 06 02 3e b8 a4 22 be
       -0.13562985 0.2845319 0.12697697 -0.15883148
0001a0 28 ee 10 be 8a 71 0c be 3c 54 c6 bd a5 ea 68 be
       -0.1415335 -0.13715187 -0.09684035 -0.2274576
0001b0 1f de b2 3d 76 8e 4e 3d a8 dd bd 3c 0c 64 0f bd
       0.087337725 0.05042883 0.023176983 -0.03500752
0001c0 e3 12 bc 3c 58 ec d7 3b 65 0c aa 3d c3 33 25 be
       0.022958225 0.0065894537 0.08303145 -0.16133027
0001d0 3b 2f 13 3d 7f 0a c6 3d 36 9e d1 3d 71 f0 83 3d
       0.035933714 0.09669971 0.102352545 0.06442345
0001e0 92 46 e8 bd 5a a0 44 3e 29 6e 6a bd cd e0 3e 3d
       -0.11341585 0.19201794 -0.057233963 0.046601105
0001f0 c9 68 c0 bd e0 73 1b be c3 52 97 3c 2c 7b 81 3c
       -0.09394986 -0.15180922 0.018472081 0.015805803
000200 72 53 68 3d 63 51 48 3e 77 2f 1b 3c 4f 27 7c 3c
       0.056720205 0.19562297 0.009471766 0.015390231
000210 d7 11 c0 bc 93 32 54 be d2 ea 76 3d 41 18 ed 3d
       -0.023446007 -0.20722418 0.060282536 0.11576892
000220 4d 36 a6 3c aa 89 bb 3d 5d 8b 97 bd ce f9 2c bc
       0.020289565 0.09157117 -0.07399628 -0.010557605
000230 0e b8 52 bd 67 d1 37 bd 95 27 59 bd a8 be 82 3d
       -0.05144506 -0.044877436 -0.053016264 0.06384021
000240 88 64 60 3d 39 bf 55 3d c0 44 ec 3d 87 b2 ae 3d
       0.054783374 0.052184317 0.115365505 0.08530145
000250 9b b9 22 3d 83 ed c1 bc 13 1f 35 be 8c 87 8d 3d
       0.03972779 -0.023672825 -0.17687635 0.06910619
000260 f8 55 04 3d 50 06 53 bd 6d ba 07 be 23 ed 28 bc
       0.03230855 -0.051519692 -0.1325471 -0.010310444
000270 c7 be 31 3d 1c 28 dd 3d 5f bb f0 3b af 7c e3 bd
       0.04339483 0.10798666 0.007346555 -0.11107766
000280 d4 ec e6 3b 66 36 9d 3c e0 4c 30 3e 76 b0 08 bd
       0.007047275 0.019190978 0.17216825 -0.03337141
000290 42 21 28 be db 1b 74 3d bb 0c 83 3c 3e e9 9c 3d
       -0.16418937 0.059596878 0.015997281 0.07661675
0002a0 83 d3 e2 3c 42 8b 58 bd 85 65 ce bd 82 6c b6 bd
       0.027688747 -0.05286718 -0.10077957 -0.08907415
0002b0 62 e1 de bd b1 28 8a 3d 03 5c 9c be 17 71 c8 3d
       -0.10882832 0.067460425 -0.3053895 0.09787195
0002c0 1f fd 99 bd fe 32 cd 3d 9d 59 0a bd 93 25 a6 3c
       -0.07518982 0.100194916 -0.033776868 0.020281589
0002d0 72 29 ac bb cf fb c5 3c 69 6d e1 3d 4e b1 f9 bb
       -0.005253964 0.024167923 0.110071965 -0.0076200133
0002e0 d8 04 b7 3d 9d 79 2a bd 64 fc 9d 3c f6 f6 8c bd
       0.08936471 -0.041619886 0.019285388 -0.068830416
0002f0 1a bd 8d bd 2d 6c bc 3c a1 69 61 be 24 6d e2 bd
       -0.06920834 0.023000801 -0.2201295 -0.11055973
000300 c7 e5 d3 bd aa e7 23 bd 2b 68 a4 bd 62 83 e1 bd
       -0.10346561 -0.040015854 -0.08027681 -0.110113874
000310 19 95 e4 bd 03 6c 64 be e0 67 00 bd 36 73 96 3d
       -0.111612506 -0.22306828 -0.031349063 0.073461935
000320 c9 df e7 bc 37 cb 16 3e b8 9c 83 3d 13 d0 19 3e
       -0.028304951 0.14725958 0.06426376 0.1502078
000330 26 8e 0b 3d 02 5a 33 3e 01 27 5a 3d ba 8e fa 3d
       0.03407111 0.17514804 0.053259853 0.12234254
000340 d3 a9 c4 bc 8f bb c3 bd 88 48 ad bd a0 1b 42 3d
       -0.02400676 -0.09557258 -0.084611 0.047389627
000350 19 f0 d0 bd ce 5e 49 3c 47 c9 88 3c fc be 30 3e
       -0.10202045 0.01229067 0.016697539 0.17260355
000360 b0 f9 89 bd fa 03 aa 3d 7d 7c 76 bd df f6 23 3d
       -0.06737077 0.0830154 -0.060177315 0.040030356
000370 19 94 16 bd 96 6c 18 3b 94 aa cb bc 19 ac 5a 3d
       -0.03676233 0.0023258082 -0.024861611 0.05338678
000380 cd cb 84 bd 52 c8 63 3d e6 79 a1 bc 94 7e 91 3d
       -0.064841844 0.055610962 -0.019711446 0.07104221
000390 4a 9f 8d 3d 96 32 a5 3d 0f 28 23 be 0a fd 25 3c
       0.069151476 0.08066289 -0.1593325 0.01013113
0003a0 ba d8 86 bd 10 5e b7 3d 46 c7 cc bd 54 a9 dc 3b
       -0.06584306 0.08953488 -0.09998946 0.0067340527
0003b0 5b 9c 37 be ca a5 dd bd d7 7f 26 be 88 d4 ba bd
       -0.17930739 -0.108226374 -0.16259705 -0.09122568
0003c0 fd 5d 12 bd 11 db 24 be b7 fd d2 bd e6 3c 25 3e
       -0.035734165 -0.16099192 -0.103022985 0.16136512
0003d0 32 d1 f8 3d 72 d2 1b bd 2a 49 10 be 17 c4 2f bd
       0.12149276 -0.038042493 -0.1409041 -0.042911615
0003e0 df 1c 03 3e b8 e2 0a 3e 93 37 3a bd e5 de 24 3b
       0.12803982 0.13563049 -0.045463156 0.002515727
0003f0 2d b8 1d 3e 78 ee b5 bc 29 53 db bc 5a d8 59 3d
       0.15402289 -0.022208437 -0.026773052 0.053184845

model.0.bias f4 [128]
000000 35 6d 5d 3d fc 2f c0 3c a8 33 d6 ba 8d 79 a0 bd
       0.054059226 0.02346038 -0.0016342299 -0.07835684
000010 bc c5 94 3d 87 57 95 3d 55 eb 9c 3d d9 49 a9 3c
       0.07264277 0.07292085 0.076620735 0.020665096
000020 66 a0 f2 bd 97 6f 3e 3d 9a 90 94 3d 5f 0e 79 bc
       -0.11847 0.04649314 0.07254143 -0.01520118
000030 b8 40 ea 3d 49 6f 5c 3d 42 2f 91 3d ca c9 92 bc
       0.11438125 0.053817067 0.07089092 -0.017918486
000040 a9 d2 f8 bc 4b 37 00 3d 97 d0 25 bd 6a 6a 3f 3d
       -0.030373888 0.03130273 -0.04048213 0.046732344
000050 f4 03 b0 bc ea a0 26 bb 6d cb 9e bd 4f f9 ae bc
       -0.02148626 -0.0025425502 -0.07753644 -0.021359114
000060 12 3f 5a 3d af bd 5e 3d d7 3d 1a bd f5 78 8e 3c
       0.053282805 0.054380115 -0.03765663 0.017391661
000070 a4 2d 03 3d ca cc 13 3d e5 74 b1 bd 75 b7 70 bd
       0.03202595 0.036083974 -0.08664874 -0.05876871
000080 45 c6 02 bc 9e 2b c3 3d a9 97 eb bd 42 f8 dc bd
       -0.007981841 0.09529804 -0.11503536 -0.10789539
000090 3f 2f ec 3d c7 c1 31 bc 9a 9c f7 3d 9e 6a 61 3c
       0.11532449 -0.010849423 0.12090416 0.01375833
0000a0 a8 87 a5 bd 27 c5 0c bc 30 5f ee 3d a3 ef ab bd
       -0.08082515 -0.008591927 0.11639249 -0.083953165
0000b0 42 94 b6 3d 33 2e c3 3d 19 b2 96 3d 05 56 b9 3d
       0.08914997 0.09530296 0.07358188 0.0904961
0000c0 5f 68 54 3d 66 67 ab 3c 79 73 12 bd cb 06 d2 ba
       0.05185735 0.020923328 -0.035754655 -0.0016023753
0000d0 59 a7 e4 3d d4 67 ed bd 41 cd 93 3d e4 21 70 3c
       0.111647315 -0.11592069 0.072168835 0.014656518
0000e0 07 4f b9 3d fe 09 b7 3d 7a 5e 9e 3d bf 18 0d bd
       0.090482764 0.08937453 0.07732864 -0.034447428
0000f0 62 0b e2 bd 09 29 f1 bd 0f 81 c2 bd 36 1a 02 bd
       -0.11037327 -0.11775405 -0.09497272 -0.031763278
000100 8e da c5 bd c4 ba a7 3c af 30 8c 3d 47 93 17 3d
       -0.096608266 0.020474799 0.06845223 0.03700569
000110 cc 0b d8 bd d8 a0 f9 3c 5a 52 94 bd 03 cb 88 bd
       -0.10549125 0.030472204 -0.0724227 -0.066793464
000120 dc 60 5a bd 93 83 c2 3d 95 4a 75 bc 4c b5 d2 bd
       -0.05331503 0.09497752 -0.014971395 -0.10288486
000130 ca bf f1 bd 1c 7c 7f bd 3c 38 8c 3d 27 e0 06 bd
       -0.11804159 -0.06237422 0.06846663 -0.032928612
000140 3e 5a f1 bd b7 05 03 bc 8c bf 10 bd a9 51 d2 3d
       -0.117847905 -0.007996968 -0.035338923 0.10269482
000150 4e 68 93 bc 8d f9 8d bc 12 36 ef bd 5a 7c a6 3d
       -0.017994072 -0.01733091 -0.11680235 0.08129187
000160 8f 4c 2b 3d d5 7b 9d bd 01 64 fc 3d f1 7a 0e bd
       0.04182106 -0.07689635 0.12323762 -0.034785215
000170 68 65 d5 bd 9b 15 22 3d 84 2f d7 3d 60 04 08 bd
       -0.10419732 0.039571386 0.1050711 -0.033207297
000180 ae 98 af bc 35 51 ba 3d db 44 42 bd 68 ad 06 bd
       -0.021435108 0.0909752 -0.047428947 -0.032880217
000190 37 75 e6 3d f1 f3 bc bd 47 b2 44 3d 24 1c 53 3d
       0.11252826 -0.09226216 0.04802158 0.05154051
0001a0 7e b0 41 3c 71 49 30 bc ee f1 de bc b2 84 0c bc
       0.011821864 -0.010759697 -0.02721497 -0.008576559
0001b0 3f 4b ae bd 33 3c 2f bd 41 81 73 3d eb ea e4 3d
       -0.08510446 -0.04278202 0.059449438 0.111776195
0001c0 02 ed ec bb af 17 bb bb cd 90 77 3d 53 6e e2 bc
       -0.007230402 -0.0057096104 0.060440827 -0.027640497
0001d0 f1 21 6a 3d d4 90 cd 3b 25 1d ef bd 78 e6 bc bd
       0.057161275 0.0062733684 -0.11675481 -0.09223646
0001e0 76 25 d1 3c 15 bb f8 bc af 0c e7 bc 40 27 c2 bd
       0.025530558 -0.030362645 -0.02820429 -0.094801426
0001f0 3d 97 2f bd a8 e6 d4 3d 54 7f a4 3d 1b ee d6 bd
       -0.04286884 0.10395557 0.080320984 -0.10494634

model.1.weight f4 [128]
000000 31 99 86 3f d3 50 77 3f 81 ed 7f 3f 6a 28 62 3f
       1.05155 0.966077 0.9997178 0.88342917
000010 69 1e 6d 3f 7d 54 5b 3f 7e 6e 88 3f 28 8e 7d 3f
       0.9262453 0.85675794 1.065872 0.9904504
000020 0f 28 88 3f 4d 77 72 3f c0 9e 83 3f 03 37 73 3f
       1.0637225 0.9471329 1.0282822 0.95005816
000030 aa ad 84 3f 7e 5a 82 3f 1d da 84 3f 79 64 78 3f
       1.0365498 1.0183866 1.0379063 0.9702831
000040 59 96 86 3f cb 36 7c 3f de 09 8a 3f 7c 3e 6e 3f
       1.0514632 0.9852111 1.0784261 0.93064094
000050 84 8e 89 3f 24 bd 81 3f e9 20 75 3f a6 1d 82 3f
       1.0746617 1.0135846 0.9575334 1.0165298
000060 d3 9c 7c 3f c7 ca 74 3f d3 e0 83 3f c7 73 7a 3f
       0.98676795 0.95621914 1.0302986 0.9783291
000070 36 a0 81 3f 3f 21 71 3f 49 32 7e 3f d9 22 88 3f
       1.0127017 0.94191355 0.9929548 1.0635635
000080 66 a3 7d 3f e8 29 78 3f ad 2e 82 3f 38 e9 84 3f
       0.9907745 0.96938944 1.0170494 1.0383673
000090 5c 39 7c 3f ec 2c 6e 3f bc c6 73 3f 4b fa 6e 3f
       0.98525023 0.93037295 0.9522512 0.93350667
0000a0 50 e2 6d 3f 67 18 85 3f 2f 1c 56 3f 06 c0 80 3f
       0.9292345 1.0398072 0.83636755 1.0058601
0000b0 cf b1 8d 3f fb 9c 71 3f 67 6c 81 3f dd 4c 88 3f
       1.1069888 0.9438016 1.0111207 1.0648457
0000c0 db 85 7d 3f 3b 61 70 3f 83 71 85 3f 59 18 63 3f
       0.9903237 0.9389836 1.0425266 0.88709027
0000d0 7d 59 7d 3f bc d9 7d 3f 08 d7 89 3f 3c 67 89 3f
       0.98964673 0.9916036 1.0768747 1.073463
0000e0 43 63 87 3f 4c 90 82 3f d1 dc 83 3f 00 a2 7a 3f
       1.0577167 1.0200286 1.0301763 0.9790344
0000f0 1b f4 80 3f 21 4e 75 3f de c4 74 3f 84 3d 73 3f
       1.0074495 0.9582234 0.95612895 0.9501574
000100 7f f0 77 3f 40 28 7c 3f 2e 96 88 3f 66 c5 85 3f
       0.9685134 0.98498917 1.0670831 1.0450866
000110 92 b6 80 3f 6c 1c 7d 3f 79 87 71 3f 71 1f 87 3f
       1.0055716 0.98871493 0.9434734 1.055647
000120 ef a7 82 3f b8 1c 81 3f 95 7d 89 3f d2 d6 86 3f
       1.0207499 1.0086889 1.074145 1.0534308
000130 f9 21 71 3f 7b fc 86 3f 97 e6 7b 3f d0 51 76 3f
       0.94192463 1.0545801 0.9839873 0.96218586
000140 b0 32 8b 3f 99 b1 6d 3f 83 0c 6e 3f 8f 1d 80 3f
       1.0874844 0.9284912 0.9298784 1.000902
000150 74 87 8a 3f 00 64 84 3f 6b 2e 7c 3f f5 5b 86 3f
       1.0822587 1.0343018 0.9850833 1.0496813
000160 23 34 5a 3f 57 5e 91 3f e6 a2 83 3f d1 2f 89 3f
       0.85235804 1.1356915 1.0284088 1.0717717
000170 7d 1e 91 3f fc 17 7c 3f fa ce 84 3f b9 9e 7c 3f
       1.1337429 0.984741 1.0375664 0.9867969
000180 28 f5 80 3f 7a 83 7c 3f 6d c1 61 3f 25 c9 88 3f
       1.0074816 0.9863812 0.8818577 1.0686384
000190 94 38 65 3f cb 2f 6d 3f 80 08 81 3f 81 39 5e 3f
       0.89539456 0.9265105 1.0080719 0.86806494
0001a0 26 06 88 3f d3 9d 7d 3f b5 f0 8a 3f 50 d5 86 3f
       1.0626876 0.99068946 1.0854708 1.0533848
0001b0 0e 30 73 3f ac 34 88 3f dd f0 82 3f f3 86 80 3f
       0.949952 1.0641074 1.0229756 1.0041183
0001c0 63 70 77 3f ca 5f 85 3f b6 e0 78 3f 89 8e 7e 3f
       0.96655864 1.0419858 0.9721788 0.9943624
0001d0 f1 5d 5f 3f 76 ac 78 3f 59 4c 79 3f 80 81 80 3f
       0.8725272 0.97138155 0.9738212 1.003952
0001e0 2d 43 56 3f 23 f2 6f 3f a2 ed 80 3f 1f 0e 88 3f
       0.8369625 0.93728846 1.007252 1.062931
0001f0 5a 14 8a 3f 2f 21 81 3f 42 36 69 3f b8 2e 66 3f
       1.0787461 1.0088252 0.91098416 0.8991504

model.1.bias f4 [128]
000000 20 14 cb bd 99 ce a2 bd 21 05 85 bd 4f a7 6d be
       -0.09915948 -0.079495616 -0.06495119 -0.23208354
000010 9e 53 d5 bd 39 cf 63 be fe e4 9d bd e7 85 c7 bd
       -0.10416339 -0.22247018 -0.077096924 -0.09742337
000020 11 17 9c bd 34 c6 bd bd 85 e0 21 be 9d 05 11 be
       -0.07621587 -0.0926632 -0.15808304 -0.14162298
000030 d3 a1 6c be 03 b8 e9 bd cf 53 49 be 47 f1 35 bd
       -0.23108606 -0.114120506 -0.19660877 -0.044419553
000040 c8 f1 d5 bd 42 02 a9 bd 57 c9 ad bc 9a e3 54 be
       -0.10446507 -0.08252384 -0.02121417 -0.20789948
000050 98 49 bd bd 38 76 60 be 2e 99 c7 bd ca e7 b9 bd
       -0.092425525 -0.21920097 -0.097460136 -0.090774134
000060 2b 36 c7 3c 5a 2f 1a be 57 15 8e bd 52 7e ec bd
       0.024317821 -0.15057126 -0.06937664 -0.11547531
000070 37 2f 67 be ff 74 dc bd 44 19 a2 bd b9 ff 1e bd
       -0.22576605 -0.10764503 -0.07914975 -0.038818095
000080 54 62 fa bd 43 d9 a3 bd d7 23 2f be a8 45 eb bc
       -0.12225786 -0.08000424 -0.17103516 -0.028719738
000090 55 d1 3f be 02 06 3f bd 3f 16 92 bd 9f fb 8d bd
       -0.18732198 -0.04663659 -0.07133149 -0.069327585
0000a0 a1 dd 1c be 82 03 1f bd 95 17 44 be 9a a0 1e be
       -0.1531892 -0.038821705 -0.19149621 -0.15490952
0000b0 14 72 81 bb 8c c2 73 be 13 8f f7 bd f0 10 2c be
       -0.0039503668 -0.23804682 -0.12087836 -0.16803336
0000c0 3f 23 bc bd 7c 1c 33 be a0 f7 3e be 27 bc e9 bd
       -0.0918641 -0.17491335 -0.18649149 -0.1141284
0000d0 0d b2 54 be d6 4b 60 be 54 4b b7 bd c6 e3 a5 bd
       -0.20771046 -0.21903929 -0.089499146 -0.08100085
0000e0 59 ec 41 be 68 35 49 bd 20 17 23 be 39 e4 87 bd
       -0.18937816 -0.049123198 -0.1592679 -0.06635327
0000f0 02 50 05 be e9 26 b7 bd 52 7b 38 be 26 f0 4f be
       -0.13018802 -0.089429684 -0.18015793 -0.20306453
000100 ff 85 20 bd 9d 6b 06 be 6a 96 68 3d 2e dc 46 be
       -0.03919029 -0.13126989 0.05678407 -0.1941993
000110 80 3a 59 be 31 a2 2d be f1 8b 53 be 7b 67 8b bd
       -0.21213722 -0.16956402 -0.20658852 -0.06806847
000120 58 96 ac 3d 0e bc 17 be d6 88 cb bd 0d a0 46 bd
       0.08427113 -0.14817831 -0.09938209 -0.04849248
000130 e7 bd 28 be 6d c2 64 be d5 ab 90 bd f8 ed 62 be
       -0.16478692 -0.22339793 -0.07064024 -0.2216109
000140 82 95 62 bd a9 d5 24 be 5e a7 a3 bd 11 30 07 be
       -0.055318363 -0.1609713 -0.07990907 -0.1320193
000150 5a d8 08 3d bd 18 72 be d3 45 ab bd de 37 76 be
       0.033409454 -0.2364225 -0.08362927 -0.24044749
000160 66 ce bd bd 13 d5 35 be 71 a8 99 bd ed 06 98 bd
       -0.09267883 -0.17757063 -0.07502831 -0.07423196
000170 3e 2b 56 be 29 80 df bd 0f 8a 27 be 3e 4d 55 be
       -0.20914933 -0.109131165 -0.16361259 -0.20830247
000180 65 33 76 bd dc 4a b0 bd 35 b5 14 be bf d5 49 be
       -0.060107607 -0.08608028 -0.1452225 -0.19710444
000190 ad 6b 4a be 47 d1 08 bd 54 70 ea bd 3f 96 08 be
       -0.19767638 -0.033402707 -0.11447206 -0.13338564
0001a0 6a 48 83 be 65 d3 f8 bd dc d3 31 3c de 1a 79 bd
       -0.25641185 -0.12149695 0.010853734 -0.06081664
0001b0 41 db 21 be a6 5a 57 be 53 3f da 3c 62 da 78 be
       -0.15806295 -0.21030673 0.026641523 -0.24302056
0001c0 a5 c1 f9 bd 53 aa 04 be fb 13 24 be 16 38 97 bd
       -0.12195138 -0.12955599 -0.16023247 -0.073837444
0001d0 4e 78 5b be b4 61 4d be 9c 09 68 be b6 38 9f bd
       -0.21432611 -0.20056802 -0.22659916 -0.07774489
0001e0 09 69 84 bd ce e1 dc bd 78 f1 d0 bd 21 5e 1a be
       -0.06465346 -0.10785256 -0.102023065 -0.1507497
0001f0 d3 f8 24 be 8c d6 e5 bd 67 54 1a be 12 d2 3a be
       -0.16110544 -0.11222562 -0.1507126 -0.18244198

model.1.running_mean f4 [128]
000000 fd dd 8a 3d a9 79 8d 3c 36 46 aa bc 4c ac 95 bd
       0.06780622 0.017269926 -0.020785432 -0.07308254
000010 0b da c8 3d bd 71 86 3d d5 6b cd 3d 17 13 a6 ba
       0.098072134 0.065646626 0.10030333 -0.0012670484
000020 f7 71 d4 bd 12 e9 95 3d 19 f5 b0 3d e0 7e 0a 3c
       -0.103732996 0.07319845 0.08640499 0.008453101
000030 88 ae be 3d 1d f9 50 3d e2 0e 27 3d 80 63 0b bc
       0.09310633 0.051018823 0.040785678 -0.008507609
000040 53 97 10 bd 24 0c 82 3d 07 ba 67 bd 17 44 81 3d
       -0.035300564 0.06349972 -0.056573894 0.06311815
000050 2f f5 66 bd 62 57 93 3a ef ee a4 bd f6 65 8d bc
       -0.05638617 0.0011241252 -0.080533855 -0.017260533
000060 5b ac 8f 3d 29 9e 91 3d b8 7a ac bc 57 01 a1 bc
       0.07015296 0.07110245 -0.02105461 -0.01965396
000070 f4 c3 c4 3c d7 50 a2 3d dc 48 da bd 0a 87 6e bd
       0.024019219 0.07925575 -0.10658428 -0.058234252
000080 3d d1 dc bc f0 8d 76 3d ee 95 93 bd 7c 45 ab bd
       -0.026955241 0.060193956 -0.07206331 -0.083628625
000090 d7 2e bd 3d bd 2a 39 bc dc ea ca 3d 20 48 3d bc
       0.092374496 -0.0113016935 0.09908077 -0.0115528405
0000a0 f8 33 8a bd ab 55 02 3c f4 c6 d2 3d 5e 8e 96 bd
       -0.067481935 0.007954995 0.102918535 -0.07351373
0000b0 95 ad 0f 3e db b6 92 3d 82 bd 92 3d 43 f1 9e 3d
       0.1403106 0.07163783 0.07165052 0.07760861
0000c0 9a 7c ae 3d d0 ed 24 3d 9e a3 1d bd 08 72 2e 3c
       0.085198596 0.04026586 -0.038486116 0.010647304
0000d0 f6 eb 95 3d b8 7e f2 bd cf 0b 7d 3d dc b5 4f 3d
       0.073203966 -0.11840576 0.06177884 0.050710544
0000e0 76 e8 fc 3d b8 a0 f2 3d 32 6d c3 3d d8 d1 7d bb
       0.12349026 0.11847061 0.09542312 -0.0038729813
0000f0 ca ff c3 bd af 2d f1 bd d4 cd 04 be a9 d2 30 bd
       -0.09570272 -0.117762916 -0.12969142 -0.04316965
000100 c1 7a d2 bd e2 f1 65 3d 2e c1 a3 3d 0c 05 01 3c
       -0.1027732 0.05613888 0.079958305 0.007874738
000110 de 98 e0 bd 34 c7 15 3d a2 4e 9c bd 9b 83 8f bd
       -0.10966657 0.036566928 -0.076321855 -0.070075236
000120 f9 7e aa bd 08 29 a7 3d 51 26 43 3c 43 92 97 bd
       -0.08324999 0.08162123 0.011910991 -0.07400944
000130 f4 ce fb bd 0e 8c f3 bd 98 54 ce 3d 78 7d 0e bc
       -0.122953326 -0.11891948 0.10074729 -0.008696906
000140 0a 50 16 be 56 b9 6a 3b a6 b2 20 bd f8 ff 0f 3e
       -0.1467897 0.0035816035 -0.039232872 0.14062488
000150 d6 ed 1a bc 7e e4 60 bc 42 cb db bd 6e 39 b6 3d
       -0.009456119 -0.013726352 -0.10732128 0.088976726
000160 3e d2 48 3c d8 17 a9 bd f6 8c 00 3e 56 41 f3 bc
       0.012257157 -0.08256501 0.12553772 -0.02969424
000170 65 d2 c5 bd f1 4a c2 3c 8c 65 fa 3d 61 3d 8b bc
       -0.0965927 0.023717375 0.122264 -0.016997041
000180 2e 94 13 bd d5 0e ae 3d 5c d3 7c bd c1 c9 58 bd
       -0.036029987 0.08498923 -0.061725006 -0.052926783
000190 5e b1 de 3d 8d 37 c8 bd 4c 9a a7 3d e2 c7 a5 3d
       0.10873674 -0.097762205 0.08183727 0.08094765
0001a0 92 a1 2d 3d fd 00 2f bd 62 18 dc bc 6b 8a 42 bd
       0.042390414 -0.042725552 -0.026867095 -0.047495287
0001b0 3c 3c f8 bd 4c ab 9b bd 33 64 81 3d c5 c0 e2 3d
       -0.12120864 -0.07601032 0.063179396 0.11071924
0001c0 23 78 0c bc 84 a3 d7 bc 5e 0b 57 3d e1 dd 94 bd
       -0.008573565 -0.026323088 0.052501075 -0.072688825
0001d0 fe 0e f0 3c e3 8e 33 bd 9f 96 8f bd a7 3b 59 bd
       0.029304024 -0.04383744 -0.070111506 -0.053035405
0001e0 9d 0e 91 bc 53 7f f9 bc 38 39 3e bd 54 7a a2 bd
       -0.017707163 -0.03045622 -0.046441287 -0.079334885
0001f0 7f 90 b0 bc 67 7a f2 3d 14 2b 6e 3d 41 30 02 be
       -0.021553276 0.11839753 0.05814655 -0.1271372

model.1.running_var f4 [128]
000000 24 9f 68 3f 57 7a aa 3f 21 e9 46 3f 4c 56 4a 3f
       0.9086783 1.3318585 0.77699476 0.7903793
000010 50 cb f3 3e 2e 30 7f 3f 26 89 5c 3f 9a 08 24 3f
       0.47616053 0.9968289 0.8614677 0.64075625
000020 ad 02 3b 3f fe 9f 00 3f dc d3 44 3f 48 62 4c 3f
       0.7305096 0.5024413 0.7688577 0.79837465
000030 c5 5c 07 3f 79 52 80 3f fb de 67 3f cd c8 57 3f
       0.5287593 1.0025169 0.90574616 0.8429077
000040 60 1b 5b 3f f0 b4 21 3f 58 ec 37 3f f9 c4 89 3f
       0.85588646 0.63166714 0.71845007 1.0763236
000050 8f 0e 5d 3f bc b9 01 3f 72 a3 51 3f d2 ab 50 3f
       0.8635034 0.50674033 0.8189002 0.81512177
000060 80 f7 27 3f b6 c3 60 3f cc 53 35 3f b8 f4 74 3f
       0.6561203 0.8779863 0.7083099 0.9568591
000070 d9 a9 75 3f a4 a3 41 3f 11 ca 09 3f 0f eb 43 3f
       0.9596229 0.7564032 0.53823954 0.76530546
000080 dd 26 52 3f 0f 1b 44 3f 21 21 77 3f e7 6f 3b 3f
       0.8209055 0.7660379 0.96534926 0.73217624
000090 75 3b 46 3f 1f 8d 7a 3f 9e 67 48 3f 30 99 34 3f
       0.77434474 0.97871584 0.7828311 0.70546246
0000a0 f2 81 96 3f 4a aa 1d 3f 55 1f 88 3f f3 05 36 3f
       1.1758406 0.61587965 1.0634562 0.7110283
0000b0 eb f7 8d 3f fe f4 26 3f 73 1f 03 3f 1d fe 13 3f
       1.1091284 0.6521758 0.5121986 0.5780962
0000c0 c5 76 3a 3f e8 df 4d 3f 3c 54 65 3f 2e 63 56 3f
       0.7283748 0.8041978 0.89581656 0.83745086
0000d0 93 6c 38 3f 6c 36 06 3f 46 8b 29 3f e2 d3 82 3f
       0.7204067 0.5242679 0.6622814 1.0220912
0000e0 1a 49 0b 3f fe 0a 4f 3f 79 6d 1e 3f 02 cf 2b 3f
       0.5440842 0.8087615 0.6188579 0.67112744
0000f0 03 22 2a 3f d6 00 76 3f ed c2 94 3f f6 ab 92 3f
       0.6645815 0.96095026 1.1621987 1.1458728
000100 fc 92 86 3f 90 d9 92 3f 96 60 2c 3f 58 27 53 3f
       1.0513606 1.1472645 0.6733488 0.8248191
000110 de e3 ed 3e 5e 7e 5d 3f c5 d4 6b 3f 78 40 87 3f
       0.4646291 0.86520946 0.92121536 1.0566549
000120 0d d0 2d 3f 02 44 3d 3f 97 dd 4c 3f 35 e7 7c 3f
       0.67895585 0.73931897 0.8002562 0.98790294
000130 f5 f2 2d 3f 70 23 82 3f b2 ad 4b 3f 80 69 72 3f
       0.6794885 1.0167065 0.79561913 0.9469223
000140 92 70 5a 3f 73 60 2a 3f 15 29 01 3f 46 f2 a6 3f
       0.8532802 0.6655342 0.5045331 1.3042686
000150 71 b7 29 3f 22 0b 10 3f f9 de 93 3f 2a d9 49 3f
       0.66295534 0.5626699 1.1552421 0.7884699
000160 00 67 87 3f 85 9d f8 3e 8d 9d 38 3f d5 bd 11 3f
       1.0578308 0.48557678 0.72115403 0.56930286
000170 29 b4 07 3f 4a ba 4a 3f d0 36 1e 3f e5 75 6e 3f
       0.5300928 0.79190505 0.6180239 0.9314864
000180 44 23 b2 3f 53 a1 33 3f 98 d4 69 3f 1e 3f 1d 3f
       1.3917012 0.70168036 0.9134002 0.61424434
000190 a9 2d 22 3f b5 94 79 3f 2f ea 46 3f a4 74 bf 3f
       0.6335092 0.97492534 0.77701086 1.4957471
0001a0 fc 5e 2f 3f 89 6c 46 3f 97 5a b6 3f c5 fd 2f 3f
       0.6850431 0.7750936 1.4246396 0.68746597
0001b0 2b 64 86 3f 08 7a 29 3f 56 14 6c 3f b0 fd 89 3f
       1.0499319 0.6620183 0.9221853 1.0780544
0001c0 51 bb c0 3e 3d 5a 35 3f 1d 6f 97 3f 58 ff 44 3f
       0.3764291 0.7084082 1.1830784 0.76952124
0001d0 6f 02 64 3f ea 70 7b 3f 40 ff 1a 3f 3b d6 64 3f
       0.89066213 0.9821917 0.6054573 0.8938939
0001e0 44 63 57 3f d9 a6 35 3f e1 2e 0c 3f 66 cb 5c 3f
       0.8413584 0.70957714 0.5475903 0.8624786
0001f0 6c f1 04 3f 3d 1b 39 3f 3e 98 44 3f 16 43 96 3f
       0.5193088 0.7230719 0.76794803 1.1739223

model.4.weight f4 [64, 128]
000000 0a c1 6f bb bd 6b 60 bd 16 d5 2c be 84 ca f1 bd
       -0.0036583566 -0.054790247 -0.16878161 -0.11806205
000010 82 9f 95 3d 0c 87 a3 bd 4a 64 c6 bd b6 2b ec 3b
       0.07305814 -0.079847425 -0.09687097 0.007207359
000020 d5 d8 4c 3d af be d0 3c 5d 35 dd bd 8f 29 68 bd
       0.050011475 0.02548155 -0.10801194 -0.05668026
000030 e4 da fe 3d 0f f2 49 3d 23 d9 9a 3b 6b 44 7e bd
       0.12444094 0.04930311 0.0047255917 -0.062076967
000040 98 6f dc bd c7 00 28 3d e6 6a a3 bd 86 e4 e8 bb
       -0.10763472 0.041016366 -0.07979374 -0.0071073202
000050 26 5a b7 bb 07 7b c1 bd 4b 8f 83 3b 9c 8f 9b bd
       -0.0055954633 -0.09447294 0.0040148846 -0.07595751
000060 50 b2 27 bd 57 bc 0e 3e ac 2a a6 bd ca 0c 89 bc
       -0.040941536 0.13939033 -0.08113608 -0.016729731
000070 b4 cd 6b bd fc df 91 3c 7f 45 c1 bd da 24 c3 bd
       -0.05756922 0.017807 -0.094370835 -0.09528513
000080 70 60 de bd 71 5c 98 3d c6 af bc bc d2 8a 11 bd
       -0.10858238 0.07439507 -0.023033034 -0.03553278
000090 78 2e af bc 01 bf b2 bd 51 62 51 3c 02 dd 45 3c
       -0.021384463 -0.08727837 0.012779788 0.012076618
0000a0 0f 48 94 3d 34 e2 e9 bd ac 93 66 3c 0a de 94 3d
       0.072403066 -0.11420098 0.014073294 0.07268913
0000b0 f5 71 a5 bd 6d f5 0a bd 54 07 22 bb 9d 36 0f 3d
       -0.08078376 -0.033925463 -0.0024723606 0.034964193
0000c0 ad 56 06 3d cf 49 b7 bd f3 1d e1 bd 9f 52 8b 3a
       0.032797504 -0.08949625 -0.109920405 0.0010629481
0000d0 49 96 37 bd 92 e5 af 3c 8b bd 03 be 5a c2 4c be
       -0.044821057 0.021471772 -0.12865274 -0.19996014
0000e0 60 21 5c be 4a 3b 8a bb 81 08 0b be da b5 0a bd
       -0.21497107 -0.0042184936 -0.13577463 -0.033864833
0000f0 60 0f 3f bc 19 94 fb bd 50 b7 11 3d 8c c4 94 bd
       -0.0116613805 -0.12284107 0.03557521 -0.07264051
000100 39 7e e1 3c 54 5e 64 bb 86 cc 00 be 97 f3 28 be
       0.027526008 -0.0034846263 -0.1257802 -0.16499172
000110 a7 10 8c bc 47 c3 c1 bc 6c e4 a8 3d 4f c6 a2 bd
       -0.017097784 -0.023652686 0.08246693 -0.079479806
000120 8a ee 42 be 60 e6 c8 3d 10 d7 5f 3d 61 c5 9a bd
       -0.19036308 0.098095655 0.05464846 -0.07557178
000130 55 1b 1b 3d 97 92 d3 bd f4 14 07 bd 3e f4 50 bc
       0.037867863 -0.10330694 -0.032978967 -0.012753544
000140 db 74 1e be 14 69 a7 ba 3c f8 f1 ba fd 06 9b bd
       -0.15474264 -0.0012772405 -0.001846082 -0.07569692
000150 12 68 11 be 56 55 c2 bd 55 b2 26 bc 8f 72 d1 3d
       -0.14199856 -0.09488933 -0.010174354 0.102269284
000160 54 af 5c 3d ec 41 06 3e 16 cc 04 be a4 8f 55 3d
       0.053878143 0.13111085 -0.12968478 0.05213894
000170 c6 11 79 bd 47 27 13 3d c2 6a e4 bd 7e c0 dc 3c
       -0.060807966 0.03592613 -0.11153175 0.026947256
000180 38 50 2c 3d 57 13 07 be 06 73 5f 3c 40 0c 68 bd
       0.04206869 -0.13190971 0.013638264 -0.056652308
000190 ae 69 c3 3d 48 d6 6d 3c dd 08 88 3d 87 68 42 3d
       0.09541641 0.014516421 0.066423155 0.047462966
0001a0 50 5a f4 bd 2d da 3f bd bd 2b 62 be c3 10 fa bc
       -0.11931288 -0.046838928 -0.22086997 -0.03052557
0001b0 7f b4 90 3d 2a e5 00 be ab d7 0d bd 2c b3 a3 3c
       0.07065677 -0.12587419 -0.034629505 0.019982897
0001c0 13 86 2f 3e 38 1e 76 bc 47 35 25 bc d3 b9 22 3d
       0.17140989 -0.015021853 -0.010083503 0.039727997
0001d0 2a b6 84 bd 9f 50 ee bc 14 81 c0 3b 25 b1 09 be
       -0.064800575 -0.029091178 0.0058747623 -0.13446482
0001e0 01 5d 66 bd 19 6d 1e 3d cc b8 51 3b 89 81 58 3c
       -0.05624104 0.038678262 0.0032001017 0.013214477
0001f0 0f a9 ae bc a5 c5 5f bd e4 22 ae bd fe 71 78 bb
       -0.021320848 -0.054631848 -0.085027486 -0.0037909742
000200 ba d2 55 3e f4 8e f5 bd 18 84 36 bd d0 d2 a7 3d
       0.20881167 -0.11990157 -0.04455957 0.08194506
000210 1f f3 86 3c 01 dd 6d 3d 20 6a 48 3c db da 03 bd
       0.016473351 0.058072094 0.012232333 -0.03219114
000220 a6 7c ee 3d db 7a ab 3d 03 8e 8f bd 03 a5 66 bd
       0.116448686 0.08373042 -0.070095085 -0.05630971
000230 73 82 15 3e f0 0c a3 3d 49 2c 42 3d f2 df 54 3d
       0.14600544 0.07961452 0.047405515 0.051971383
000240 93 61 31 bd 82 0e 5d bd 10 7e 9d bc ae 4f b6 bc
       -0.043305945 -0.053968914 -0.01922515 -0.022254791
000250 55 4a 2c 3e 6f 74 2f 3d 93 a3 31 3d f5 de 13 3d
       0.1682523 0.04283565 0.043368887 0.0361013
000260 cc 25 97 3d 81 91 e7 bc 16 ca e7 3c 19 55 7c 3d
       0.07380256 -0.028267624 0.028294604 0.061604593
000270 ff b1 8c 3d 86 ec b4 3d 91 1f b2 3c fe a2 13 bc
       0.068698876 0.08834176 0.021743568 -0.009011028
000280 60 d4 b3 3d 0b 99 0a be 2a 63 e0 bd 07 84 c1 3d
       0.08780742 -0.13534944 -0.10956414 0.0944901
000290 4e c8 df bd 8e 93 c0 3b a0 b6 5d bd be ea 5e bd
       -0.10926877 0.005876965 -0.054129243 -0.054423086
0002a0 00 23 f2 bd a4 b4 e7 3d 2c 5a a5 3c eb 63 0d bc
       -0.11823082 0.11313751 0.020184599 -0.008629779
0002b0 b7 bf 74 3d 81 fa 95 bd a5 d9 c6 ba 5c 3a cf 3d
       0.059753146 -0.073231705 -0.0015171064 0.10118553
0002c0 80 ac 16 be b0 68 20 bd 27 be 27 3d 7c 69 8b bd
       -0.14714241 -0.039162338 0.040952828 -0.06807229
0002d0 f4 51 f3 bc f3 12 ec bb 86 b9 b2 3d bf 0f 91 3c
       -0.029702164 -0.0072044074 0.08726792 0.017707704
0002e0 cf 5b c4 bb 26 3e 13 be 38 8f a0 3d 49 99 c7 3d
       -0.0059923897 -0.14379176 0.07839817 0.09746034
0002f0 02 3f aa 3d e9 10 87 3c 1a ed 9f 3d 34 15 b6 3b
       0.08312799 0.016487556 0.078088954 0.005556727
000300 ac 3e f2 3d c4 ed 0c 3d e1 25 16 bd 07 8f 7c bd
       0.1182836 0.03440644 -0.036657218 -0.06165984
000310 63 2d 6d be 48 2b 5c bd 3a 69 93 3c 1e cd e4 3d
       -0.23161845 -0.053752214 0.017994512 0.111719355
000320 6a 5e 83 bd 26 a5 c6 bd ce de 55 bd 32 1c 1b 3e
       -0.064144924 -0.09699468 -0.052214436 0.15147474
000330 ef 49 aa 3d 81 ac 84 bd a2 22 84 bd 79 15 a9 bd
       0.08314883 -0.06478215 -0.06451918 -0.08256049
000340 4b c0 69 be 94 85 53 3b 53 02 b7 3c 2a 4a a2 bc
       -0.2282726 0.0032275664 0.022339975 -0.019810755
000350 ee 17 ea bc e6 a1 ba bc 09 24 26 3b 62 bb 1a 3e
       -0.028575864 -0.022782277 0.0025351068 0.15110543
000360 25 92 15 3c 46 39 d1 3c 2f e5 97 3d c3 d6 b5 bd
       0.009129082 0.025540005 0.0741676 -0.08878853
000370 7d 9b 3c bd 73 00 9e 3d 83 03 51 bd 89 c1 4f 3d
       -0.046046723 0.077149294 -0.05102874 0.05072168
000380 f6 ce d4 bd 19 65 f0 bd 16 8c 6b bc 20 37 17 3c
       -0.10391037 -0.11738033 -0.014376661 0.009229451
000390 87 0c 0f 3e c6 90 24 bd 88 2a 50 3d 5d 90 0b 3e
       0.13969623 -0.04017713 0.05082181 0.13629289
0003a0 42 61 2c be e8 1e 16 3d 6c fe e8 3d 01 91 8b bd
       -0.16833976 0.03665057 0.11376652 -0.06814767
0003b0 2a a2 97 bd f3 29 ef 3d f2 92 92 bd 59 86 c1 3d
       -0.07403977 0.11677923 -0.07156934 0.09449453
0003c0 d1 bd bb 3d 3b e4 9e bd d1 ee ac bd 47 44 15 3b
       0.09167064 -0.07758375 -0.08443988 0.0022776292
0003d0 dd da e2 3d c3 0f 39 bc 46 01 4c 3e 34 2b 9f 3d
       0.11076901 -0.011295262 0.19922361 0.07771912
0003e0 bf 41 f9 bc d9 0b 39 3d fc e1 6b 3d 3a 0c b9 3d
       -0.030426858 0.045177314 0.057588562 0.09035535
0003f0 99 0a 2d be 34 5d ef 3d 45 5f 7f 3d 88 6c 6c bd
       -0.16898574 0.11687699 0.062346715 -0.05772069

model.4.bias f4 [64]
000000 ee d8 12 3d 66 7b 9c bd b8 d2 7e 3d 2d 86 dc 3c
       0.03585141 -0.07640724 0.062212676 0.026919449
000010 a3 5b 51 bd b5 3f 12 3b 6b c3 d2 bb b3 b8 3b 3d
       -0.051112782 0.0022315804 -0.006431987 0.04583044
000020 9c 84 0a bd 7c c1 72 3d 47 c4 93 bd b5 56 b2 ba
       -0.033817872 0.059266552 -0.07215171 -0.0013606163
000030 c1 68 5f bd 46 3b ae bd 21 17 9a 3b a4 03 d7 3c
       -0.05454326 -0.08507399 0.004702464 0.026246853
000040 fe 0e 9a bd 81 e5 a6 bd 90 fc 40 3d a7 da 73 3d
       -0.07522391 -0.08149243 0.047115862 0.059534695
000050 51 20 b0 bd dd 40 34 bd ba d5 c4 bc 81 d1 04 3d
       -0.08599914 -0.04400717 -0.024027694 0.03242636
000060 49 45 13 bc a9 77 00 3d ee dc 94 3d 0f 03 a2 bd
       -0.008988687 0.031364117 0.072687015 -0.0791074
000070 bd 60 3b bd f1 b2 84 3c 06 fb 6f ba 5a 8c 5d 3d
       -0.045746554 0.016198607 -0.0009154532 0.054088928
000080 d3 21 9f 3d 51 30 d0 bc a1 26 fb 3c cb 39 90 3d
       0.07770123 -0.025413664 0.030658068 0.07042273
000090 09 6a 5a bc b2 4c 1d 3d 15 76 2b 3d 0f 39 01 3d
       -0.013330945 0.03840322 0.04186066 0.031548556
0000a0 18 6c 4e 3d 09 5c 97 3d dc 41 78 bd 30 6d 58 3d
       0.050396055 0.07390601 -0.060609683 0.052838504
0000b0 7b a5 2e bd 68 22 86 bd cc 82 2e 3d d7 73 08 3d
       -0.042638283 -0.06549531 0.042605206 0.0333136
0000c0 bd 9a 90 bd e1 5c 67 3c ce fd 09 bd f5 a2 79 3c
       -0.07060764 0.014121265 -0.033689313 0.015236606
0000d0 d2 6a 38 3c 7f 29 70 3d 3f 95 aa bc be 81 74 bd
       0.011255937 0.058633324 -0.02082312 -0.059694044
0000e0 e3 68 a6 3d e6 c8 86 3d ef 2f ba 3c 4e ed 62 bd
       0.08125474 0.06581287 0.022727935 -0.055402093
0000f0 14 24 ad bc 83 61 bb 3c fa d5 95 3d 6b 30 96 bd
       -0.021135367 0.022873646 0.073162034 -0.07333454

model.5.weight f4 [64]
000000 bc 30 68 3f 6a 07 4b 3f e3 9e 58 3f 70 a5 6a 3f
       0.9069936 0.7930819 0.8461744 0.9165869
000010 8b c6 56 3f 3c 44 61 3f e6 e5 4c 3f 28 f5 54 3f
       0.838967 0.8799474 0.800383 0.8318658
000020 13 a3 58 3f dd e0 66 3f 44 4e 61 3f 07 29 65 3f
       0.8462383 0.90186864 0.8801005 0.8951573
000030 cc 4f 63 3f a5 23 52 3f 9e 2c 38 3f 5c 3a 4f 3f
       0.88793635 0.8208564 0.7194308 0.80948424
000040 79 68 6a 3f 4b fc 51 3f a9 1d 52 3f 29 63 3b 3f
       0.9156566 0.82025594 0.8207651 0.7319818
000050 4e 58 5d 3f 0f 25 5c 3f 82 cc 4f 3f bf 27 39 3f
       0.8646287 0.85994047 0.8117143 0.7232627
000060 5f cb 64 3f eb 22 26 3f 16 74 53 3f 32 b3 5e 3f
       0.8937282 0.6489703 0.8259901 0.8699218
000070 79 1c 49 3f 86 2e 3d 3f 4d 73 48 3f d7 a7 69 3f
       0.7855907 0.73899114 0.78300935 0.9127173
000080 35 c4 4b 3f 41 8d 4d 3f 03 02 56 3f b3 1a 3a 3f
       0.79596263 0.8029366 0.8359682 0.7269699
000090 16 7f 60 3f 07 97 60 3f 08 1e 50 3f 74 24 5a 3f
       0.8769392 0.8773045 0.81295824 0.85211873
0000a0 58 a5 53 3f 37 af 4b 3f de 20 4f 3f c1 c7 65 3f
       0.8267417 0.7956423 0.80909526 0.89757925
0000b0 9e c1 6d 3f 60 dd 62 3f 9e ca 5c 3f cb 59 3a 3f
       0.9287356 0.8861904 0.8624667 0.72793263
0000c0 95 75 61 3f 8b 4e 4c 3f e5 ae 5b 3f bf 11 43 3f
       0.8807004 0.7980735 0.8581374 0.76198953
0000d0 40 06 61 3f 48 29 57 3f 58 1f 58 3f 20 2a 5c 3f
       0.8790016 0.84047365 0.84422827 0.8600178
0000e0 e7 b6 57 3f 9b c0 68 3f bf 0d 5f 3f 8d 38 51 3f
       0.8426346 0.9091889 0.8713035 0.81726915
0000f0 e8 40 58 3f 5e 77 5b 3f 82 cb 60 3f d3 88 4d 3f
       0.8447404 0.85729015 0.8781053 0.802869

model.5.bias f4 [64]
000000 ee 4b 2e be 50 9d 9b be 78 50 06 be 26 9a 1d be
       -0.17021152 -0.30393457 -0.13116634 -0.15390834
000010 3b 4f 26 be 2e 3d 34 be 69 db 2c be 66 8a 5e be
       -0.16241162 -0.17601463 -0.16880573 -0.21732482
000020 ca 5d 54 be 59 7c da bd 5c cb da bd 2d 26 0d be
       -0.20738903 -0.10668249 -0.10683319 -0.13784094
000030 9a 9b 0b be 3c 79 26 be 04 a0 45 be e0 12 40 be
       -0.13633576 -0.16257185 -0.19299322 -0.187572
000040 9d 93 db bd fd c0 68 be ef 1a 8e be d1 6d 89 be
       -0.107215144 -0.22729869 -0.27754924 -0.26841596
000050 d1 5c c4 bd 32 9d 22 be fa aa 5e be e2 83 46 be
       -0.09588016 -0.15880278 -0.2174491 -0.19386247
000060 6c d5 3e be a0 7d 83 be 7e 19 0f be 12 7a 4d be
       -0.18636101 -0.25681782 -0.13974568 -0.20066097
000070 01 9e 2d be a7 cf 72 be 2f ec 2c be 00 e4 ca bd
       -0.16954805 -0.23712026 -0.16886972 -0.09906769
000080 1e d6 87 be 5c d8 63 be 8b ba 7f be d9 fb 6a be
       -0.26530546 -0.22250503 -0.24973504 -0.22947635
000090 8b 55 3f be a3 3a e8 bd d3 f9 65 be b7 14 f7 bd
       -0.18684976 -0.11339309 -0.22458582 -0.12064498
0000a0 c1 32 68 be de 69 78 be da 29 32 be 53 05 69 be
       -0.22675611 -0.24259135 -0.17398778 -0.22755937
0000b0 9e cc 49 be e4 bd 3b be c2 b6 27 be e4 10 6b be
       -0.19706962 -0.18334156 -0.1637831 -0.22955662
0000c0 d2 11 14 be c5 57 3b be a0 22 65 be f1 eb 85 be
       -0.14459923 -0.182952 -0.2237649 -0.26156572
0000d0 01 b6 08 be 6d 57 42 be b9 b7 08 be 8e a4 e7 bd
       -0.13350679 -0.18978663 -0.13351335 -0.11310683
0000e0 13 c4 6d be ed 0d 6c bd 07 14 f9 bd 7b ea 67 be
       -0.23219328 -0.05763047 -0.12162023 -0.22648041
0000f0 b5 45 f8 bd 1d 7a 17 be 2a 89 16 be 39 dc 84 be
       -0.121226706 -0.14792676 -0.14700761 -0.25949267

model.5.running_mean f4 [64]
000000 87 ed b0 bf 06 b0 9c 3e 39 c9 17 bf dd b5 97 bf
       -1.3822488 0.30603045 -0.59291416 -1.1852375
000010 9b ac 57 bf 62 d0 cb bf b4 5e 47 bf 96 0c 65 bf
       -0.8424775 -1.5922968 -0.7787888 -0.8947233
000020 b6 13 02 bf f4 c1 30 bf 28 09 41 bf 84 87 6d be
       -0.50811327 -0.6904595 -0.75404596 -0.23196226
000030 81 71 90 bf cd 75 3d bf 81 96 27 3c 0e 81 9e be
       -1.1284639 -0.74007875 0.010228754 -0.30957836
000040 06 57 c6 bf 93 84 aa be 1a 7f 15 bf aa 32 9e bd
       -1.5495307 -0.3330427 -0.58397067 -0.07724507
000050 f1 d2 56 bf ac 9e c0 bf 1c 4a 2d 3d af 14 81 bf
       -0.8391562 -1.5048423 0.042307004 -1.0084437
000060 89 01 45 bf f4 cd 19 bf 4a 9c 40 bf d2 5b 4f 3f
       -0.7695547 -0.60079885 -0.7523848 0.8099948
000070 8b 7a fe be 3c 32 e4 be 3a ec 1b be 51 d6 1c bf
       -0.49702868 -0.44569576 -0.15226832 -0.6126452
000080 c5 02 b9 be 3a 6d 75 3f c2 ff 80 3e f7 d1 1e bf
       -0.36134925 0.9586979 0.25195128 -0.6203913
000090 ef 34 0d bf de 41 28 bf 66 f2 9a bf 06 8e 37 bf
       -0.55158895 -0.65725505 -1.2105224 -0.71701086
0000a0 ba 3c 88 be 43 93 b2 bf f3 25 a5 3d 55 26 09 bf
       -0.2660883 -1.3951191 0.08063879 -0.53574115
0000b0 4d 92 c1 bf e1 8f 95 bf 4e ec 0f bf a4 a1 f0 bc
       -1.5122772 -1.1684533 -0.5621995 -0.029373951
0000c0 e8 46 2c bf ee 69 90 bd d2 96 e2 bd 37 8b 08 bf
       -0.67295694 -0.070514545 -0.11063923 -0.53337425
0000d0 37 1d 63 bf 96 b1 7d bf b2 f3 ce be 13 c3 4a bf
       -0.88716453 -0.990991 -0.404203 -0.7920391
0000e0 66 41 d0 be 60 53 51 bf 57 f2 8e be 72 d1 8f bf
       -0.40674895 -0.81767845 -0.27919266 -1.1235793
0000f0 10 33 4f bf 5d 02 04 bb fa 13 60 be f9 10 d0 3e
       -0.8093729 -0.002014301 -0.2188262 0.4063795

model.5.running_var f4 [64]
000000 75 b8 86 3f 9b 9b 22 3f 78 ce 44 3f a5 5e 8a 3f
       1.0525042 0.63518685 0.76877546 1.0810133
000010 23 d8 3c 3f 1f 27 b6 3f 8e f9 6c 3f 74 58 5e 3f
       0.737673 1.4230689 0.9256829 0.8685372
000020 a3 4d f9 3e ce 9d 89 3f 86 2d 72 3f 84 1d 37 3f
       0.48692045 1.0751283 0.94600713 0.7152941
000030 32 4e 67 3f 22 4c 8e 3f 90 71 c1 3e bd cb 44 3f
       0.9035369 1.1116984 0.37781954 0.7687338
000040 cd d4 60 3f 6c 08 17 3f e6 89 27 3f 5c df 77 3f
       0.8782471 0.58997226 0.6544479 0.96825194
000050 47 ec 6e 3f a1 51 8e 3f 53 60 36 3f 67 4b 5d 3f
       0.9332928 1.1118661 0.7124073 0.8644318
000060 5c 6e 4b 3f 38 3e 4a 3f 57 09 33 3f 0b 89 3c 3f
       0.7946527 0.7900119 0.69936126 0.7364661
000070 51 65 15 3f 9c 02 80 3f 39 1f 17 3f 24 14 66 3f
       0.5835772 1.0000796 0.59032017 0.8987448
000080 f7 36 55 3f 63 de 03 3f bc 1f 2b 3f 19 4b 7a 3f
       0.83286995 0.5151121 0.668453 0.9777084
000090 8e 3b 35 3f 5c df 6a 3f 32 a5 67 3f 22 16 90 3f
       0.70794 0.9174707 0.90486443 1.1256754
0000a0 63 8c 22 3f a9 1b 94 3f e7 40 01 3f ee 14 65 3f
       0.63495463 1.1570941 0.5048966 0.8948506
0000b0 bb 1c c9 3f c9 53 1e 3f 23 21 45 3f 74 bb 66 3f
       1.5711893 0.61846596 0.7700369 0.9012978
0000c0 e4 d2 21 3f 45 de 66 3f 98 6f 22 3f 13 0a 1e 3f
       0.6321242 0.90182906 0.6345153 0.6173412
0000d0 2b 6c 6a 3f b9 00 66 3f 16 c5 5e 3f b3 36 94 3f
       0.915713 0.8984485 0.8701948 1.1579193
0000e0 96 af 82 3f 21 a1 61 3f 8e b0 32 3f f9 9c 9e 3f
       1.0209835 0.8813649 0.6980065 1.2391654
0000f0 32 b2 99 3f 2d d4 38 3f db 9f 35 3f 1b 88 0a 3f
       1.2007506 0.72198755 0.70947045 0.5411393

model.8.weight f4 [2, 64]
000000 c5 70 33 bc f0 21 68 bc 6f b5 a2 bd ad dc 00 bc
       -0.010952179 -0.014168248 -0.07944762 -0.007865113
000010 bf 4c bc 3d 3f 8e f5 3d 6d 0f 1e bd c4 b5 40 bb
       0.09194326 0.11990022 -0.03858893 -0.0029405216
000020 55 2c c4 bc 08 90 a9 bd 98 64 c8 bc 99 99 27 bd
       -0.02394692 -0.08279425 -0.02446203 -0.040917967
000030 ce 51 94 bb 5c 3b ad 3c 0f 5e 5a bc a5 2f 2f 3d
       -0.0045263534 0.021146469 -0.013328089 0.042770047
000040 47 36 f2 3d 3c db d1 bc 0f 19 a7 bd 59 c5 ad 3d
       0.11826759 -0.025617234 -0.081590764 0.08484907
000050 c5 e6 11 3d 8c 60 3a bb 2b ed 82 bc 18 54 e5 bc
       0.03562047 -0.0028438894 -0.015982231 -0.0279942
000060 da 37 46 3b 66 ed bb 3d 13 5d 39 3c 17 a4 e7 3b
       0.0030245692 0.091761395 0.0113136945 0.0070691216
000070 a5 e1 0f bd 13 04 d7 bc a7 9c 2a bd 6d 07 bb 3d
       -0.0351273 -0.02624706 -0.0416533 0.09132276
000080 a9 08 e4 3d ab 9d ea bc 33 ba 01 3d d6 1b b1 bd
       0.11134464 -0.028639635 0.031671714 -0.086478874
000090 86 ec 64 bd f5 d2 18 3d 61 13 a3 bc 65 b4 e8 3d
       -0.05588963 0.03731056 -0.019906702 0.113625325
0000a0 d8 ca 4d bb ae 45 61 bd 82 35 c9 bd 36 3d 48 bc
       -0.0031401422 -0.054998092 -0.09824659 -0.012221625
0000b0 c3 4f b8 bd ed 36 22 bd b5 ee e4 3c 61 1e 03 3d
       -0.08999588 -0.039603163 0.027945856 0.032011393
0000c0 e0 26 4f bd 54 cf 06 3d 13 53 45 3d d9 a8 3f 3d
       -0.050574183 0.032912567 0.04817493 0.046791885
0000d0 2e fb 8d bd a2 e6 72 3b 0d 8f ac bd 03 5b a7 3c
       -0.06932674 0.0037063737 -0.08425722 0.02042914
0000e0 d9 95 76 bd b1 87 1b bd 7c 03 29 bb 30 28 72 3d
       -0.0602015 -0.037971202 -0.002578943 0.059120357
0000f0 9d 66 f4 bd d2 7c 8f bb 51 fa 8c 3d cd ec 5e 3d
       -0.119336344 -0.0043788934 0.068836816 0.05442505
000100 f5 5e 82 3d 51 b2 1f 3d c2 5e 35 bd 1b 8a 66 3d
       0.06365768 0.038988415 -0.04427982 0.05628405
000110 a7 43 fc 3d a2 c5 34 3d 0a 90 00 bc 1d 5f 42 3d
       0.12317591 0.04413379 -0.007846842 0.04745399
000120 c4 69 c2 bb 6c b5 0c bd 8c a7 32 3d 6a 07 ec bd
       -0.0059330184 -0.034352705 0.043616816 -0.115248516
000130 b8 4c 19 3d 17 e2 3c bd 53 81 54 3c 2d fa 7d 3d
       0.03742668 -0.046114054 0.012970286 0.062006164
000140 bf 44 d5 3c 7a 22 5f bd 49 e9 2f bd 82 c0 d3 3d
       0.026033757 -0.05447624 -0.042947087 0.10339452
000150 f4 55 8d 3d 07 3e e9 3c 0a 7c a0 bd 82 7b fe 3b
       0.0690116 0.02847196 -0.078361586 0.007766188
000160 0c 1e 94 3d d5 48 ae 3d d6 70 d9 bc 21 ab 87 3d
       0.072322935 0.08509985 -0.026543062 0.06624437
000170 6f 5e 3e bd 3b 1e 9a bd 62 71 50 bd 55 49 98 3c
       -0.046476778 -0.07525297 -0.05088938 0.018589655
000180 ee 6d 7d 3d cc dc 6c bd 2c eb 9c bc 40 48 73 bd
       0.061872415 -0.057827756 -0.019155107 -0.059395075
000190 c4 51 d1 3c a8 76 e9 3d 85 cb 7c bd ea bf 80 3d
       0.025551684 0.11399585 -0.06171753 0.06286605
0001a0 27 84 bc bc 1e cd 12 bd 57 27 40 bd 39 49 58 3d
       -0.023012234 -0.035840146 -0.046912517 0.052804206
0001b0 dd 02 7e bc 8e d8 0d 3c 3a c2 b4 3d 78 79 f2 3b
       -0.015503612 0.008657588 0.08826108 0.007399734
0001c0 ea ec 4d 3c 96 d3 8c 3d ac ba cd 3d 9b 50 a1 3d
       0.012568692 0.06876294 0.100453705 0.078767024
0001d0 bd 5c c8 bc 86 8e c9 3c c8 25 82 bd 21 4f 32 3d
       -0.024458284 0.024604093 -0.063548625 0.043532494
0001e0 db 6d c2 bd f7 f3 4b 3d 4e 52 6f bd 6c ee 12 3e
       -0.094936095 0.04979321 -0.0584281 0.14348763
0001f0 2f d9 90 bd 2d 36 ed 3c da 84 4c bc c3 39 61 3c
       -0.070726745 0.028956497 -0.012482846 0.013746682

model.8.bias f4 [2]
000000 b7 4e 10 3c 21 3d a2 bd
       0.00880783 -0.07921816
