src/modelDevelopment/training/mlp_model.pt (torch, 19232 bytes, 4 tensors)

fc1.weight f4 [64, 64]
000000 20 64 e9 3d 05 c7 9f bd 55 77 16 3c 67 21 13 3e
       0.113960505 -0.07801632 0.009183724 0.1436821
000010 11 09 d3 3c e3 a0 0d bd 6d 88 93 3d 09 89 68 3d
       0.02576116 -0.03457726 0.072037555 0.056771312
000020 3e a2 a1 bd 8f e0 ea bd a5 23 d9 3d f5 a1 c8 bd
       -0.07892273 -0.114686124 0.10602502 -0.09796516
000030 c6 7d 85 3c 89 fc 52 3c 3e dc 3c 3e c8 ab c4 3d
       0.016295325 0.012877592 0.1844339 0.09603077
000040 36 70 30 be cd b3 cc bd 91 a1 bc 3c 99 da b8 3d
       -0.17230305 -0.09995232 0.02302626 0.09026069
000050 ba d0 45 3d c7 4c 1e 3e 86 9c e1 bd 93 17 1f 3e
       0.04829476 0.15458976 -0.110161826 0.15536337
000060 86 97 4f 3d fe 11 06 be 6e 87 ca 3d 6b 53 72 3d
       0.050681613 -0.13092801 0.098891124 0.059161585
000070 a3 4c 39 bd 14 a9 e5 3d d5 bb 84 bd 5f 7e d0 bb
       -0.045239102 0.1121389 -0.064811386 -0.006362721
000080 0a 7e 49 bb 72 5b ff bd f8 7d a9 bd e2 d5 b5 3d
       -0.003074529 -0.12468614 -0.0827598 0.088786855
000090 0f 00 14 bc b7 77 17 bc 2d 65 4d bd b9 2b fa 3d
       -0.009033217 -0.009244851 -0.050145317 0.12215371
0000a0 5f 5d 22 ba 44 9a c8 3d 28 3d 3f bd 35 13 c1 3d
       -0.0006193723 0.09795049 -0.046689183 0.094274916
0000b0 d5 b4 eb 3d 16 77 9e 3d dc a6 99 3d 60 8d 26 3d
       0.115091 0.077375576 0.07502529 0.04066217
0000c0 00 23 c8 3d 69 d4 e1 bd 4b bd 0d be 82 f0 29 bb
       0.09772301 -0.11026842 -0.13841741 -0.0025930707
0000d0 51 b5 72 bd 9e 55 a0 3d ae 68 5c bd cc c9 09 3c
       -0.059254948 0.0782883 -0.053810768 0.0084099285
0000e0 0c 93 56 bd 3d 55 c6 bd 7c 94 73 bc a0 59 3d 3c
       -0.05238633 -0.09684227 -0.014866944 0.011557013
0000f0 95 44 1e 3d cf eb ed 3d 0e 38 a4 3c e5 86 d1 3d
       0.038639624 0.116172425 0.02004626 0.10230807
000100 25 34 cd 3d 60 80 7f 3b 14 6c 8d bd c4 db 8d 3d
       0.100197114 0.003898643 -0.0690538 0.069266826
000110 5d 2b 14 bd af ba 9a bd ff 51 c5 3d df 18 aa 3c
       -0.036174167 -0.07555138 0.0963478 0.020763813
000120 c0 86 37 bc ce 98 f8 3d e5 e5 a0 bd a7 99 2a 3d
       -0.0112015605 0.1213852 -0.07856349 0.04165044
000130 19 93 03 be cc d6 38 bd 96 5b 9b 3d 24 e2 5c 3d
       -0.12849082 -0.04512672 0.07585828 0.053926602
000140 9d 8d b3 bd c3 2d ea 3d 93 da 71 bd 3f 1f 96 bc
       -0.08767245 0.114345096 -0.05904634 -0.018325446
000150 ee 6d 5d bc 88 0f c9 3d 30 91 d8 bd fe 53 ba 3d
       -0.013514979 0.098174155 -0.10574567 0.090980515
000160 53 79 d7 bd 3d 5a a1 bd 1d 34 f6 3c 80 5a aa 3c
       -0.10521188 -0.0787854 0.030054146 0.020795107
000170 e0 b9 7c ba 35 26 d7 3d 4e 5e b5 ba 2e 35 e0 3d
       -0.00096407346 0.10505334 -0.0013837309 0.10947643
000180 fd ad 45 bd 76 bf 39 3d ec f1 4b 3d e9 13 8f 3d
       -0.04826163 0.045348607 0.04979126 0.069862194
000190 d6 24 25 3e bb 97 4b bd 01 d3 4b 3d 00 1a 75 3b
       0.16127333 -0.04970525 0.049761776 0.003739953
0001a0 1a 05 22 bd b5 da c2 bd 95 41 49 3d d1 25 98 bd
       -0.039555646 -0.09514371 0.04913481 -0.07429088
0001b0 aa da d2 3d 39 59 4c 3d be 47 22 3c 03 02 63 bc
       0.10295613 0.049889777 0.0099048 -0.01385546
0001c0 24 88 cc bd 25 ae 0c be 9a 7e cc 3d d3 4c 1c be
       -0.09986904 -0.13738306 0.09985085 -0.15263681
0001d0 03 e1 aa bd b9 21 2f bd b2 10 7d 3d 0d 0c 60 3d
       -0.08343699 -0.04275677 0.0617835 0.054698993
0001e0 0e c6 71 3c f8 66 a0 bd cf 78 3d bc 93 d8 7a bd
       0.014756693 -0.0783214 -0.011564448 -0.061241698
0001f0 68 12 9a bc e5 0d 66 3d e4 b9 0f 3e a6 34 e2 bd
       -0.018807605 0.056165595 0.14035755 -0.11045198
000200 ce 94 10 3d 15 85 05 bc 5d cc 2d 3e b3 5b 5a 3d
       0.03529816 -0.008149405 0.1697249 0.053310107
000210 8d cd 0f 3d 34 8b 86 3e f9 ef 35 3e e8 8f 85 3c
       0.035108138 0.2627808 0.17767324 0.016303971
000220 b7 b8 41 3d 14 f9 2c 3d a6 9d b1 bd 40 37 89 3d
       0.0472953 0.042229727 -0.08672647 0.06699991
000230 d3 ed e3 bb a5 c7 f3 bd d0 f8 7f bd 47 dc 59 bd
       -0.006955841 -0.119033135 -0.062493145 -0.05318859
000240 16 f2 17 be c6 d2 89 bc 13 36 c7 bc b7 b4 9d bd
       -0.14838442 -0.016824137 -0.024317777 -0.07700484
000250 b1 68 2e 3e 2b 89 c5 3d 18 7e 91 3d 92 03 07 be
       0.17032124 0.09645303 0.071041286 -0.13184956
000260 13 60 db 3c d9 b5 59 3d 61 31 de bd 6b 8d 0a 3c
       0.02677921 0.05315194 -0.10849262 0.008456568
000270 4c ce d5 3d e7 de e7 3d c4 69 1a 3d b0 49 28 bb
       0.10439739 0.11321812 0.037698522 -0.0025678687
000280 d8 db b6 bc da 17 38 3e 06 2c 4c 3e 0c ef 98 bc
       -0.022321627 0.17977849 0.19938669 -0.018668674
000290 f3 12 2e be 4d fa e1 bd 49 a5 90 bc 9a e7 c5 bb
       -0.16999416 -0.11034069 -0.01765694 -0.006039572
0002a0 8b 64 08 be 2d 77 0a 3c 42 48 39 bc db bb 48 bd
       -0.13319604 0.008451265 -0.0113087315 -0.049007278
0002b0 36 73 09 3c ef 04 ba 3d 27 38 ab 3d 03 5d a1 bd
       0.008389285 0.09082972 0.083603196 -0.07879069
0002c0 dd 7b 0a be 09 97 d7 bd bd 54 37 3d f3 6d c5 bb
       -0.13523813 -0.105268545 0.044758547 -0.00602507
0002d0 72 bd 80 3c 8e 18 00 be 12 56 22 bd 64 ef 73 bc
       0.015715335 -0.12509367 -0.039632864 -0.014888618
0002e0 8e 14 68 bd 44 06 0e 3e 8e d9 85 bd 5c 56 01 be
       -0.056660227 0.13869578 -0.06535636 -0.126306
0002f0 80 28 2a be 78 03 d7 bd 96 a9 0f 3c dc da 0f 3d
       -0.16617012 -0.104987085 0.00876846 0.03512083
000300 d2 92 a0 bd 3f 11 97 bd 37 7f b7 bd f3 95 43 3d
       -0.07840504 -0.07376336 -0.08959811 0.047750425
000310 b7 ba a8 3d 91 9a a3 bc ba 8c 54 3d 34 0e 2f ba
       0.08238738 -0.019971164 0.05189202 -0.00066778366
000320 16 23 96 bc 97 ee da bb e3 0e fe 3c 3c 5e 56 bd
       -0.018327277 -0.006681274 0.031012958 -0.052335963
000330 49 f5 25 bd f1 04 a8 3b 86 b2 36 bd 17 68 38 3d
       -0.040517125 0.005127542 -0.044603847 0.045021143
000340 c4 8c d7 3c 8e 1f 0a bd 7e 9c d6 bd 91 24 96 3d
       0.02631224 -0.0337215 -0.10479067 0.07331193
000350 5f 13 4f bc bf 3c 59 3d 7c ba b9 bd 37 26 e1 3d
       -0.012638896 0.053036448 -0.09068772 0.10993617
000360 d3 ae 89 ba 35 32 75 bd c7 cc 23 3e 1a f3 cc 3d
       -0.0010504372 -0.059862334 0.15996085 0.100073054
000370 87 77 e5 bb 55 04 c7 3b 23 c6 ca 3d a7 e3 61 bd
       -0.007002774 0.0060735145 0.09901073 -0.055148747
000380 c9 04 c1 bd 07 f7 43 bd f1 80 f5 bd 4e 6c fb 3d
       -0.09424741 -0.047843006 -0.11987484 0.12276517
000390 38 32 78 bd 6e 16 2c bd a9 6c 9e 3c 34 b0 2b bc
       -0.060594767 -0.042013578 0.019338923 -0.010479022
0003a0 07 16 6b bd a3 61 bf 3d 63 46 93 bd 7b 81 95 3d
       -0.057394054 0.093447946 -0.071911596 0.07300087
0003b0 82 09 70 3d b5 ca 93 3d 62 34 7d bd eb cc 0f bd
       0.058602817 0.07216398 -0.061817534 -0.035107534
0003c0 c9 64 da bd 8d 01 c5 bd 94 0c 2b 3b 74 5c 6d bd
       -0.106637545 -0.096194364 0.0026100026 -0.0579495
0003d0 6d 64 00 3e 46 64 1e 3d e5 8d 32 3e c9 39 40 3d
       0.1253831 0.038669847 0.17436941 0.04693011
0003e0 93 30 b7 3c 1f 9d 1b 3d 28 d5 42 3d 8b cc 04 bd
       0.02236203 0.03799164 0.047566563 -0.03242163
0003f0 a1 1a 29 3c bc cb 60 bd 7d 11 b2 bd 66 c9 cc 3c
       0.01032129 -0.054881796 -0.08694742 0.024998378

fc1.bias f4 [64]
000000 49 75 af 3d 32 ee f7 3c 8b 88 a1 3d ff fe 5f be
       0.08567292 0.030264948 0.07887372 -0.21874617
000010 61 1f 89 bd 90 16 51 be d5 88 19 3d 31 05 35 ba
       -0.06695438 -0.20418763 0.03748401 -0.00069053756
000020 42 f7 1b bd 9d 95 83 be c1 31 37 be de 75 0f bd
       -0.0380776 -0.25700083 -0.17890073 -0.035024516
000030 e9 d2 73 be f8 5b b4 bd 84 f7 16 be 35 6b 04 be
       -0.23810925 -0.08806604 -0.14742857 -0.12931521
000040 0a d4 1f be 8c 1c b7 be 8b 9b 50 be e8 bd 81 be
       -0.1560823 -0.35763967 -0.20371835 -0.253402
000050 2b fc ac bc 92 8a 9c 3c b6 75 22 be 3b ef 08 3c
       -0.021116337 0.019109044 -0.15865216 0.008357818
000060 5e 83 0f bd 20 6c 16 bd 3c f7 33 3d 1d f0 4d bd
       -0.03503739 -0.03672421 0.043936953 -0.050277818
000070 3f ae 62 be d4 f6 c1 bd 74 6b a8 bd 3c d8 9d be
       -0.22136782 -0.09470907 -0.0822362 -0.30829036
000080 04 a8 87 be f7 94 08 be cd 53 7c 3b bc 2b 6f be
       -0.26495373 -0.13338076 0.0038502098 -0.23356527
000090 e8 f1 21 3e 6a de c9 3d 0a e8 e1 bd 06 70 16 be
       0.15814936 0.09856875 -0.11030586 -0.14691171
0000a0 df 28 e3 3b 4f a9 50 3d 01 f9 4d be 33 20 99 be
       0.0069323624 0.050942715 -0.20114519 -0.2990738
0000b0 f6 9a 61 be 5f b3 c3 bc e0 25 8d 3d 4b 32 9b 3c
       -0.22031769 -0.023889242 0.0689199 0.01894488
0000c0 2a 97 1f be 52 d0 a8 bd 00 ae 43 be 5f d8 e2 3d
       -0.15585008 -0.08242859 -0.19109344 0.11076426
0000d0 c7 7f 0c be c1 f4 30 bd a5 e6 34 be 06 fa 4d bd
       -0.13720618 -0.043202166 -0.17666109 -0.05028727
0000e0 83 cd 3b 3d db 13 45 bd b7 14 27 be 1a cd 88 bc
       0.045850288 -0.04811464 -0.16316496 -0.016699363
0000f0 74 58 92 3c bb a3 9a bc 01 34 e2 3c fe 52 91 bd
       0.017864443 -0.0188769 0.027612688 -0.07095908

fc2.weight f4 [2, 64]
000000 59 01 85 bd ec ee 8d bc aa db 26 3e b0 97 01 be
       -0.06494398 -0.01732584 0.16294733 -0.1265552
000010 a7 46 a5 3d 54 e4 b6 3a 31 1f 20 bd 0c 57 97 3d
       0.080701165 0.0013953545 -0.039092246 0.0738965
000020 09 27 02 3b 07 c7 f2 bb e5 ab ab bd 95 d7 8e 3c
       0.0019859693 -0.00740898 -0.08382396 0.017436782
000030 ac 5b 04 3e 4e fe 25 bd 27 53 3b 3c 57 94 e5 bc
       0.12925595 -0.040525727 0.011433399 -0.028024836
000040 d3 cf ae bc 56 8b d3 bd 17 f1 0e bd 57 07 04 3d
       -0.021339333 -0.103293106 -0.03489789 0.032233562
000050 13 bb d6 3d 6c 4f 9b bc 59 82 96 bd d8 78 aa bd
       0.104849 -0.01895877 -0.073490806 -0.0832383
000060 95 cc 8e bc 83 24 af bd 1e 69 bf 3c 45 da 50 3d
       -0.017431537 -0.08551886 0.023365553 0.050989408
000070 ed e6 68 3d fd 5d b6 bd 5e 44 ae 3c 6d ab 35 bd
       0.056860853 -0.089046456 0.021272834 -0.044352937
000080 87 03 81 bc c6 1e 23 3d 14 5a 9e bd ef 38 e6 bc
       -0.015748752 0.03982427 -0.07732025 -0.02810332
000090 ba 46 57 3d fe 37 3b 3d 4e 1a c2 bb c4 cc 07 3e
       0.052557684 0.045707695 -0.005923546 0.13261706
0000a0 33 7c 4e bd 2e e2 c9 3d 72 70 02 bc 8d 8a 7c 3d
       -0.050411414 0.098575935 -0.007961379 0.06165557
0000b0 20 4d 84 bd 0b 2f 26 bd 02 9f 9b bd fb 76 2a bd
       -0.06460023 -0.040572207 -0.07598688 -0.041617375
0000c0 05 45 0b 3c 87 a2 bb bd fa 2a c1 bd 1a a9 86 3d
       0.008500342 -0.09161859 -0.09432025 0.06575222
0000d0 c2 17 b8 3d f1 63 d8 bd 9d c3 c5 3c 02 b8 01 3e
       0.089889064 -0.10565937 0.024141127 0.1266785
0000e0 f4 87 e9 3d 70 13 e1 bd ee ca 11 3c 0b 4d 29 3d
       0.11402884 -0.109900355 0.00889848 0.04133324
0000f0 57 df a4 bd 1c e2 b4 bd 3f a0 99 3d 64 99 ef bd
       -0.08050411 -0.088321894 0.07501268 -0.11699179
000100 df cf 9f ba 7b 77 dc 3b 38 92 a4 3c 1a dc ea bd
       -0.0012192688 0.0067281104 0.020089254 -0.11467762
000110 2e c5 53 bd 72 2e 18 bd f4 24 b3 3c 7d b8 d4 bc
       -0.051701717 -0.03715367 0.021868207 -0.025966877
000120 cc 27 08 3e fd 30 cf 3d 3f 67 ab bd cf ee 8f 3c
       0.13296431 0.10116766 -0.08369302 0.017569927
000130 d9 88 a9 bd 24 4c 18 3e 8e e4 ae 3d 87 ca ff 3d
       -0.08278055 0.14872795 0.08539687 0.12489801
000140 3f 1a da bc a3 f1 ab 3c 9a 09 3a 3d f7 fe 19 be
       -0.026623843 0.020989245 0.045419313 -0.15038668
000150 f7 e3 a2 3d cd 74 8b 3c a8 19 3b 3d 4c 0f e9 3d
       0.07953637 0.017023468 0.045678765 0.11379871
000160 a8 60 19 3e 35 b2 d1 3c a5 b2 e3 3b fa 3b 06 3c
       0.14978278 0.025597671 0.0069487863 0.00819301
000170 d2 23 19 be f6 de 8e bd 29 1b a2 3d b9 af da bd
       -0.1495507 -0.0697612 0.07915337 -0.10678048
000180 80 48 84 3d a1 0e b5 3d d5 b1 65 3c 87 22 bf bd
       0.06459141 0.08840681 0.014019449 -0.093327574
000190 38 82 ac bd 66 13 d7 bd 6a db 19 bc 6a 2e 80 bb
       -0.08423275 -0.10501747 -0.009390691 -0.003911783
0001a0 6a 2e 1e be 38 6c a7 bd 6f 11 d9 bd 85 96 1d 3e
       -0.15447393 -0.08174938 -0.10599028 0.1538945
0001b0 98 ef 7a 3c dd 6b ba 3d ea c1 09 3d 29 56 7e bd
       0.015315913 0.091026045 0.033632196 -0.062093887
0001c0 b1 ab a3 bd f4 b7 04 bd 1b 84 f7 3d d1 f4 73 3b
       -0.07991732 -0.032401994 0.12085744 0.003722478
0001d0 21 2f 26 be 64 d9 82 3d 3c 23 fd bc 79 a1 ae bd
       -0.16228916 0.0638912 -0.03090059 -0.08526892
0001e0 00 39 8f bd c7 af 0a 3d c3 ac b1 bc 74 fb 1c bd
       -0.06993294 0.03385904 -0.021688825 -0.038325742
0001f0 2d 85 84 3d 5a 07 87 3d cd 34 98 bd cb 00 3c bc
       0.06470714 0.06593199 -0.07431946 -0.011474798

fc2.bias f4 [2]
000000 28 63 8d bd 23 51 ec 3d
       -0.06903678 0.11538913
